// -----// IR Dump After AutoInputConversionPipelinePass (iree-auto-input-conversion) //----- //
#map = affine_map<(d0, d1) -> (d0, d1)>
module {
  func.func @matmul(%arg0: tensor<4x4xf32>, %arg1: tensor<4x4xf32>) -> tensor<4x4xf32> {
    %0 = tensor.empty() : tensor<4x4xf32>
    %1 = linalg.matmul ins(%arg0, %arg1 : tensor<4x4xf32>, tensor<4x4xf32>) outs(%0 : tensor<4x4xf32>) -> tensor<4x4xf32>
    %2 = linalg.generic {indexing_maps = [#map, #map], iterator_types = ["parallel", "parallel"]} ins(%1 : tensor<4x4xf32>) outs(%0 : tensor<4x4xf32>) {
    ^bb0(%in: f32, %out: f32):
      %cst = arith.constant 0.000000e+00 : f32
      %3 = arith.maximumf %in, %cst : f32
      linalg.yield %3 : f32
    } -> tensor<4x4xf32>
    return %2 : tensor<4x4xf32>
  }
}


// -----// IR Dump After IREEImportPublicPass (iree-import-public) //----- //
#map = affine_map<(d0, d1) -> (d0, d1)>
module {
  util.func public @matmul(%arg0: tensor<4x4xf32>, %arg1: tensor<4x4xf32>) -> tensor<4x4xf32> {
    %0 = tensor.empty() : tensor<4x4xf32>
    %1 = linalg.matmul ins(%arg0, %arg1 : tensor<4x4xf32>, tensor<4x4xf32>) outs(%0 : tensor<4x4xf32>) -> tensor<4x4xf32>
    %2 = linalg.generic {indexing_maps = [#map, #map], iterator_types = ["parallel", "parallel"]} ins(%1 : tensor<4x4xf32>) outs(%0 : tensor<4x4xf32>) {
    ^bb0(%in: f32, %out: f32):
      %cst = arith.constant 0.000000e+00 : f32
      %3 = arith.maximumf %in, %cst : f32
      linalg.yield %3 : f32
    } -> tensor<4x4xf32>
    util.return %2 : tensor<4x4xf32>
  }
}


// -----// IR Dump After ImportMLProgramPass (iree-import-ml-program) //----- //
#map = affine_map<(d0, d1) -> (d0, d1)>
module {
  util.func public @matmul(%arg0: tensor<4x4xf32>, %arg1: tensor<4x4xf32>) -> tensor<4x4xf32> {
    %0 = tensor.empty() : tensor<4x4xf32>
    %1 = linalg.matmul ins(%arg0, %arg1 : tensor<4x4xf32>, tensor<4x4xf32>) outs(%0 : tensor<4x4xf32>) -> tensor<4x4xf32>
    %2 = linalg.generic {indexing_maps = [#map, #map], iterator_types = ["parallel", "parallel"]} ins(%1 : tensor<4x4xf32>) outs(%0 : tensor<4x4xf32>) {
    ^bb0(%in: f32, %out: f32):
      %cst = arith.constant 0.000000e+00 : f32
      %3 = arith.maximumf %in, %cst : f32
      linalg.yield %3 : f32
    } -> tensor<4x4xf32>
    util.return %2 : tensor<4x4xf32>
  }
}


// -----// IR Dump After SanitizeModuleNamesPass (iree-sanitize-module-names) //----- //
#map = affine_map<(d0, d1) -> (d0, d1)>
module {
  util.func public @matmul(%arg0: tensor<4x4xf32>, %arg1: tensor<4x4xf32>) -> tensor<4x4xf32> {
    %0 = tensor.empty() : tensor<4x4xf32>
    %1 = linalg.matmul ins(%arg0, %arg1 : tensor<4x4xf32>, tensor<4x4xf32>) outs(%0 : tensor<4x4xf32>) -> tensor<4x4xf32>
    %2 = linalg.generic {indexing_maps = [#map, #map], iterator_types = ["parallel", "parallel"]} ins(%1 : tensor<4x4xf32>) outs(%0 : tensor<4x4xf32>) {
    ^bb0(%in: f32, %out: f32):
      %cst = arith.constant 0.000000e+00 : f32
      %3 = arith.maximumf %in, %cst : f32
      linalg.yield %3 : f32
    } -> tensor<4x4xf32>
    util.return %2 : tensor<4x4xf32>
  }
}


// -----// IR Dump After DemoteF64ToF32Pass (iree-input-conversion-demote-f64-to-f32) //----- //
#map = affine_map<(d0, d1) -> (d0, d1)>
module {
  util.func public @matmul(%arg0: tensor<4x4xf32>, %arg1: tensor<4x4xf32>) -> tensor<4x4xf32> {
    %0 = tensor.empty() : tensor<4x4xf32>
    %1 = linalg.matmul ins(%arg0, %arg1 : tensor<4x4xf32>, tensor<4x4xf32>) outs(%0 : tensor<4x4xf32>) -> tensor<4x4xf32>
    %2 = linalg.generic {indexing_maps = [#map, #map], iterator_types = ["parallel", "parallel"]} ins(%1 : tensor<4x4xf32>) outs(%0 : tensor<4x4xf32>) {
    ^bb0(%in: f32, %out: f32):
      %cst = arith.constant 0.000000e+00 : f32
      %3 = arith.maximumf %in, %cst : f32
      linalg.yield %3 : f32
    } -> tensor<4x4xf32>
    util.return %2 : tensor<4x4xf32>
  }
}


// -----// IR Dump After ConvertStreamableOpsPass (iree-abi-convert-streamable-ops) //----- //
#map = affine_map<(d0, d1) -> (d0, d1)>
module {
  util.func public @matmul(%arg0: tensor<4x4xf32>, %arg1: tensor<4x4xf32>) -> tensor<4x4xf32> {
    %0 = tensor.empty() : tensor<4x4xf32>
    %1 = linalg.matmul ins(%arg0, %arg1 : tensor<4x4xf32>, tensor<4x4xf32>) outs(%0 : tensor<4x4xf32>) -> tensor<4x4xf32>
    %2 = linalg.generic {indexing_maps = [#map, #map], iterator_types = ["parallel", "parallel"]} ins(%1 : tensor<4x4xf32>) outs(%0 : tensor<4x4xf32>) {
    ^bb0(%in: f32, %out: f32):
      %cst = arith.constant 0.000000e+00 : f32
      %3 = arith.maximumf %in, %cst : f32
      linalg.yield %3 : f32
    } -> tensor<4x4xf32>
    util.return %2 : tensor<4x4xf32>
  }
}


// -----// IR Dump After WrapEntryPointsPass (iree-abi-wrap-entry-points) //----- //
#map = affine_map<(d0, d1) -> (d0, d1)>
module {
  util.func public @matmul(%arg0: !hal.buffer_view, %arg1: !hal.buffer_view) -> !hal.buffer_view attributes {iree.abi.stub, iree.reflection = {iree.abi.declaration = "sync func @matmul(%input0: tensor<4x4xf32>, %input1: tensor<4x4xf32>) -> (%output0: tensor<4x4xf32>)"}} {
    %0 = hal.tensor.import %arg0 "input0" : !hal.buffer_view -> tensor<4x4xf32>
    %1 = hal.tensor.import %arg1 "input1" : !hal.buffer_view -> tensor<4x4xf32>
    %2 = util.call @_matmul(%0, %1) : (tensor<4x4xf32>, tensor<4x4xf32>) -> tensor<4x4xf32>
    %3 = hal.tensor.export %2 "output0" : tensor<4x4xf32> -> !hal.buffer_view
    util.return %3 : !hal.buffer_view
  }
  util.func private @_matmul(%arg0: tensor<4x4xf32>, %arg1: tensor<4x4xf32>) -> tensor<4x4xf32> attributes {hal.abi.convention = #hal.abi.convention<synchronous>} {
    %0 = tensor.empty() : tensor<4x4xf32>
    %1 = linalg.matmul ins(%arg0, %arg1 : tensor<4x4xf32>, tensor<4x4xf32>) outs(%0 : tensor<4x4xf32>) -> tensor<4x4xf32>
    %2 = linalg.generic {indexing_maps = [#map, #map], iterator_types = ["parallel", "parallel"]} ins(%1 : tensor<4x4xf32>) outs(%0 : tensor<4x4xf32>) {
    ^bb0(%in: f32, %out: f32):
      %cst = arith.constant 0.000000e+00 : f32
      %3 = arith.maximumf %in, %cst : f32
      linalg.yield %3 : f32
    } -> tensor<4x4xf32>
    util.return %2 : tensor<4x4xf32>
  }
}


// -----// IR Dump After Canonicalizer (canonicalize) //----- //
util.func private @_matmul(%arg0: tensor<4x4xf32>, %arg1: tensor<4x4xf32>) -> tensor<4x4xf32> attributes {hal.abi.convention = #hal.abi.convention<synchronous>} {
  %cst = arith.constant 0.000000e+00 : f32
  %0 = tensor.empty() : tensor<4x4xf32>
  %1 = linalg.matmul ins(%arg0, %arg1 : tensor<4x4xf32>, tensor<4x4xf32>) outs(%0 : tensor<4x4xf32>) -> tensor<4x4xf32>
  %2 = linalg.generic {indexing_maps = [affine_map<(d0, d1) -> (d0, d1)>, affine_map<(d0, d1) -> (d0, d1)>], iterator_types = ["parallel", "parallel"]} ins(%1 : tensor<4x4xf32>) outs(%0 : tensor<4x4xf32>) {
  ^bb0(%in: f32, %out: f32):
    %3 = arith.maximumf %in, %cst : f32
    linalg.yield %3 : f32
  } -> tensor<4x4xf32>
  util.return %2 : tensor<4x4xf32>
}

// -----// IR Dump After Canonicalizer (canonicalize) //----- //
util.func public @matmul(%arg0: !hal.buffer_view, %arg1: !hal.buffer_view) -> !hal.buffer_view attributes {iree.abi.stub, iree.reflection = {iree.abi.declaration = "sync func @matmul(%input0: tensor<4x4xf32>, %input1: tensor<4x4xf32>) -> (%output0: tensor<4x4xf32>)"}} {
  %0 = hal.tensor.import %arg0 "input0" : !hal.buffer_view -> tensor<4x4xf32>
  %1 = hal.tensor.import %arg1 "input1" : !hal.buffer_view -> tensor<4x4xf32>
  %2 = util.call @_matmul(%0, %1) : (tensor<4x4xf32>, tensor<4x4xf32>) -> tensor<4x4xf32>
  %3 = hal.tensor.export %2 "output0" : tensor<4x4xf32> -> !hal.buffer_view
  util.return %3 : !hal.buffer_view
}

// -----// IR Dump After Canonicalizer (canonicalize) //----- //
util.func public @matmul(%arg0: !hal.buffer_view, %arg1: !hal.buffer_view) -> !hal.buffer_view attributes {iree.abi.stub, iree.reflection = {iree.abi.declaration = "sync func @matmul(%input0: tensor<4x4xf32>, %input1: tensor<4x4xf32>) -> (%output0: tensor<4x4xf32>)"}} {
  %cst = arith.constant 0.000000e+00 : f32
  %0 = hal.tensor.import %arg0 "input0" : !hal.buffer_view -> tensor<4x4xf32>
  %1 = hal.tensor.import %arg1 "input1" : !hal.buffer_view -> tensor<4x4xf32>
  %2 = tensor.empty() : tensor<4x4xf32>
  %3 = linalg.matmul ins(%0, %1 : tensor<4x4xf32>, tensor<4x4xf32>) outs(%2 : tensor<4x4xf32>) -> tensor<4x4xf32>
  %4 = linalg.generic {indexing_maps = [affine_map<(d0, d1) -> (d0, d1)>, affine_map<(d0, d1) -> (d0, d1)>], iterator_types = ["parallel", "parallel"]} ins(%3 : tensor<4x4xf32>) outs(%2 : tensor<4x4xf32>) {
  ^bb0(%in: f32, %out: f32):
    %6 = arith.maximumf %in, %cst : f32
    linalg.yield %6 : f32
  } -> tensor<4x4xf32>
  %5 = hal.tensor.export %4 "output0" : tensor<4x4xf32> -> !hal.buffer_view
  util.return %5 : !hal.buffer_view
}

// -----// IR Dump After Inliner (inline) //----- //
#map = affine_map<(d0, d1) -> (d0, d1)>
module {
  util.func public @matmul(%arg0: !hal.buffer_view, %arg1: !hal.buffer_view) -> !hal.buffer_view attributes {iree.abi.stub, iree.reflection = {iree.abi.declaration = "sync func @matmul(%input0: tensor<4x4xf32>, %input1: tensor<4x4xf32>) -> (%output0: tensor<4x4xf32>)"}} {
    %cst = arith.constant 0.000000e+00 : f32
    %0 = hal.tensor.import %arg0 "input0" : !hal.buffer_view -> tensor<4x4xf32>
    %1 = hal.tensor.import %arg1 "input1" : !hal.buffer_view -> tensor<4x4xf32>
    %2 = tensor.empty() : tensor<4x4xf32>
    %3 = linalg.matmul ins(%0, %1 : tensor<4x4xf32>, tensor<4x4xf32>) outs(%2 : tensor<4x4xf32>) -> tensor<4x4xf32>
    %4 = linalg.generic {indexing_maps = [#map, #map], iterator_types = ["parallel", "parallel"]} ins(%3 : tensor<4x4xf32>) outs(%2 : tensor<4x4xf32>) {
    ^bb0(%in: f32, %out: f32):
      %6 = arith.maximumf %in, %cst : f32
      linalg.yield %6 : f32
    } -> tensor<4x4xf32>
    %5 = hal.tensor.export %4 "output0" : tensor<4x4xf32> -> !hal.buffer_view
    util.return %5 : !hal.buffer_view
  }
}


// -----// IR Dump After Canonicalizer (canonicalize) //----- //
util.func public @matmul(%arg0: !hal.buffer_view, %arg1: !hal.buffer_view) -> !hal.buffer_view attributes {iree.abi.stub, iree.reflection = {iree.abi.declaration = "sync func @matmul(%input0: tensor<4x4xf32>, %input1: tensor<4x4xf32>) -> (%output0: tensor<4x4xf32>)"}} {
  %cst = arith.constant 0.000000e+00 : f32
  %0 = hal.tensor.import %arg0 "input0" : !hal.buffer_view -> tensor<4x4xf32>
  %1 = hal.tensor.import %arg1 "input1" : !hal.buffer_view -> tensor<4x4xf32>
  %2 = tensor.empty() : tensor<4x4xf32>
  %3 = linalg.matmul ins(%0, %1 : tensor<4x4xf32>, tensor<4x4xf32>) outs(%2 : tensor<4x4xf32>) -> tensor<4x4xf32>
  %4 = linalg.generic {indexing_maps = [affine_map<(d0, d1) -> (d0, d1)>, affine_map<(d0, d1) -> (d0, d1)>], iterator_types = ["parallel", "parallel"]} ins(%3 : tensor<4x4xf32>) outs(%2 : tensor<4x4xf32>) {
  ^bb0(%in: f32, %out: f32):
    %6 = arith.maximumf %in, %cst : f32
    linalg.yield %6 : f32
  } -> tensor<4x4xf32>
  %5 = hal.tensor.export %4 "output0" : tensor<4x4xf32> -> !hal.buffer_view
  util.return %5 : !hal.buffer_view
}

// -----// IR Dump After CSE (cse) //----- //
util.func public @matmul(%arg0: !hal.buffer_view, %arg1: !hal.buffer_view) -> !hal.buffer_view attributes {iree.abi.stub, iree.reflection = {iree.abi.declaration = "sync func @matmul(%input0: tensor<4x4xf32>, %input1: tensor<4x4xf32>) -> (%output0: tensor<4x4xf32>)"}} {
  %cst = arith.constant 0.000000e+00 : f32
  %0 = hal.tensor.import %arg0 "input0" : !hal.buffer_view -> tensor<4x4xf32>
  %1 = hal.tensor.import %arg1 "input1" : !hal.buffer_view -> tensor<4x4xf32>
  %2 = tensor.empty() : tensor<4x4xf32>
  %3 = linalg.matmul ins(%0, %1 : tensor<4x4xf32>, tensor<4x4xf32>) outs(%2 : tensor<4x4xf32>) -> tensor<4x4xf32>
  %4 = linalg.generic {indexing_maps = [affine_map<(d0, d1) -> (d0, d1)>, affine_map<(d0, d1) -> (d0, d1)>], iterator_types = ["parallel", "parallel"]} ins(%3 : tensor<4x4xf32>) outs(%2 : tensor<4x4xf32>) {
  ^bb0(%in: f32, %out: f32):
    %6 = arith.maximumf %in, %cst : f32
    linalg.yield %6 : f32
  } -> tensor<4x4xf32>
  %5 = hal.tensor.export %4 "output0" : tensor<4x4xf32> -> !hal.buffer_view
  util.return %5 : !hal.buffer_view
}

// -----// IR Dump After SymbolDCE (symbol-dce) //----- //
#map = affine_map<(d0, d1) -> (d0, d1)>
module {
  util.func public @matmul(%arg0: !hal.buffer_view, %arg1: !hal.buffer_view) -> !hal.buffer_view attributes {iree.abi.stub, iree.reflection = {iree.abi.declaration = "sync func @matmul(%input0: tensor<4x4xf32>, %input1: tensor<4x4xf32>) -> (%output0: tensor<4x4xf32>)"}} {
    %cst = arith.constant 0.000000e+00 : f32
    %0 = hal.tensor.import %arg0 "input0" : !hal.buffer_view -> tensor<4x4xf32>
    %1 = hal.tensor.import %arg1 "input1" : !hal.buffer_view -> tensor<4x4xf32>
    %2 = tensor.empty() : tensor<4x4xf32>
    %3 = linalg.matmul ins(%0, %1 : tensor<4x4xf32>, tensor<4x4xf32>) outs(%2 : tensor<4x4xf32>) -> tensor<4x4xf32>
    %4 = linalg.generic {indexing_maps = [#map, #map], iterator_types = ["parallel", "parallel"]} ins(%3 : tensor<4x4xf32>) outs(%2 : tensor<4x4xf32>) {
    ^bb0(%in: f32, %out: f32):
      %6 = arith.maximumf %in, %cst : f32
      linalg.yield %6 : f32
    } -> tensor<4x4xf32>
    %5 = hal.tensor.export %4 "output0" : tensor<4x4xf32> -> !hal.buffer_view
    util.return %5 : !hal.buffer_view
  }
}


// -----// IR Dump After AssignLegacyTargetDevicesPass (iree-hal-assign-legacy-target-devices) //----- //
#executable_target_embedded_elf_arm_64 = #hal.executable.target<"llvm-cpu", "embedded-elf-arm_64", {cpu = "", cpu_features = "+reserve-x18", data_layout = "e-m:e-p270:32:32-p271:32:32-p272:64:64-i8:8:32-i16:16:32-i64:64-i128:128-n32:64-S128-Fn32", iree.encoding.resolver = #iree_cpu.cpu_encoding_resolver<>, max_stack_allocation_size = 32768 : i64, native_vector_size = 16 : i64, target_triple = "arm64-unknown-unknown-eabi-elf"}>
#map = affine_map<(d0, d1) -> (d0, d1)>
#device_target_local = #hal.device.target<"local", [#executable_target_embedded_elf_arm_64]> : !hal.device
module attributes {hal.device.targets = [#device_target_local]} {
  util.func public @matmul(%arg0: !hal.buffer_view, %arg1: !hal.buffer_view) -> !hal.buffer_view attributes {iree.abi.stub, iree.reflection = {iree.abi.declaration = "sync func @matmul(%input0: tensor<4x4xf32>, %input1: tensor<4x4xf32>) -> (%output0: tensor<4x4xf32>)"}} {
    %cst = arith.constant 0.000000e+00 : f32
    %0 = hal.tensor.import %arg0 "input0" : !hal.buffer_view -> tensor<4x4xf32>
    %1 = hal.tensor.import %arg1 "input1" : !hal.buffer_view -> tensor<4x4xf32>
    %2 = tensor.empty() : tensor<4x4xf32>
    %3 = linalg.matmul ins(%0, %1 : tensor<4x4xf32>, tensor<4x4xf32>) outs(%2 : tensor<4x4xf32>) -> tensor<4x4xf32>
    %4 = linalg.generic {indexing_maps = [#map, #map], iterator_types = ["parallel", "parallel"]} ins(%3 : tensor<4x4xf32>) outs(%2 : tensor<4x4xf32>) {
    ^bb0(%in: f32, %out: f32):
      %6 = arith.maximumf %in, %cst : f32
      linalg.yield %6 : f32
    } -> tensor<4x4xf32>
    %5 = hal.tensor.export %4 "output0" : tensor<4x4xf32> -> !hal.buffer_view
    util.return %5 : !hal.buffer_view
  }
}


// -----// IR Dump After MaterializeTargetDevicesPass (iree-hal-materialize-target-devices) //----- //
#executable_target_embedded_elf_arm_64 = #hal.executable.target<"llvm-cpu", "embedded-elf-arm_64", {cpu = "", cpu_features = "+reserve-x18", data_layout = "e-m:e-p270:32:32-p271:32:32-p272:64:64-i8:8:32-i16:16:32-i64:64-i128:128-n32:64-S128-Fn32", iree.encoding.resolver = #iree_cpu.cpu_encoding_resolver<>, max_stack_allocation_size = 32768 : i64, native_vector_size = 16 : i64, target_triple = "arm64-unknown-unknown-eabi-elf"}>
#map = affine_map<(d0, d1) -> (d0, d1)>
#device_target_local = #hal.device.target<"local", [#executable_target_embedded_elf_arm_64]> : !hal.device
module attributes {stream.affinity.default = #hal.device.affinity<@__device_0>} {
  util.global private @__device_0 = #device_target_local
  util.func public @matmul(%arg0: !hal.buffer_view, %arg1: !hal.buffer_view) -> !hal.buffer_view attributes {iree.abi.stub, iree.reflection = {iree.abi.declaration = "sync func @matmul(%input0: tensor<4x4xf32>, %input1: tensor<4x4xf32>) -> (%output0: tensor<4x4xf32>)"}} {
    %cst = arith.constant 0.000000e+00 : f32
    %0 = hal.tensor.import %arg0 "input0" : !hal.buffer_view -> tensor<4x4xf32>
    %1 = hal.tensor.import %arg1 "input1" : !hal.buffer_view -> tensor<4x4xf32>
    %2 = tensor.empty() : tensor<4x4xf32>
    %3 = linalg.matmul ins(%0, %1 : tensor<4x4xf32>, tensor<4x4xf32>) outs(%2 : tensor<4x4xf32>) -> tensor<4x4xf32>
    %4 = linalg.generic {indexing_maps = [#map, #map], iterator_types = ["parallel", "parallel"]} ins(%3 : tensor<4x4xf32>) outs(%2 : tensor<4x4xf32>) {
    ^bb0(%in: f32, %out: f32):
      %6 = arith.maximumf %in, %cst : f32
      linalg.yield %6 : f32
    } -> tensor<4x4xf32>
    %5 = hal.tensor.export %4 "output0" : tensor<4x4xf32> -> !hal.buffer_view
    util.return %5 : !hal.buffer_view
  }
}


// -----// IR Dump After ResolveDevicePromisesPass (iree-hal-resolve-device-promises) //----- //
#executable_target_embedded_elf_arm_64 = #hal.executable.target<"llvm-cpu", "embedded-elf-arm_64", {cpu = "", cpu_features = "+reserve-x18", data_layout = "e-m:e-p270:32:32-p271:32:32-p272:64:64-i8:8:32-i16:16:32-i64:64-i128:128-n32:64-S128-Fn32", iree.encoding.resolver = #iree_cpu.cpu_encoding_resolver<>, max_stack_allocation_size = 32768 : i64, native_vector_size = 16 : i64, target_triple = "arm64-unknown-unknown-eabi-elf"}>
#map = affine_map<(d0, d1) -> (d0, d1)>
#device_target_local = #hal.device.target<"local", [#executable_target_embedded_elf_arm_64]> : !hal.device
module attributes {stream.affinity.default = #hal.device.affinity<@__device_0>} {
  util.global private @__device_0 = #device_target_local
  util.func public @matmul(%arg0: !hal.buffer_view, %arg1: !hal.buffer_view) -> !hal.buffer_view attributes {iree.abi.stub, iree.reflection = {iree.abi.declaration = "sync func @matmul(%input0: tensor<4x4xf32>, %input1: tensor<4x4xf32>) -> (%output0: tensor<4x4xf32>)"}} {
    %cst = arith.constant 0.000000e+00 : f32
    %0 = hal.tensor.import %arg0 "input0" : !hal.buffer_view -> tensor<4x4xf32>
    %1 = hal.tensor.import %arg1 "input1" : !hal.buffer_view -> tensor<4x4xf32>
    %2 = tensor.empty() : tensor<4x4xf32>
    %3 = linalg.matmul ins(%0, %1 : tensor<4x4xf32>, tensor<4x4xf32>) outs(%2 : tensor<4x4xf32>) -> tensor<4x4xf32>
    %4 = linalg.generic {indexing_maps = [#map, #map], iterator_types = ["parallel", "parallel"]} ins(%3 : tensor<4x4xf32>) outs(%2 : tensor<4x4xf32>) {
    ^bb0(%in: f32, %out: f32):
      %6 = arith.maximumf %in, %cst : f32
      linalg.yield %6 : f32
    } -> tensor<4x4xf32>
    %5 = hal.tensor.export %4 "output0" : tensor<4x4xf32> -> !hal.buffer_view
    util.return %5 : !hal.buffer_view
  }
}


// -----// IR Dump After ResolveDeviceAliasesPass (iree-hal-resolve-device-aliases) //----- //
#executable_target_embedded_elf_arm_64 = #hal.executable.target<"llvm-cpu", "embedded-elf-arm_64", {cpu = "", cpu_features = "+reserve-x18", data_layout = "e-m:e-p270:32:32-p271:32:32-p272:64:64-i8:8:32-i16:16:32-i64:64-i128:128-n32:64-S128-Fn32", iree.encoding.resolver = #iree_cpu.cpu_encoding_resolver<>, max_stack_allocation_size = 32768 : i64, native_vector_size = 16 : i64, target_triple = "arm64-unknown-unknown-eabi-elf"}>
#map = affine_map<(d0, d1) -> (d0, d1)>
#device_target_local = #hal.device.target<"local", [#executable_target_embedded_elf_arm_64]> : !hal.device
module attributes {stream.affinity.default = #hal.device.affinity<@__device_0>} {
  util.global private @__device_0 = #device_target_local
  util.func public @matmul(%arg0: !hal.buffer_view, %arg1: !hal.buffer_view) -> !hal.buffer_view attributes {iree.abi.stub, iree.reflection = {iree.abi.declaration = "sync func @matmul(%input0: tensor<4x4xf32>, %input1: tensor<4x4xf32>) -> (%output0: tensor<4x4xf32>)"}} {
    %cst = arith.constant 0.000000e+00 : f32
    %0 = hal.tensor.import %arg0 "input0" : !hal.buffer_view -> tensor<4x4xf32>
    %1 = hal.tensor.import %arg1 "input1" : !hal.buffer_view -> tensor<4x4xf32>
    %2 = tensor.empty() : tensor<4x4xf32>
    %3 = linalg.matmul ins(%0, %1 : tensor<4x4xf32>, tensor<4x4xf32>) outs(%2 : tensor<4x4xf32>) -> tensor<4x4xf32>
    %4 = linalg.generic {indexing_maps = [#map, #map], iterator_types = ["parallel", "parallel"]} ins(%3 : tensor<4x4xf32>) outs(%2 : tensor<4x4xf32>) {
    ^bb0(%in: f32, %out: f32):
      %6 = arith.maximumf %in, %cst : f32
      linalg.yield %6 : f32
    } -> tensor<4x4xf32>
    %5 = hal.tensor.export %4 "output0" : tensor<4x4xf32> -> !hal.buffer_view
    util.return %5 : !hal.buffer_view
  }
}


// -----// IR Dump After VerifyDevicesPass (iree-hal-verify-devices) //----- //
#executable_target_embedded_elf_arm_64 = #hal.executable.target<"llvm-cpu", "embedded-elf-arm_64", {cpu = "", cpu_features = "+reserve-x18", data_layout = "e-m:e-p270:32:32-p271:32:32-p272:64:64-i8:8:32-i16:16:32-i64:64-i128:128-n32:64-S128-Fn32", iree.encoding.resolver = #iree_cpu.cpu_encoding_resolver<>, max_stack_allocation_size = 32768 : i64, native_vector_size = 16 : i64, target_triple = "arm64-unknown-unknown-eabi-elf"}>
#map = affine_map<(d0, d1) -> (d0, d1)>
#device_target_local = #hal.device.target<"local", [#executable_target_embedded_elf_arm_64]> : !hal.device
module attributes {stream.affinity.default = #hal.device.affinity<@__device_0>} {
  util.global private @__device_0 = #device_target_local
  util.func public @matmul(%arg0: !hal.buffer_view, %arg1: !hal.buffer_view) -> !hal.buffer_view attributes {iree.abi.stub, iree.reflection = {iree.abi.declaration = "sync func @matmul(%input0: tensor<4x4xf32>, %input1: tensor<4x4xf32>) -> (%output0: tensor<4x4xf32>)"}} {
    %cst = arith.constant 0.000000e+00 : f32
    %0 = hal.tensor.import %arg0 "input0" : !hal.buffer_view -> tensor<4x4xf32>
    %1 = hal.tensor.import %arg1 "input1" : !hal.buffer_view -> tensor<4x4xf32>
    %2 = tensor.empty() : tensor<4x4xf32>
    %3 = linalg.matmul ins(%0, %1 : tensor<4x4xf32>, tensor<4x4xf32>) outs(%2 : tensor<4x4xf32>) -> tensor<4x4xf32>
    %4 = linalg.generic {indexing_maps = [#map, #map], iterator_types = ["parallel", "parallel"]} ins(%3 : tensor<4x4xf32>) outs(%2 : tensor<4x4xf32>) {
    ^bb0(%in: f32, %out: f32):
      %6 = arith.maximumf %in, %cst : f32
      linalg.yield %6 : f32
    } -> tensor<4x4xf32>
    %5 = hal.tensor.export %4 "output0" : tensor<4x4xf32> -> !hal.buffer_view
    util.return %5 : !hal.buffer_view
  }
}


// -----// IR Dump After AttrBasedPipelinePass (iree-preprocessing-attr-based-pipeline) //----- //
util.func public @matmul(%arg0: !hal.buffer_view, %arg1: !hal.buffer_view) -> !hal.buffer_view attributes {iree.abi.stub, iree.reflection = {iree.abi.declaration = "sync func @matmul(%input0: tensor<4x4xf32>, %input1: tensor<4x4xf32>) -> (%output0: tensor<4x4xf32>)"}} {
  %cst = arith.constant 0.000000e+00 : f32
  %0 = hal.tensor.import %arg0 "input0" : !hal.buffer_view -> tensor<4x4xf32>
  %1 = hal.tensor.import %arg1 "input1" : !hal.buffer_view -> tensor<4x4xf32>
  %2 = tensor.empty() : tensor<4x4xf32>
  %3 = linalg.matmul ins(%0, %1 : tensor<4x4xf32>, tensor<4x4xf32>) outs(%2 : tensor<4x4xf32>) -> tensor<4x4xf32>
  %4 = linalg.generic {indexing_maps = [affine_map<(d0, d1) -> (d0, d1)>, affine_map<(d0, d1) -> (d0, d1)>], iterator_types = ["parallel", "parallel"]} ins(%3 : tensor<4x4xf32>) outs(%2 : tensor<4x4xf32>) {
  ^bb0(%in: f32, %out: f32):
    %6 = arith.maximumf %in, %cst : f32
    linalg.yield %6 : f32
  } -> tensor<4x4xf32>
  %5 = hal.tensor.export %4 "output0" : tensor<4x4xf32> -> !hal.buffer_view
  util.return %5 : !hal.buffer_view
}

/Users/josephbak/scratch/matmul_relu.mlir:3:13: warning: reads uninitialized values from an operand produced by a tensor.empty op. To disable this warning, pass --iree-global-opt-enable-warn-on-uninitialized-values=false .
  %result = linalg.matmul ins(%a, %b : tensor<4x4xf32>, tensor<4x4xf32>)
            ^
/Users/josephbak/scratch/matmul_relu.mlir:1:1: note: called from
func.func @matmul(%a: tensor<4x4xf32>, %b: tensor<4x4xf32>) -> tensor<4x4xf32> {
^
/Users/josephbak/scratch/matmul_relu.mlir:3:13: note: see current operation: %3 = linalg.matmul ins(%0, %1 : tensor<4x4xf32>, tensor<4x4xf32>) outs(%2 : tensor<4x4xf32>) -> tensor<4x4xf32>
  %result = linalg.matmul ins(%a, %b : tensor<4x4xf32>, tensor<4x4xf32>)
            ^
// -----// IR Dump After WarnOnUninitializedValuesPass (iree-global-opt-warn-on-uninitialized-values) //----- //
util.func public @matmul(%arg0: !hal.buffer_view, %arg1: !hal.buffer_view) -> !hal.buffer_view attributes {iree.abi.stub, iree.reflection = {iree.abi.declaration = "sync func @matmul(%input0: tensor<4x4xf32>, %input1: tensor<4x4xf32>) -> (%output0: tensor<4x4xf32>)"}} {
  %cst = arith.constant 0.000000e+00 : f32
  %0 = hal.tensor.import %arg0 "input0" : !hal.buffer_view -> tensor<4x4xf32>
  %1 = hal.tensor.import %arg1 "input1" : !hal.buffer_view -> tensor<4x4xf32>
  %2 = tensor.empty() : tensor<4x4xf32>
  %3 = linalg.matmul ins(%0, %1 : tensor<4x4xf32>, tensor<4x4xf32>) outs(%2 : tensor<4x4xf32>) -> tensor<4x4xf32>
  %4 = linalg.generic {indexing_maps = [affine_map<(d0, d1) -> (d0, d1)>, affine_map<(d0, d1) -> (d0, d1)>], iterator_types = ["parallel", "parallel"]} ins(%3 : tensor<4x4xf32>) outs(%2 : tensor<4x4xf32>) {
  ^bb0(%in: f32, %out: f32):
    %6 = arith.maximumf %in, %cst : f32
    linalg.yield %6 : f32
  } -> tensor<4x4xf32>
  %5 = hal.tensor.export %4 "output0" : tensor<4x4xf32> -> !hal.buffer_view
  util.return %5 : !hal.buffer_view
}

// -----// IR Dump After OptimizeIntArithmeticPass (iree-util-optimize-int-arithmetic) //----- //
util.func public @matmul(%arg0: !hal.buffer_view, %arg1: !hal.buffer_view) -> !hal.buffer_view attributes {iree.abi.stub, iree.reflection = {iree.abi.declaration = "sync func @matmul(%input0: tensor<4x4xf32>, %input1: tensor<4x4xf32>) -> (%output0: tensor<4x4xf32>)"}} {
  %cst = arith.constant 0.000000e+00 : f32
  %0 = hal.tensor.import %arg0 "input0" : !hal.buffer_view -> tensor<4x4xf32>
  %1 = hal.tensor.import %arg1 "input1" : !hal.buffer_view -> tensor<4x4xf32>
  %2 = tensor.empty() : tensor<4x4xf32>
  %3 = linalg.matmul ins(%0, %1 : tensor<4x4xf32>, tensor<4x4xf32>) outs(%2 : tensor<4x4xf32>) -> tensor<4x4xf32>
  %4 = linalg.generic {indexing_maps = [affine_map<(d0, d1) -> (d0, d1)>, affine_map<(d0, d1) -> (d0, d1)>], iterator_types = ["parallel", "parallel"]} ins(%3 : tensor<4x4xf32>) outs(%2 : tensor<4x4xf32>) {
  ^bb0(%in: f32, %out: f32):
    %6 = arith.maximumf %in, %cst : f32
    linalg.yield %6 : f32
  } -> tensor<4x4xf32>
  %5 = hal.tensor.export %4 "output0" : tensor<4x4xf32> -> !hal.buffer_view
  util.return %5 : !hal.buffer_view
}

// -----// IR Dump After LinalgQuantizedConvToConvPass (iree-global-opt-quantized-conv-to-conv) //----- //
util.func public @matmul(%arg0: !hal.buffer_view, %arg1: !hal.buffer_view) -> !hal.buffer_view attributes {iree.abi.stub, iree.reflection = {iree.abi.declaration = "sync func @matmul(%input0: tensor<4x4xf32>, %input1: tensor<4x4xf32>) -> (%output0: tensor<4x4xf32>)"}} {
  %cst = arith.constant 0.000000e+00 : f32
  %0 = hal.tensor.import %arg0 "input0" : !hal.buffer_view -> tensor<4x4xf32>
  %1 = hal.tensor.import %arg1 "input1" : !hal.buffer_view -> tensor<4x4xf32>
  %2 = tensor.empty() : tensor<4x4xf32>
  %3 = linalg.matmul ins(%0, %1 : tensor<4x4xf32>, tensor<4x4xf32>) outs(%2 : tensor<4x4xf32>) -> tensor<4x4xf32>
  %4 = linalg.generic {indexing_maps = [affine_map<(d0, d1) -> (d0, d1)>, affine_map<(d0, d1) -> (d0, d1)>], iterator_types = ["parallel", "parallel"]} ins(%3 : tensor<4x4xf32>) outs(%2 : tensor<4x4xf32>) {
  ^bb0(%in: f32, %out: f32):
    %6 = arith.maximumf %in, %cst : f32
    linalg.yield %6 : f32
  } -> tensor<4x4xf32>
  %5 = hal.tensor.export %4 "output0" : tensor<4x4xf32> -> !hal.buffer_view
  util.return %5 : !hal.buffer_view
}

// -----// IR Dump After LinalgQuantizedMatmulToMatmulPass (iree-global-opt-quantized-matmul-to-matmul) //----- //
util.func public @matmul(%arg0: !hal.buffer_view, %arg1: !hal.buffer_view) -> !hal.buffer_view attributes {iree.abi.stub, iree.reflection = {iree.abi.declaration = "sync func @matmul(%input0: tensor<4x4xf32>, %input1: tensor<4x4xf32>) -> (%output0: tensor<4x4xf32>)"}} {
  %cst = arith.constant 0.000000e+00 : f32
  %0 = hal.tensor.import %arg0 "input0" : !hal.buffer_view -> tensor<4x4xf32>
  %1 = hal.tensor.import %arg1 "input1" : !hal.buffer_view -> tensor<4x4xf32>
  %2 = tensor.empty() : tensor<4x4xf32>
  %3 = linalg.matmul ins(%0, %1 : tensor<4x4xf32>, tensor<4x4xf32>) outs(%2 : tensor<4x4xf32>) -> tensor<4x4xf32>
  %4 = linalg.generic {indexing_maps = [affine_map<(d0, d1) -> (d0, d1)>, affine_map<(d0, d1) -> (d0, d1)>], iterator_types = ["parallel", "parallel"]} ins(%3 : tensor<4x4xf32>) outs(%2 : tensor<4x4xf32>) {
  ^bb0(%in: f32, %out: f32):
    %6 = arith.maximumf %in, %cst : f32
    linalg.yield %6 : f32
  } -> tensor<4x4xf32>
  %5 = hal.tensor.export %4 "output0" : tensor<4x4xf32> -> !hal.buffer_view
  util.return %5 : !hal.buffer_view
}

// -----// IR Dump After CanonicalizePass (iree-flow-canonicalize) //----- //
util.func public @matmul(%arg0: !hal.buffer_view, %arg1: !hal.buffer_view) -> !hal.buffer_view attributes {iree.abi.stub, iree.reflection = {iree.abi.declaration = "sync func @matmul(%input0: tensor<4x4xf32>, %input1: tensor<4x4xf32>) -> (%output0: tensor<4x4xf32>)"}} {
  %cst = arith.constant 0.000000e+00 : f32
  %0 = hal.tensor.import %arg0 "input0" : !hal.buffer_view -> tensor<4x4xf32>
  %1 = hal.tensor.import %arg1 "input1" : !hal.buffer_view -> tensor<4x4xf32>
  %2 = tensor.empty() : tensor<4x4xf32>
  %3 = linalg.matmul ins(%0, %1 : tensor<4x4xf32>, tensor<4x4xf32>) outs(%2 : tensor<4x4xf32>) -> tensor<4x4xf32>
  %4 = linalg.generic {indexing_maps = [affine_map<(d0, d1) -> (d0, d1)>, affine_map<(d0, d1) -> (d0, d1)>], iterator_types = ["parallel", "parallel"]} ins(%3 : tensor<4x4xf32>) outs(%2 : tensor<4x4xf32>) {
  ^bb0(%in: f32, %out: f32):
    %6 = arith.maximumf %in, %cst : f32
    linalg.yield %6 : f32
  } -> tensor<4x4xf32>
  %5 = hal.tensor.export %4 "output0" : tensor<4x4xf32> -> !hal.buffer_view
  util.return %5 : !hal.buffer_view
}

// -----// IR Dump After RemoveZeroExtentTensorsPass (iree-global-opt-remove-zero-extent-tensors) //----- //
util.func public @matmul(%arg0: !hal.buffer_view, %arg1: !hal.buffer_view) -> !hal.buffer_view attributes {iree.abi.stub, iree.reflection = {iree.abi.declaration = "sync func @matmul(%input0: tensor<4x4xf32>, %input1: tensor<4x4xf32>) -> (%output0: tensor<4x4xf32>)"}} {
  %cst = arith.constant 0.000000e+00 : f32
  %0 = hal.tensor.import %arg0 "input0" : !hal.buffer_view -> tensor<4x4xf32>
  %1 = hal.tensor.import %arg1 "input1" : !hal.buffer_view -> tensor<4x4xf32>
  %2 = tensor.empty() : tensor<4x4xf32>
  %3 = linalg.matmul ins(%0, %1 : tensor<4x4xf32>, tensor<4x4xf32>) outs(%2 : tensor<4x4xf32>) -> tensor<4x4xf32>
  %4 = linalg.generic {indexing_maps = [affine_map<(d0, d1) -> (d0, d1)>, affine_map<(d0, d1) -> (d0, d1)>], iterator_types = ["parallel", "parallel"]} ins(%3 : tensor<4x4xf32>) outs(%2 : tensor<4x4xf32>) {
  ^bb0(%in: f32, %out: f32):
    %6 = arith.maximumf %in, %cst : f32
    linalg.yield %6 : f32
  } -> tensor<4x4xf32>
  %5 = hal.tensor.export %4 "output0" : tensor<4x4xf32> -> !hal.buffer_view
  util.return %5 : !hal.buffer_view
}

// -----// IR Dump After DetachElementwiseFromNamedOpsPass (iree-global-opt-detach-elementwise-from-named-ops) //----- //
util.func public @matmul(%arg0: !hal.buffer_view, %arg1: !hal.buffer_view) -> !hal.buffer_view attributes {iree.abi.stub, iree.reflection = {iree.abi.declaration = "sync func @matmul(%input0: tensor<4x4xf32>, %input1: tensor<4x4xf32>) -> (%output0: tensor<4x4xf32>)"}} {
  %cst = arith.constant 0.000000e+00 : f32
  %0 = hal.tensor.import %arg0 "input0" : !hal.buffer_view -> tensor<4x4xf32>
  %1 = hal.tensor.import %arg1 "input1" : !hal.buffer_view -> tensor<4x4xf32>
  %2 = tensor.empty() : tensor<4x4xf32>
  %3 = linalg.matmul ins(%0, %1 : tensor<4x4xf32>, tensor<4x4xf32>) outs(%2 : tensor<4x4xf32>) -> tensor<4x4xf32>
  %4 = linalg.generic {indexing_maps = [affine_map<(d0, d1) -> (d0, d1)>, affine_map<(d0, d1) -> (d0, d1)>], iterator_types = ["parallel", "parallel"]} ins(%3 : tensor<4x4xf32>) outs(%2 : tensor<4x4xf32>) {
  ^bb0(%in: f32, %out: f32):
    %6 = arith.maximumf %in, %cst : f32
    linalg.yield %6 : f32
  } -> tensor<4x4xf32>
  %5 = hal.tensor.export %4 "output0" : tensor<4x4xf32> -> !hal.buffer_view
  util.return %5 : !hal.buffer_view
}

// -----// IR Dump After SimplifyDepthwiseConvPass (simplify-depthwise-conv) //----- //
util.func public @matmul(%arg0: !hal.buffer_view, %arg1: !hal.buffer_view) -> !hal.buffer_view attributes {iree.abi.stub, iree.reflection = {iree.abi.declaration = "sync func @matmul(%input0: tensor<4x4xf32>, %input1: tensor<4x4xf32>) -> (%output0: tensor<4x4xf32>)"}} {
  %cst = arith.constant 0.000000e+00 : f32
  %0 = hal.tensor.import %arg0 "input0" : !hal.buffer_view -> tensor<4x4xf32>
  %1 = hal.tensor.import %arg1 "input1" : !hal.buffer_view -> tensor<4x4xf32>
  %2 = tensor.empty() : tensor<4x4xf32>
  %3 = linalg.matmul ins(%0, %1 : tensor<4x4xf32>, tensor<4x4xf32>) outs(%2 : tensor<4x4xf32>) -> tensor<4x4xf32>
  %4 = linalg.generic {indexing_maps = [affine_map<(d0, d1) -> (d0, d1)>, affine_map<(d0, d1) -> (d0, d1)>], iterator_types = ["parallel", "parallel"]} ins(%3 : tensor<4x4xf32>) outs(%2 : tensor<4x4xf32>) {
  ^bb0(%in: f32, %out: f32):
    %6 = arith.maximumf %in, %cst : f32
    linalg.yield %6 : f32
  } -> tensor<4x4xf32>
  %5 = hal.tensor.export %4 "output0" : tensor<4x4xf32> -> !hal.buffer_view
  util.return %5 : !hal.buffer_view
}

// -----// IR Dump After EraseUnusedLinalgOperandsPass (iree-global-opt-erase-unused-linalg-operands) //----- //
#executable_target_embedded_elf_arm_64 = #hal.executable.target<"llvm-cpu", "embedded-elf-arm_64", {cpu = "", cpu_features = "+reserve-x18", data_layout = "e-m:e-p270:32:32-p271:32:32-p272:64:64-i8:8:32-i16:16:32-i64:64-i128:128-n32:64-S128-Fn32", iree.encoding.resolver = #iree_cpu.cpu_encoding_resolver<>, max_stack_allocation_size = 32768 : i64, native_vector_size = 16 : i64, target_triple = "arm64-unknown-unknown-eabi-elf"}>
#map = affine_map<(d0, d1) -> (d0, d1)>
#device_target_local = #hal.device.target<"local", [#executable_target_embedded_elf_arm_64]> : !hal.device
module attributes {stream.affinity.default = #hal.device.affinity<@__device_0>} {
  util.global private @__device_0 = #device_target_local
  util.func public @matmul(%arg0: !hal.buffer_view, %arg1: !hal.buffer_view) -> !hal.buffer_view attributes {iree.abi.stub, iree.reflection = {iree.abi.declaration = "sync func @matmul(%input0: tensor<4x4xf32>, %input1: tensor<4x4xf32>) -> (%output0: tensor<4x4xf32>)"}} {
    %cst = arith.constant 0.000000e+00 : f32
    %0 = hal.tensor.import %arg0 "input0" : !hal.buffer_view -> tensor<4x4xf32>
    %1 = hal.tensor.import %arg1 "input1" : !hal.buffer_view -> tensor<4x4xf32>
    %2 = tensor.empty() : tensor<4x4xf32>
    %3 = linalg.matmul ins(%0, %1 : tensor<4x4xf32>, tensor<4x4xf32>) outs(%2 : tensor<4x4xf32>) -> tensor<4x4xf32>
    %4 = linalg.generic {indexing_maps = [#map, #map], iterator_types = ["parallel", "parallel"]} ins(%3 : tensor<4x4xf32>) outs(%2 : tensor<4x4xf32>) {
    ^bb0(%in: f32, %out: f32):
      %6 = arith.maximumf %in, %cst : f32
      linalg.yield %6 : f32
    } -> tensor<4x4xf32>
    %5 = hal.tensor.export %4 "output0" : tensor<4x4xf32> -> !hal.buffer_view
    util.return %5 : !hal.buffer_view
  }
}


// -----// IR Dump After ExpandTensorShapesPass (iree-global-opt-expand-tensor-shapes) //----- //
#executable_target_embedded_elf_arm_64 = #hal.executable.target<"llvm-cpu", "embedded-elf-arm_64", {cpu = "", cpu_features = "+reserve-x18", data_layout = "e-m:e-p270:32:32-p271:32:32-p272:64:64-i8:8:32-i16:16:32-i64:64-i128:128-n32:64-S128-Fn32", iree.encoding.resolver = #iree_cpu.cpu_encoding_resolver<>, max_stack_allocation_size = 32768 : i64, native_vector_size = 16 : i64, target_triple = "arm64-unknown-unknown-eabi-elf"}>
#map = affine_map<(d0, d1) -> (d0, d1)>
#device_target_local = #hal.device.target<"local", [#executable_target_embedded_elf_arm_64]> : !hal.device
module attributes {stream.affinity.default = #hal.device.affinity<@__device_0>} {
  util.global private @__device_0 = #device_target_local
  util.func public @matmul(%arg0: !hal.buffer_view, %arg1: !hal.buffer_view) -> !hal.buffer_view attributes {iree.abi.stub, iree.reflection = {iree.abi.declaration = "sync func @matmul(%input0: tensor<4x4xf32>, %input1: tensor<4x4xf32>) -> (%output0: tensor<4x4xf32>)"}} {
    %cst = arith.constant 0.000000e+00 : f32
    %0 = hal.tensor.import %arg0 "input0" : !hal.buffer_view -> tensor<4x4xf32>
    %1 = hal.tensor.import %arg1 "input1" : !hal.buffer_view -> tensor<4x4xf32>
    %2 = tensor.empty() : tensor<4x4xf32>
    %3 = linalg.matmul ins(%0, %1 : tensor<4x4xf32>, tensor<4x4xf32>) outs(%2 : tensor<4x4xf32>) -> tensor<4x4xf32>
    %4 = linalg.generic {indexing_maps = [#map, #map], iterator_types = ["parallel", "parallel"]} ins(%3 : tensor<4x4xf32>) outs(%2 : tensor<4x4xf32>) {
    ^bb0(%in: f32, %out: f32):
      %6 = arith.maximumf %in, %cst : f32
      linalg.yield %6 : f32
    } -> tensor<4x4xf32>
    %5 = hal.tensor.export %4 "output0" : tensor<4x4xf32> -> !hal.buffer_view
    util.return %5 : !hal.buffer_view
  }
}


// -----// IR Dump After ConvertElementwiseToLinalgPass (convert-elementwise-to-linalg) //----- //
util.func public @matmul(%arg0: !hal.buffer_view, %arg1: !hal.buffer_view) -> !hal.buffer_view attributes {iree.abi.stub, iree.reflection = {iree.abi.declaration = "sync func @matmul(%input0: tensor<4x4xf32>, %input1: tensor<4x4xf32>) -> (%output0: tensor<4x4xf32>)"}} {
  %cst = arith.constant 0.000000e+00 : f32
  %0 = hal.tensor.import %arg0 "input0" : !hal.buffer_view -> tensor<4x4xf32>
  %1 = hal.tensor.import %arg1 "input1" : !hal.buffer_view -> tensor<4x4xf32>
  %2 = tensor.empty() : tensor<4x4xf32>
  %3 = linalg.matmul ins(%0, %1 : tensor<4x4xf32>, tensor<4x4xf32>) outs(%2 : tensor<4x4xf32>) -> tensor<4x4xf32>
  %4 = linalg.generic {indexing_maps = [affine_map<(d0, d1) -> (d0, d1)>, affine_map<(d0, d1) -> (d0, d1)>], iterator_types = ["parallel", "parallel"]} ins(%3 : tensor<4x4xf32>) outs(%2 : tensor<4x4xf32>) {
  ^bb0(%in: f32, %out: f32):
    %6 = arith.maximumf %in, %cst : f32
    linalg.yield %6 : f32
  } -> tensor<4x4xf32>
  %5 = hal.tensor.export %4 "output0" : tensor<4x4xf32> -> !hal.buffer_view
  util.return %5 : !hal.buffer_view
}

// -----// IR Dump After RaiseSpecialOpsPass (iree-global-opt-raise-special-ops) //----- //
util.func public @matmul(%arg0: !hal.buffer_view, %arg1: !hal.buffer_view) -> !hal.buffer_view attributes {iree.abi.stub, iree.reflection = {iree.abi.declaration = "sync func @matmul(%input0: tensor<4x4xf32>, %input1: tensor<4x4xf32>) -> (%output0: tensor<4x4xf32>)"}} {
  %cst = arith.constant 0.000000e+00 : f32
  %0 = hal.tensor.import %arg0 "input0" : !hal.buffer_view -> tensor<4x4xf32>
  %1 = hal.tensor.import %arg1 "input1" : !hal.buffer_view -> tensor<4x4xf32>
  %2 = tensor.empty() : tensor<4x4xf32>
  %3 = linalg.matmul ins(%0, %1 : tensor<4x4xf32>, tensor<4x4xf32>) outs(%2 : tensor<4x4xf32>) -> tensor<4x4xf32>
  %4 = linalg.generic {indexing_maps = [affine_map<(d0, d1) -> (d0, d1)>, affine_map<(d0, d1) -> (d0, d1)>], iterator_types = ["parallel", "parallel"]} ins(%3 : tensor<4x4xf32>) outs(%2 : tensor<4x4xf32>) {
  ^bb0(%in: f32, %out: f32):
    %6 = arith.maximumf %in, %cst : f32
    linalg.yield %6 : f32
  } -> tensor<4x4xf32>
  %5 = hal.tensor.export %4 "output0" : tensor<4x4xf32> -> !hal.buffer_view
  util.return %5 : !hal.buffer_view
}

// -----// IR Dump After DecomposeConcatPass (iree-global-opt-decompose-concat) //----- //
util.func public @matmul(%arg0: !hal.buffer_view, %arg1: !hal.buffer_view) -> !hal.buffer_view attributes {iree.abi.stub, iree.reflection = {iree.abi.declaration = "sync func @matmul(%input0: tensor<4x4xf32>, %input1: tensor<4x4xf32>) -> (%output0: tensor<4x4xf32>)"}} {
  %cst = arith.constant 0.000000e+00 : f32
  %0 = hal.tensor.import %arg0 "input0" : !hal.buffer_view -> tensor<4x4xf32>
  %1 = hal.tensor.import %arg1 "input1" : !hal.buffer_view -> tensor<4x4xf32>
  %2 = tensor.empty() : tensor<4x4xf32>
  %3 = linalg.matmul ins(%0, %1 : tensor<4x4xf32>, tensor<4x4xf32>) outs(%2 : tensor<4x4xf32>) -> tensor<4x4xf32>
  %4 = linalg.generic {indexing_maps = [affine_map<(d0, d1) -> (d0, d1)>, affine_map<(d0, d1) -> (d0, d1)>], iterator_types = ["parallel", "parallel"]} ins(%3 : tensor<4x4xf32>) outs(%2 : tensor<4x4xf32>) {
  ^bb0(%in: f32, %out: f32):
    %6 = arith.maximumf %in, %cst : f32
    linalg.yield %6 : f32
  } -> tensor<4x4xf32>
  %5 = hal.tensor.export %4 "output0" : tensor<4x4xf32> -> !hal.buffer_view
  util.return %5 : !hal.buffer_view
}

// -----// IR Dump After GeneralizeLinalgNamedOpsPass (iree-global-opt-generalize-linalg-named-ops) //----- //
util.func public @matmul(%arg0: !hal.buffer_view, %arg1: !hal.buffer_view) -> !hal.buffer_view attributes {iree.abi.stub, iree.reflection = {iree.abi.declaration = "sync func @matmul(%input0: tensor<4x4xf32>, %input1: tensor<4x4xf32>) -> (%output0: tensor<4x4xf32>)"}} {
  %cst = arith.constant 0.000000e+00 : f32
  %0 = hal.tensor.import %arg0 "input0" : !hal.buffer_view -> tensor<4x4xf32>
  %1 = hal.tensor.import %arg1 "input1" : !hal.buffer_view -> tensor<4x4xf32>
  %2 = tensor.empty() : tensor<4x4xf32>
  %3 = linalg.matmul ins(%0, %1 : tensor<4x4xf32>, tensor<4x4xf32>) outs(%2 : tensor<4x4xf32>) -> tensor<4x4xf32>
  %4 = linalg.generic {indexing_maps = [affine_map<(d0, d1) -> (d0, d1)>, affine_map<(d0, d1) -> (d0, d1)>], iterator_types = ["parallel", "parallel"]} ins(%3 : tensor<4x4xf32>) outs(%2 : tensor<4x4xf32>) {
  ^bb0(%in: f32, %out: f32):
    %6 = arith.maximumf %in, %cst : f32
    linalg.yield %6 : f32
  } -> tensor<4x4xf32>
  %5 = hal.tensor.export %4 "output0" : tensor<4x4xf32> -> !hal.buffer_view
  util.return %5 : !hal.buffer_view
}

// -----// IR Dump After InsertTensorBarriersPass (iree-dispatch-creation-insert-tensor-barriers) //----- //
util.func public @matmul(%arg0: !hal.buffer_view, %arg1: !hal.buffer_view) -> !hal.buffer_view attributes {iree.abi.stub, iree.reflection = {iree.abi.declaration = "sync func @matmul(%input0: tensor<4x4xf32>, %input1: tensor<4x4xf32>) -> (%output0: tensor<4x4xf32>)"}} {
  %cst = arith.constant 0.000000e+00 : f32
  %0 = hal.tensor.import %arg0 "input0" : !hal.buffer_view -> tensor<4x4xf32>
  %1 = iree_tensor_ext.compute_barrier.start %0 : tensor<4x4xf32> -> tensor<4x4xf32>
  %2 = hal.tensor.import %arg1 "input1" : !hal.buffer_view -> tensor<4x4xf32>
  %3 = iree_tensor_ext.compute_barrier.start %2 : tensor<4x4xf32> -> tensor<4x4xf32>
  %4 = tensor.empty() : tensor<4x4xf32>
  %5 = linalg.matmul ins(%1, %3 : tensor<4x4xf32>, tensor<4x4xf32>) outs(%4 : tensor<4x4xf32>) -> tensor<4x4xf32>
  %6 = linalg.generic {indexing_maps = [affine_map<(d0, d1) -> (d0, d1)>, affine_map<(d0, d1) -> (d0, d1)>], iterator_types = ["parallel", "parallel"]} ins(%5 : tensor<4x4xf32>) outs(%4 : tensor<4x4xf32>) {
  ^bb0(%in: f32, %out: f32):
    %9 = arith.maximumf %in, %cst : f32
    linalg.yield %9 : f32
  } -> tensor<4x4xf32>
  %7 = iree_tensor_ext.compute_barrier.end %6 : tensor<4x4xf32> -> tensor<4x4xf32>
  %8 = hal.tensor.export %7 "output0" : tensor<4x4xf32> -> !hal.buffer_view
  util.return %8 : !hal.buffer_view
}

// -----// IR Dump After FoldUnitExtentDimsPass (iree-dispatch-creation-fold-unit-extent-dims) //----- //
#executable_target_embedded_elf_arm_64 = #hal.executable.target<"llvm-cpu", "embedded-elf-arm_64", {cpu = "", cpu_features = "+reserve-x18", data_layout = "e-m:e-p270:32:32-p271:32:32-p272:64:64-i8:8:32-i16:16:32-i64:64-i128:128-n32:64-S128-Fn32", iree.encoding.resolver = #iree_cpu.cpu_encoding_resolver<>, max_stack_allocation_size = 32768 : i64, native_vector_size = 16 : i64, target_triple = "arm64-unknown-unknown-eabi-elf"}>
#map = affine_map<(d0, d1) -> (d0, d1)>
#device_target_local = #hal.device.target<"local", [#executable_target_embedded_elf_arm_64]> : !hal.device
module attributes {stream.affinity.default = #hal.device.affinity<@__device_0>} {
  util.global private @__device_0 = #device_target_local
  util.func public @matmul(%arg0: !hal.buffer_view, %arg1: !hal.buffer_view) -> !hal.buffer_view attributes {iree.abi.stub, iree.reflection = {iree.abi.declaration = "sync func @matmul(%input0: tensor<4x4xf32>, %input1: tensor<4x4xf32>) -> (%output0: tensor<4x4xf32>)"}} {
    %cst = arith.constant 0.000000e+00 : f32
    %0 = hal.tensor.import %arg0 "input0" : !hal.buffer_view -> tensor<4x4xf32>
    %1 = iree_tensor_ext.compute_barrier.start %0 : tensor<4x4xf32> -> tensor<4x4xf32>
    %2 = hal.tensor.import %arg1 "input1" : !hal.buffer_view -> tensor<4x4xf32>
    %3 = iree_tensor_ext.compute_barrier.start %2 : tensor<4x4xf32> -> tensor<4x4xf32>
    %4 = tensor.empty() : tensor<4x4xf32>
    %5 = linalg.matmul ins(%1, %3 : tensor<4x4xf32>, tensor<4x4xf32>) outs(%4 : tensor<4x4xf32>) -> tensor<4x4xf32>
    %6 = linalg.generic {indexing_maps = [#map, #map], iterator_types = ["parallel", "parallel"]} ins(%5 : tensor<4x4xf32>) outs(%4 : tensor<4x4xf32>) {
    ^bb0(%in: f32, %out: f32):
      %9 = arith.maximumf %in, %cst : f32
      linalg.yield %9 : f32
    } -> tensor<4x4xf32>
    %7 = iree_tensor_ext.compute_barrier.end %6 : tensor<4x4xf32> -> tensor<4x4xf32>
    %8 = hal.tensor.export %7 "output0" : tensor<4x4xf32> -> !hal.buffer_view
    util.return %8 : !hal.buffer_view
  }
}


// -----// IR Dump After FoldReshapesIntoTensorBarriersPass (iree-dispatch-creation-fold-reshapes-into-tensor-barriers) //----- //
util.func public @matmul(%arg0: !hal.buffer_view, %arg1: !hal.buffer_view) -> !hal.buffer_view attributes {iree.abi.stub, iree.reflection = {iree.abi.declaration = "sync func @matmul(%input0: tensor<4x4xf32>, %input1: tensor<4x4xf32>) -> (%output0: tensor<4x4xf32>)"}} {
  %cst = arith.constant 0.000000e+00 : f32
  %0 = hal.tensor.import %arg0 "input0" : !hal.buffer_view -> tensor<4x4xf32>
  %1 = iree_tensor_ext.compute_barrier.start %0 : tensor<4x4xf32> -> tensor<4x4xf32>
  %2 = hal.tensor.import %arg1 "input1" : !hal.buffer_view -> tensor<4x4xf32>
  %3 = iree_tensor_ext.compute_barrier.start %2 : tensor<4x4xf32> -> tensor<4x4xf32>
  %4 = tensor.empty() : tensor<4x4xf32>
  %5 = linalg.matmul ins(%1, %3 : tensor<4x4xf32>, tensor<4x4xf32>) outs(%4 : tensor<4x4xf32>) -> tensor<4x4xf32>
  %6 = linalg.generic {indexing_maps = [affine_map<(d0, d1) -> (d0, d1)>, affine_map<(d0, d1) -> (d0, d1)>], iterator_types = ["parallel", "parallel"]} ins(%5 : tensor<4x4xf32>) outs(%4 : tensor<4x4xf32>) {
  ^bb0(%in: f32, %out: f32):
    %9 = arith.maximumf %in, %cst : f32
    linalg.yield %9 : f32
  } -> tensor<4x4xf32>
  %7 = iree_tensor_ext.compute_barrier.end %6 : tensor<4x4xf32> -> tensor<4x4xf32>
  %8 = hal.tensor.export %7 "output0" : tensor<4x4xf32> -> !hal.buffer_view
  util.return %8 : !hal.buffer_view
}

// -----// IR Dump After DemoteContractionInputsToBF16Pass (iree-global-opt-demote-contraction-inputs-to-bf16) //----- //
util.func public @matmul(%arg0: !hal.buffer_view, %arg1: !hal.buffer_view) -> !hal.buffer_view attributes {iree.abi.stub, iree.reflection = {iree.abi.declaration = "sync func @matmul(%input0: tensor<4x4xf32>, %input1: tensor<4x4xf32>) -> (%output0: tensor<4x4xf32>)"}} {
  %cst = arith.constant 0.000000e+00 : f32
  %0 = hal.tensor.import %arg0 "input0" : !hal.buffer_view -> tensor<4x4xf32>
  %1 = iree_tensor_ext.compute_barrier.start %0 : tensor<4x4xf32> -> tensor<4x4xf32>
  %2 = hal.tensor.import %arg1 "input1" : !hal.buffer_view -> tensor<4x4xf32>
  %3 = iree_tensor_ext.compute_barrier.start %2 : tensor<4x4xf32> -> tensor<4x4xf32>
  %4 = tensor.empty() : tensor<4x4xf32>
  %5 = linalg.matmul ins(%1, %3 : tensor<4x4xf32>, tensor<4x4xf32>) outs(%4 : tensor<4x4xf32>) -> tensor<4x4xf32>
  %6 = linalg.generic {indexing_maps = [affine_map<(d0, d1) -> (d0, d1)>, affine_map<(d0, d1) -> (d0, d1)>], iterator_types = ["parallel", "parallel"]} ins(%5 : tensor<4x4xf32>) outs(%4 : tensor<4x4xf32>) {
  ^bb0(%in: f32, %out: f32):
    %9 = arith.maximumf %in, %cst : f32
    linalg.yield %9 : f32
  } -> tensor<4x4xf32>
  %7 = iree_tensor_ext.compute_barrier.end %6 : tensor<4x4xf32> -> tensor<4x4xf32>
  %8 = hal.tensor.export %7 "output0" : tensor<4x4xf32> -> !hal.buffer_view
  util.return %8 : !hal.buffer_view
}

// -----// IR Dump After CanonicalizePass (iree-flow-canonicalize) //----- //
util.func public @matmul(%arg0: !hal.buffer_view, %arg1: !hal.buffer_view) -> !hal.buffer_view attributes {iree.abi.stub, iree.reflection = {iree.abi.declaration = "sync func @matmul(%input0: tensor<4x4xf32>, %input1: tensor<4x4xf32>) -> (%output0: tensor<4x4xf32>)"}} {
  %cst = arith.constant 0.000000e+00 : f32
  %0 = hal.tensor.import %arg0 "input0" : !hal.buffer_view -> tensor<4x4xf32>
  %1 = iree_tensor_ext.compute_barrier.start %0 : tensor<4x4xf32> -> tensor<4x4xf32>
  %2 = hal.tensor.import %arg1 "input1" : !hal.buffer_view -> tensor<4x4xf32>
  %3 = iree_tensor_ext.compute_barrier.start %2 : tensor<4x4xf32> -> tensor<4x4xf32>
  %4 = tensor.empty() : tensor<4x4xf32>
  %5 = linalg.matmul ins(%1, %3 : tensor<4x4xf32>, tensor<4x4xf32>) outs(%4 : tensor<4x4xf32>) -> tensor<4x4xf32>
  %6 = linalg.generic {indexing_maps = [affine_map<(d0, d1) -> (d0, d1)>, affine_map<(d0, d1) -> (d0, d1)>], iterator_types = ["parallel", "parallel"]} ins(%5 : tensor<4x4xf32>) outs(%4 : tensor<4x4xf32>) {
  ^bb0(%in: f32, %out: f32):
    %9 = arith.maximumf %in, %cst : f32
    linalg.yield %9 : f32
  } -> tensor<4x4xf32>
  %7 = iree_tensor_ext.compute_barrier.end %6 : tensor<4x4xf32> -> tensor<4x4xf32>
  %8 = hal.tensor.export %7 "output0" : tensor<4x4xf32> -> !hal.buffer_view
  util.return %8 : !hal.buffer_view
}

// -----// IR Dump After CSE (cse) //----- //
util.func public @matmul(%arg0: !hal.buffer_view, %arg1: !hal.buffer_view) -> !hal.buffer_view attributes {iree.abi.stub, iree.reflection = {iree.abi.declaration = "sync func @matmul(%input0: tensor<4x4xf32>, %input1: tensor<4x4xf32>) -> (%output0: tensor<4x4xf32>)"}} {
  %cst = arith.constant 0.000000e+00 : f32
  %0 = hal.tensor.import %arg0 "input0" : !hal.buffer_view -> tensor<4x4xf32>
  %1 = iree_tensor_ext.compute_barrier.start %0 : tensor<4x4xf32> -> tensor<4x4xf32>
  %2 = hal.tensor.import %arg1 "input1" : !hal.buffer_view -> tensor<4x4xf32>
  %3 = iree_tensor_ext.compute_barrier.start %2 : tensor<4x4xf32> -> tensor<4x4xf32>
  %4 = tensor.empty() : tensor<4x4xf32>
  %5 = linalg.matmul ins(%1, %3 : tensor<4x4xf32>, tensor<4x4xf32>) outs(%4 : tensor<4x4xf32>) -> tensor<4x4xf32>
  %6 = linalg.generic {indexing_maps = [affine_map<(d0, d1) -> (d0, d1)>, affine_map<(d0, d1) -> (d0, d1)>], iterator_types = ["parallel", "parallel"]} ins(%5 : tensor<4x4xf32>) outs(%4 : tensor<4x4xf32>) {
  ^bb0(%in: f32, %out: f32):
    %9 = arith.maximumf %in, %cst : f32
    linalg.yield %9 : f32
  } -> tensor<4x4xf32>
  %7 = iree_tensor_ext.compute_barrier.end %6 : tensor<4x4xf32> -> tensor<4x4xf32>
  %8 = hal.tensor.export %7 "output0" : tensor<4x4xf32> -> !hal.buffer_view
  util.return %8 : !hal.buffer_view
}

// -----// IR Dump After PropagateLinalgTransposePass (iree-global-opt-propagate-linalg-transpose) //----- //
util.func public @matmul(%arg0: !hal.buffer_view, %arg1: !hal.buffer_view) -> !hal.buffer_view attributes {iree.abi.stub, iree.reflection = {iree.abi.declaration = "sync func @matmul(%input0: tensor<4x4xf32>, %input1: tensor<4x4xf32>) -> (%output0: tensor<4x4xf32>)"}} {
  %cst = arith.constant 0.000000e+00 : f32
  %0 = hal.tensor.import %arg0 "input0" : !hal.buffer_view -> tensor<4x4xf32>
  %1 = iree_tensor_ext.compute_barrier.start %0 : tensor<4x4xf32> -> tensor<4x4xf32>
  %2 = hal.tensor.import %arg1 "input1" : !hal.buffer_view -> tensor<4x4xf32>
  %3 = iree_tensor_ext.compute_barrier.start %2 : tensor<4x4xf32> -> tensor<4x4xf32>
  %4 = tensor.empty() : tensor<4x4xf32>
  %5 = linalg.matmul ins(%1, %3 : tensor<4x4xf32>, tensor<4x4xf32>) outs(%4 : tensor<4x4xf32>) -> tensor<4x4xf32>
  %6 = linalg.generic {indexing_maps = [affine_map<(d0, d1) -> (d0, d1)>, affine_map<(d0, d1) -> (d0, d1)>], iterator_types = ["parallel", "parallel"]} ins(%5 : tensor<4x4xf32>) outs(%4 : tensor<4x4xf32>) {
  ^bb0(%in: f32, %out: f32):
    %9 = arith.maximumf %in, %cst : f32
    linalg.yield %9 : f32
  } -> tensor<4x4xf32>
  %7 = iree_tensor_ext.compute_barrier.end %6 : tensor<4x4xf32> -> tensor<4x4xf32>
  %8 = hal.tensor.export %7 "output0" : tensor<4x4xf32> -> !hal.buffer_view
  util.return %8 : !hal.buffer_view
}

// -----// IR Dump After CanonicalizePass (iree-flow-canonicalize) //----- //
util.func public @matmul(%arg0: !hal.buffer_view, %arg1: !hal.buffer_view) -> !hal.buffer_view attributes {iree.abi.stub, iree.reflection = {iree.abi.declaration = "sync func @matmul(%input0: tensor<4x4xf32>, %input1: tensor<4x4xf32>) -> (%output0: tensor<4x4xf32>)"}} {
  %cst = arith.constant 0.000000e+00 : f32
  %0 = hal.tensor.import %arg0 "input0" : !hal.buffer_view -> tensor<4x4xf32>
  %1 = iree_tensor_ext.compute_barrier.start %0 : tensor<4x4xf32> -> tensor<4x4xf32>
  %2 = hal.tensor.import %arg1 "input1" : !hal.buffer_view -> tensor<4x4xf32>
  %3 = iree_tensor_ext.compute_barrier.start %2 : tensor<4x4xf32> -> tensor<4x4xf32>
  %4 = tensor.empty() : tensor<4x4xf32>
  %5 = linalg.matmul ins(%1, %3 : tensor<4x4xf32>, tensor<4x4xf32>) outs(%4 : tensor<4x4xf32>) -> tensor<4x4xf32>
  %6 = linalg.generic {indexing_maps = [affine_map<(d0, d1) -> (d0, d1)>, affine_map<(d0, d1) -> (d0, d1)>], iterator_types = ["parallel", "parallel"]} ins(%5 : tensor<4x4xf32>) outs(%4 : tensor<4x4xf32>) {
  ^bb0(%in: f32, %out: f32):
    %9 = arith.maximumf %in, %cst : f32
    linalg.yield %9 : f32
  } -> tensor<4x4xf32>
  %7 = iree_tensor_ext.compute_barrier.end %6 : tensor<4x4xf32> -> tensor<4x4xf32>
  %8 = hal.tensor.export %7 "output0" : tensor<4x4xf32> -> !hal.buffer_view
  util.return %8 : !hal.buffer_view
}

// -----// IR Dump After CSE (cse) //----- //
util.func public @matmul(%arg0: !hal.buffer_view, %arg1: !hal.buffer_view) -> !hal.buffer_view attributes {iree.abi.stub, iree.reflection = {iree.abi.declaration = "sync func @matmul(%input0: tensor<4x4xf32>, %input1: tensor<4x4xf32>) -> (%output0: tensor<4x4xf32>)"}} {
  %cst = arith.constant 0.000000e+00 : f32
  %0 = hal.tensor.import %arg0 "input0" : !hal.buffer_view -> tensor<4x4xf32>
  %1 = iree_tensor_ext.compute_barrier.start %0 : tensor<4x4xf32> -> tensor<4x4xf32>
  %2 = hal.tensor.import %arg1 "input1" : !hal.buffer_view -> tensor<4x4xf32>
  %3 = iree_tensor_ext.compute_barrier.start %2 : tensor<4x4xf32> -> tensor<4x4xf32>
  %4 = tensor.empty() : tensor<4x4xf32>
  %5 = linalg.matmul ins(%1, %3 : tensor<4x4xf32>, tensor<4x4xf32>) outs(%4 : tensor<4x4xf32>) -> tensor<4x4xf32>
  %6 = linalg.generic {indexing_maps = [affine_map<(d0, d1) -> (d0, d1)>, affine_map<(d0, d1) -> (d0, d1)>], iterator_types = ["parallel", "parallel"]} ins(%5 : tensor<4x4xf32>) outs(%4 : tensor<4x4xf32>) {
  ^bb0(%in: f32, %out: f32):
    %9 = arith.maximumf %in, %cst : f32
    linalg.yield %9 : f32
  } -> tensor<4x4xf32>
  %7 = iree_tensor_ext.compute_barrier.end %6 : tensor<4x4xf32> -> tensor<4x4xf32>
  %8 = hal.tensor.export %7 "output0" : tensor<4x4xf32> -> !hal.buffer_view
  util.return %8 : !hal.buffer_view
}

// -----// IR Dump After ConvertStridedContractionToContractionPass (iree-global-opt-convert-strided-contraction-to-contraction) //----- //
#executable_target_embedded_elf_arm_64 = #hal.executable.target<"llvm-cpu", "embedded-elf-arm_64", {cpu = "", cpu_features = "+reserve-x18", data_layout = "e-m:e-p270:32:32-p271:32:32-p272:64:64-i8:8:32-i16:16:32-i64:64-i128:128-n32:64-S128-Fn32", iree.encoding.resolver = #iree_cpu.cpu_encoding_resolver<>, max_stack_allocation_size = 32768 : i64, native_vector_size = 16 : i64, target_triple = "arm64-unknown-unknown-eabi-elf"}>
#map = affine_map<(d0, d1) -> (d0, d1)>
#device_target_local = #hal.device.target<"local", [#executable_target_embedded_elf_arm_64]> : !hal.device
module attributes {stream.affinity.default = #hal.device.affinity<@__device_0>} {
  util.global private @__device_0 = #device_target_local
  util.func public @matmul(%arg0: !hal.buffer_view, %arg1: !hal.buffer_view) -> !hal.buffer_view attributes {iree.abi.stub, iree.reflection = {iree.abi.declaration = "sync func @matmul(%input0: tensor<4x4xf32>, %input1: tensor<4x4xf32>) -> (%output0: tensor<4x4xf32>)"}} {
    %cst = arith.constant 0.000000e+00 : f32
    %0 = hal.tensor.import %arg0 "input0" : !hal.buffer_view -> tensor<4x4xf32>
    %1 = iree_tensor_ext.compute_barrier.start %0 : tensor<4x4xf32> -> tensor<4x4xf32>
    %2 = hal.tensor.import %arg1 "input1" : !hal.buffer_view -> tensor<4x4xf32>
    %3 = iree_tensor_ext.compute_barrier.start %2 : tensor<4x4xf32> -> tensor<4x4xf32>
    %4 = tensor.empty() : tensor<4x4xf32>
    %5 = linalg.matmul ins(%1, %3 : tensor<4x4xf32>, tensor<4x4xf32>) outs(%4 : tensor<4x4xf32>) -> tensor<4x4xf32>
    %6 = linalg.generic {indexing_maps = [#map, #map], iterator_types = ["parallel", "parallel"]} ins(%5 : tensor<4x4xf32>) outs(%4 : tensor<4x4xf32>) {
    ^bb0(%in: f32, %out: f32):
      %9 = arith.maximumf %in, %cst : f32
      linalg.yield %9 : f32
    } -> tensor<4x4xf32>
    %7 = iree_tensor_ext.compute_barrier.end %6 : tensor<4x4xf32> -> tensor<4x4xf32>
    %8 = hal.tensor.export %7 "output0" : tensor<4x4xf32> -> !hal.buffer_view
    util.return %8 : !hal.buffer_view
  }
}


// -----// IR Dump After GeneralizeLinalgNamedOpsPass (iree-global-opt-generalize-linalg-named-ops) //----- //
util.func public @matmul(%arg0: !hal.buffer_view, %arg1: !hal.buffer_view) -> !hal.buffer_view attributes {iree.abi.stub, iree.reflection = {iree.abi.declaration = "sync func @matmul(%input0: tensor<4x4xf32>, %input1: tensor<4x4xf32>) -> (%output0: tensor<4x4xf32>)"}} {
  %cst = arith.constant 0.000000e+00 : f32
  %0 = hal.tensor.import %arg0 "input0" : !hal.buffer_view -> tensor<4x4xf32>
  %1 = iree_tensor_ext.compute_barrier.start %0 : tensor<4x4xf32> -> tensor<4x4xf32>
  %2 = hal.tensor.import %arg1 "input1" : !hal.buffer_view -> tensor<4x4xf32>
  %3 = iree_tensor_ext.compute_barrier.start %2 : tensor<4x4xf32> -> tensor<4x4xf32>
  %4 = tensor.empty() : tensor<4x4xf32>
  %5 = linalg.matmul ins(%1, %3 : tensor<4x4xf32>, tensor<4x4xf32>) outs(%4 : tensor<4x4xf32>) -> tensor<4x4xf32>
  %6 = linalg.generic {indexing_maps = [affine_map<(d0, d1) -> (d0, d1)>, affine_map<(d0, d1) -> (d0, d1)>], iterator_types = ["parallel", "parallel"]} ins(%5 : tensor<4x4xf32>) outs(%4 : tensor<4x4xf32>) {
  ^bb0(%in: f32, %out: f32):
    %9 = arith.maximumf %in, %cst : f32
    linalg.yield %9 : f32
  } -> tensor<4x4xf32>
  %7 = iree_tensor_ext.compute_barrier.end %6 : tensor<4x4xf32> -> tensor<4x4xf32>
  %8 = hal.tensor.export %7 "output0" : tensor<4x4xf32> -> !hal.buffer_view
  util.return %8 : !hal.buffer_view
}

// -----// IR Dump After GlobalLoopInvariantCodeMotionPass (iree-global-opt-loop-invariant-code-motion) //----- //
util.func public @matmul(%arg0: !hal.buffer_view, %arg1: !hal.buffer_view) -> !hal.buffer_view attributes {iree.abi.stub, iree.reflection = {iree.abi.declaration = "sync func @matmul(%input0: tensor<4x4xf32>, %input1: tensor<4x4xf32>) -> (%output0: tensor<4x4xf32>)"}} {
  %cst = arith.constant 0.000000e+00 : f32
  %0 = hal.tensor.import %arg0 "input0" : !hal.buffer_view -> tensor<4x4xf32>
  %1 = iree_tensor_ext.compute_barrier.start %0 : tensor<4x4xf32> -> tensor<4x4xf32>
  %2 = hal.tensor.import %arg1 "input1" : !hal.buffer_view -> tensor<4x4xf32>
  %3 = iree_tensor_ext.compute_barrier.start %2 : tensor<4x4xf32> -> tensor<4x4xf32>
  %4 = tensor.empty() : tensor<4x4xf32>
  %5 = linalg.matmul ins(%1, %3 : tensor<4x4xf32>, tensor<4x4xf32>) outs(%4 : tensor<4x4xf32>) -> tensor<4x4xf32>
  %6 = linalg.generic {indexing_maps = [affine_map<(d0, d1) -> (d0, d1)>, affine_map<(d0, d1) -> (d0, d1)>], iterator_types = ["parallel", "parallel"]} ins(%5 : tensor<4x4xf32>) outs(%4 : tensor<4x4xf32>) {
  ^bb0(%in: f32, %out: f32):
    %9 = arith.maximumf %in, %cst : f32
    linalg.yield %9 : f32
  } -> tensor<4x4xf32>
  %7 = iree_tensor_ext.compute_barrier.end %6 : tensor<4x4xf32> -> tensor<4x4xf32>
  %8 = hal.tensor.export %7 "output0" : tensor<4x4xf32> -> !hal.buffer_view
  util.return %8 : !hal.buffer_view
}

// -----// IR Dump After CanonicalizePass (iree-flow-canonicalize) //----- //
util.func public @matmul(%arg0: !hal.buffer_view, %arg1: !hal.buffer_view) -> !hal.buffer_view attributes {iree.abi.stub, iree.reflection = {iree.abi.declaration = "sync func @matmul(%input0: tensor<4x4xf32>, %input1: tensor<4x4xf32>) -> (%output0: tensor<4x4xf32>)"}} {
  %cst = arith.constant 0.000000e+00 : f32
  %0 = hal.tensor.import %arg0 "input0" : !hal.buffer_view -> tensor<4x4xf32>
  %1 = iree_tensor_ext.compute_barrier.start %0 : tensor<4x4xf32> -> tensor<4x4xf32>
  %2 = hal.tensor.import %arg1 "input1" : !hal.buffer_view -> tensor<4x4xf32>
  %3 = iree_tensor_ext.compute_barrier.start %2 : tensor<4x4xf32> -> tensor<4x4xf32>
  %4 = tensor.empty() : tensor<4x4xf32>
  %5 = linalg.matmul ins(%1, %3 : tensor<4x4xf32>, tensor<4x4xf32>) outs(%4 : tensor<4x4xf32>) -> tensor<4x4xf32>
  %6 = linalg.generic {indexing_maps = [affine_map<(d0, d1) -> (d0, d1)>, affine_map<(d0, d1) -> (d0, d1)>], iterator_types = ["parallel", "parallel"]} ins(%5 : tensor<4x4xf32>) outs(%4 : tensor<4x4xf32>) {
  ^bb0(%in: f32, %out: f32):
    %9 = arith.maximumf %in, %cst : f32
    linalg.yield %9 : f32
  } -> tensor<4x4xf32>
  %7 = iree_tensor_ext.compute_barrier.end %6 : tensor<4x4xf32> -> tensor<4x4xf32>
  %8 = hal.tensor.export %7 "output0" : tensor<4x4xf32> -> !hal.buffer_view
  util.return %8 : !hal.buffer_view
}

// -----// IR Dump After CSE (cse) //----- //
util.func public @matmul(%arg0: !hal.buffer_view, %arg1: !hal.buffer_view) -> !hal.buffer_view attributes {iree.abi.stub, iree.reflection = {iree.abi.declaration = "sync func @matmul(%input0: tensor<4x4xf32>, %input1: tensor<4x4xf32>) -> (%output0: tensor<4x4xf32>)"}} {
  %cst = arith.constant 0.000000e+00 : f32
  %0 = hal.tensor.import %arg0 "input0" : !hal.buffer_view -> tensor<4x4xf32>
  %1 = iree_tensor_ext.compute_barrier.start %0 : tensor<4x4xf32> -> tensor<4x4xf32>
  %2 = hal.tensor.import %arg1 "input1" : !hal.buffer_view -> tensor<4x4xf32>
  %3 = iree_tensor_ext.compute_barrier.start %2 : tensor<4x4xf32> -> tensor<4x4xf32>
  %4 = tensor.empty() : tensor<4x4xf32>
  %5 = linalg.matmul ins(%1, %3 : tensor<4x4xf32>, tensor<4x4xf32>) outs(%4 : tensor<4x4xf32>) -> tensor<4x4xf32>
  %6 = linalg.generic {indexing_maps = [affine_map<(d0, d1) -> (d0, d1)>, affine_map<(d0, d1) -> (d0, d1)>], iterator_types = ["parallel", "parallel"]} ins(%5 : tensor<4x4xf32>) outs(%4 : tensor<4x4xf32>) {
  ^bb0(%in: f32, %out: f32):
    %9 = arith.maximumf %in, %cst : f32
    linalg.yield %9 : f32
  } -> tensor<4x4xf32>
  %7 = iree_tensor_ext.compute_barrier.end %6 : tensor<4x4xf32> -> tensor<4x4xf32>
  %8 = hal.tensor.export %7 "output0" : tensor<4x4xf32> -> !hal.buffer_view
  util.return %8 : !hal.buffer_view
}

// -----// IR Dump After SimplifyGlobalAccessesPass (iree-util-simplify-global-accesses) //----- //
util.func public @matmul(%arg0: !hal.buffer_view, %arg1: !hal.buffer_view) -> !hal.buffer_view attributes {iree.abi.stub, iree.reflection = {iree.abi.declaration = "sync func @matmul(%input0: tensor<4x4xf32>, %input1: tensor<4x4xf32>) -> (%output0: tensor<4x4xf32>)"}} {
  %cst = arith.constant 0.000000e+00 : f32
  %0 = hal.tensor.import %arg0 "input0" : !hal.buffer_view -> tensor<4x4xf32>
  %1 = iree_tensor_ext.compute_barrier.start %0 : tensor<4x4xf32> -> tensor<4x4xf32>
  %2 = hal.tensor.import %arg1 "input1" : !hal.buffer_view -> tensor<4x4xf32>
  %3 = iree_tensor_ext.compute_barrier.start %2 : tensor<4x4xf32> -> tensor<4x4xf32>
  %4 = tensor.empty() : tensor<4x4xf32>
  %5 = linalg.matmul ins(%1, %3 : tensor<4x4xf32>, tensor<4x4xf32>) outs(%4 : tensor<4x4xf32>) -> tensor<4x4xf32>
  %6 = linalg.generic {indexing_maps = [affine_map<(d0, d1) -> (d0, d1)>, affine_map<(d0, d1) -> (d0, d1)>], iterator_types = ["parallel", "parallel"]} ins(%5 : tensor<4x4xf32>) outs(%4 : tensor<4x4xf32>) {
  ^bb0(%in: f32, %out: f32):
    %9 = arith.maximumf %in, %cst : f32
    linalg.yield %9 : f32
  } -> tensor<4x4xf32>
  %7 = iree_tensor_ext.compute_barrier.end %6 : tensor<4x4xf32> -> tensor<4x4xf32>
  %8 = hal.tensor.export %7 "output0" : tensor<4x4xf32> -> !hal.buffer_view
  util.return %8 : !hal.buffer_view
}

// -----// IR Dump After ApplyPatternsPass (iree-util-apply-patterns) //----- //
util.func public @matmul(%arg0: !hal.buffer_view, %arg1: !hal.buffer_view) -> !hal.buffer_view attributes {iree.abi.stub, iree.reflection = {iree.abi.declaration = "sync func @matmul(%input0: tensor<4x4xf32>, %input1: tensor<4x4xf32>) -> (%output0: tensor<4x4xf32>)"}} {
  %cst = arith.constant 0.000000e+00 : f32
  %0 = hal.tensor.import %arg0 "input0" : !hal.buffer_view -> tensor<4x4xf32>
  %1 = iree_tensor_ext.compute_barrier.start %0 : tensor<4x4xf32> -> tensor<4x4xf32>
  %2 = hal.tensor.import %arg1 "input1" : !hal.buffer_view -> tensor<4x4xf32>
  %3 = iree_tensor_ext.compute_barrier.start %2 : tensor<4x4xf32> -> tensor<4x4xf32>
  %4 = tensor.empty() : tensor<4x4xf32>
  %5 = linalg.matmul ins(%1, %3 : tensor<4x4xf32>, tensor<4x4xf32>) outs(%4 : tensor<4x4xf32>) -> tensor<4x4xf32>
  %6 = linalg.generic {indexing_maps = [affine_map<(d0, d1) -> (d0, d1)>, affine_map<(d0, d1) -> (d0, d1)>], iterator_types = ["parallel", "parallel"]} ins(%5 : tensor<4x4xf32>) outs(%4 : tensor<4x4xf32>) {
  ^bb0(%in: f32, %out: f32):
    %9 = arith.maximumf %in, %cst : f32
    linalg.yield %9 : f32
  } -> tensor<4x4xf32>
  %7 = iree_tensor_ext.compute_barrier.end %6 : tensor<4x4xf32> -> tensor<4x4xf32>
  %8 = hal.tensor.export %7 "output0" : tensor<4x4xf32> -> !hal.buffer_view
  util.return %8 : !hal.buffer_view
}

// -----// IR Dump After FoldGlobalsPass (iree-util-fold-globals) //----- //
#executable_target_embedded_elf_arm_64 = #hal.executable.target<"llvm-cpu", "embedded-elf-arm_64", {cpu = "", cpu_features = "+reserve-x18", data_layout = "e-m:e-p270:32:32-p271:32:32-p272:64:64-i8:8:32-i16:16:32-i64:64-i128:128-n32:64-S128-Fn32", iree.encoding.resolver = #iree_cpu.cpu_encoding_resolver<>, max_stack_allocation_size = 32768 : i64, native_vector_size = 16 : i64, target_triple = "arm64-unknown-unknown-eabi-elf"}>
#map = affine_map<(d0, d1) -> (d0, d1)>
#device_target_local = #hal.device.target<"local", [#executable_target_embedded_elf_arm_64]> : !hal.device
module attributes {stream.affinity.default = #hal.device.affinity<@__device_0>} {
  util.global private @__device_0 = #device_target_local
  util.func public @matmul(%arg0: !hal.buffer_view, %arg1: !hal.buffer_view) -> !hal.buffer_view attributes {iree.abi.stub, iree.reflection = {iree.abi.declaration = "sync func @matmul(%input0: tensor<4x4xf32>, %input1: tensor<4x4xf32>) -> (%output0: tensor<4x4xf32>)"}} {
    %cst = arith.constant 0.000000e+00 : f32
    %0 = hal.tensor.import %arg0 "input0" : !hal.buffer_view -> tensor<4x4xf32>
    %1 = iree_tensor_ext.compute_barrier.start %0 : tensor<4x4xf32> -> tensor<4x4xf32>
    %2 = hal.tensor.import %arg1 "input1" : !hal.buffer_view -> tensor<4x4xf32>
    %3 = iree_tensor_ext.compute_barrier.start %2 : tensor<4x4xf32> -> tensor<4x4xf32>
    %4 = tensor.empty() : tensor<4x4xf32>
    %5 = linalg.matmul ins(%1, %3 : tensor<4x4xf32>, tensor<4x4xf32>) outs(%4 : tensor<4x4xf32>) -> tensor<4x4xf32>
    %6 = linalg.generic {indexing_maps = [#map, #map], iterator_types = ["parallel", "parallel"]} ins(%5 : tensor<4x4xf32>) outs(%4 : tensor<4x4xf32>) {
    ^bb0(%in: f32, %out: f32):
      %9 = arith.maximumf %in, %cst : f32
      linalg.yield %9 : f32
    } -> tensor<4x4xf32>
    %7 = iree_tensor_ext.compute_barrier.end %6 : tensor<4x4xf32> -> tensor<4x4xf32>
    %8 = hal.tensor.export %7 "output0" : tensor<4x4xf32> -> !hal.buffer_view
    util.return %8 : !hal.buffer_view
  }
}


// -----// IR Dump After IPOPass (iree-util-ipo) //----- //
#executable_target_embedded_elf_arm_64 = #hal.executable.target<"llvm-cpu", "embedded-elf-arm_64", {cpu = "", cpu_features = "+reserve-x18", data_layout = "e-m:e-p270:32:32-p271:32:32-p272:64:64-i8:8:32-i16:16:32-i64:64-i128:128-n32:64-S128-Fn32", iree.encoding.resolver = #iree_cpu.cpu_encoding_resolver<>, max_stack_allocation_size = 32768 : i64, native_vector_size = 16 : i64, target_triple = "arm64-unknown-unknown-eabi-elf"}>
#map = affine_map<(d0, d1) -> (d0, d1)>
#device_target_local = #hal.device.target<"local", [#executable_target_embedded_elf_arm_64]> : !hal.device
module attributes {stream.affinity.default = #hal.device.affinity<@__device_0>} {
  util.global private @__device_0 = #device_target_local
  util.func public @matmul(%arg0: !hal.buffer_view, %arg1: !hal.buffer_view) -> !hal.buffer_view attributes {iree.abi.stub, iree.reflection = {iree.abi.declaration = "sync func @matmul(%input0: tensor<4x4xf32>, %input1: tensor<4x4xf32>) -> (%output0: tensor<4x4xf32>)"}} {
    %cst = arith.constant 0.000000e+00 : f32
    %0 = hal.tensor.import %arg0 "input0" : !hal.buffer_view -> tensor<4x4xf32>
    %1 = iree_tensor_ext.compute_barrier.start %0 : tensor<4x4xf32> -> tensor<4x4xf32>
    %2 = hal.tensor.import %arg1 "input1" : !hal.buffer_view -> tensor<4x4xf32>
    %3 = iree_tensor_ext.compute_barrier.start %2 : tensor<4x4xf32> -> tensor<4x4xf32>
    %4 = tensor.empty() : tensor<4x4xf32>
    %5 = linalg.matmul ins(%1, %3 : tensor<4x4xf32>, tensor<4x4xf32>) outs(%4 : tensor<4x4xf32>) -> tensor<4x4xf32>
    %6 = linalg.generic {indexing_maps = [#map, #map], iterator_types = ["parallel", "parallel"]} ins(%5 : tensor<4x4xf32>) outs(%4 : tensor<4x4xf32>) {
    ^bb0(%in: f32, %out: f32):
      %9 = arith.maximumf %in, %cst : f32
      linalg.yield %9 : f32
    } -> tensor<4x4xf32>
    %7 = iree_tensor_ext.compute_barrier.end %6 : tensor<4x4xf32> -> tensor<4x4xf32>
    %8 = hal.tensor.export %7 "output0" : tensor<4x4xf32> -> !hal.buffer_view
    util.return %8 : !hal.buffer_view
  }
}


// -----// IR Dump After OptimizeIntArithmeticPass (iree-util-optimize-int-arithmetic) //----- //
util.func public @matmul(%arg0: !hal.buffer_view, %arg1: !hal.buffer_view) -> !hal.buffer_view attributes {iree.abi.stub, iree.reflection = {iree.abi.declaration = "sync func @matmul(%input0: tensor<4x4xf32>, %input1: tensor<4x4xf32>) -> (%output0: tensor<4x4xf32>)"}} {
  %cst = arith.constant 0.000000e+00 : f32
  %0 = hal.tensor.import %arg0 "input0" : !hal.buffer_view -> tensor<4x4xf32>
  %1 = iree_tensor_ext.compute_barrier.start %0 : tensor<4x4xf32> -> tensor<4x4xf32>
  %2 = hal.tensor.import %arg1 "input1" : !hal.buffer_view -> tensor<4x4xf32>
  %3 = iree_tensor_ext.compute_barrier.start %2 : tensor<4x4xf32> -> tensor<4x4xf32>
  %4 = tensor.empty() : tensor<4x4xf32>
  %5 = linalg.matmul ins(%1, %3 : tensor<4x4xf32>, tensor<4x4xf32>) outs(%4 : tensor<4x4xf32>) -> tensor<4x4xf32>
  %6 = linalg.generic {indexing_maps = [affine_map<(d0, d1) -> (d0, d1)>, affine_map<(d0, d1) -> (d0, d1)>], iterator_types = ["parallel", "parallel"]} ins(%5 : tensor<4x4xf32>) outs(%4 : tensor<4x4xf32>) {
  ^bb0(%in: f32, %out: f32):
    %9 = arith.maximumf %in, %cst : f32
    linalg.yield %9 : f32
  } -> tensor<4x4xf32>
  %7 = iree_tensor_ext.compute_barrier.end %6 : tensor<4x4xf32> -> tensor<4x4xf32>
  %8 = hal.tensor.export %7 "output0" : tensor<4x4xf32> -> !hal.buffer_view
  util.return %8 : !hal.buffer_view
}

// -----// IR Dump After CanonicalizePass (iree-flow-canonicalize) //----- //
util.func public @matmul(%arg0: !hal.buffer_view, %arg1: !hal.buffer_view) -> !hal.buffer_view attributes {iree.abi.stub, iree.reflection = {iree.abi.declaration = "sync func @matmul(%input0: tensor<4x4xf32>, %input1: tensor<4x4xf32>) -> (%output0: tensor<4x4xf32>)"}} {
  %cst = arith.constant 0.000000e+00 : f32
  %0 = hal.tensor.import %arg0 "input0" : !hal.buffer_view -> tensor<4x4xf32>
  %1 = iree_tensor_ext.compute_barrier.start %0 : tensor<4x4xf32> -> tensor<4x4xf32>
  %2 = hal.tensor.import %arg1 "input1" : !hal.buffer_view -> tensor<4x4xf32>
  %3 = iree_tensor_ext.compute_barrier.start %2 : tensor<4x4xf32> -> tensor<4x4xf32>
  %4 = tensor.empty() : tensor<4x4xf32>
  %5 = linalg.matmul ins(%1, %3 : tensor<4x4xf32>, tensor<4x4xf32>) outs(%4 : tensor<4x4xf32>) -> tensor<4x4xf32>
  %6 = linalg.generic {indexing_maps = [affine_map<(d0, d1) -> (d0, d1)>, affine_map<(d0, d1) -> (d0, d1)>], iterator_types = ["parallel", "parallel"]} ins(%5 : tensor<4x4xf32>) outs(%4 : tensor<4x4xf32>) {
  ^bb0(%in: f32, %out: f32):
    %9 = arith.maximumf %in, %cst : f32
    linalg.yield %9 : f32
  } -> tensor<4x4xf32>
  %7 = iree_tensor_ext.compute_barrier.end %6 : tensor<4x4xf32> -> tensor<4x4xf32>
  %8 = hal.tensor.export %7 "output0" : tensor<4x4xf32> -> !hal.buffer_view
  util.return %8 : !hal.buffer_view
}

// -----// IR Dump After CSE (cse) //----- //
util.func public @matmul(%arg0: !hal.buffer_view, %arg1: !hal.buffer_view) -> !hal.buffer_view attributes {iree.abi.stub, iree.reflection = {iree.abi.declaration = "sync func @matmul(%input0: tensor<4x4xf32>, %input1: tensor<4x4xf32>) -> (%output0: tensor<4x4xf32>)"}} {
  %cst = arith.constant 0.000000e+00 : f32
  %0 = hal.tensor.import %arg0 "input0" : !hal.buffer_view -> tensor<4x4xf32>
  %1 = iree_tensor_ext.compute_barrier.start %0 : tensor<4x4xf32> -> tensor<4x4xf32>
  %2 = hal.tensor.import %arg1 "input1" : !hal.buffer_view -> tensor<4x4xf32>
  %3 = iree_tensor_ext.compute_barrier.start %2 : tensor<4x4xf32> -> tensor<4x4xf32>
  %4 = tensor.empty() : tensor<4x4xf32>
  %5 = linalg.matmul ins(%1, %3 : tensor<4x4xf32>, tensor<4x4xf32>) outs(%4 : tensor<4x4xf32>) -> tensor<4x4xf32>
  %6 = linalg.generic {indexing_maps = [affine_map<(d0, d1) -> (d0, d1)>, affine_map<(d0, d1) -> (d0, d1)>], iterator_types = ["parallel", "parallel"]} ins(%5 : tensor<4x4xf32>) outs(%4 : tensor<4x4xf32>) {
  ^bb0(%in: f32, %out: f32):
    %9 = arith.maximumf %in, %cst : f32
    linalg.yield %9 : f32
  } -> tensor<4x4xf32>
  %7 = iree_tensor_ext.compute_barrier.end %6 : tensor<4x4xf32> -> tensor<4x4xf32>
  %8 = hal.tensor.export %7 "output0" : tensor<4x4xf32> -> !hal.buffer_view
  util.return %8 : !hal.buffer_view
}

// -----// IR Dump After HoistIntoGlobalsPass (iree-util-hoist-into-globals) //----- //
#executable_target_embedded_elf_arm_64 = #hal.executable.target<"llvm-cpu", "embedded-elf-arm_64", {cpu = "", cpu_features = "+reserve-x18", data_layout = "e-m:e-p270:32:32-p271:32:32-p272:64:64-i8:8:32-i16:16:32-i64:64-i128:128-n32:64-S128-Fn32", iree.encoding.resolver = #iree_cpu.cpu_encoding_resolver<>, max_stack_allocation_size = 32768 : i64, native_vector_size = 16 : i64, target_triple = "arm64-unknown-unknown-eabi-elf"}>
#map = affine_map<(d0, d1) -> (d0, d1)>
#device_target_local = #hal.device.target<"local", [#executable_target_embedded_elf_arm_64]> : !hal.device
module attributes {stream.affinity.default = #hal.device.affinity<@__device_0>} {
  util.global private @__device_0 = #device_target_local
  util.func public @matmul(%arg0: !hal.buffer_view, %arg1: !hal.buffer_view) -> !hal.buffer_view attributes {iree.abi.stub, iree.reflection = {iree.abi.declaration = "sync func @matmul(%input0: tensor<4x4xf32>, %input1: tensor<4x4xf32>) -> (%output0: tensor<4x4xf32>)"}} {
    %cst = arith.constant 0.000000e+00 : f32
    %0 = hal.tensor.import %arg0 "input0" : !hal.buffer_view -> tensor<4x4xf32>
    %1 = iree_tensor_ext.compute_barrier.start %0 : tensor<4x4xf32> -> tensor<4x4xf32>
    %2 = hal.tensor.import %arg1 "input1" : !hal.buffer_view -> tensor<4x4xf32>
    %3 = iree_tensor_ext.compute_barrier.start %2 : tensor<4x4xf32> -> tensor<4x4xf32>
    %4 = tensor.empty() : tensor<4x4xf32>
    %5 = linalg.matmul ins(%1, %3 : tensor<4x4xf32>, tensor<4x4xf32>) outs(%4 : tensor<4x4xf32>) -> tensor<4x4xf32>
    %6 = linalg.generic {indexing_maps = [#map, #map], iterator_types = ["parallel", "parallel"]} ins(%5 : tensor<4x4xf32>) outs(%4 : tensor<4x4xf32>) {
    ^bb0(%in: f32, %out: f32):
      %9 = arith.maximumf %in, %cst : f32
      linalg.yield %9 : f32
    } -> tensor<4x4xf32>
    %7 = iree_tensor_ext.compute_barrier.end %6 : tensor<4x4xf32> -> tensor<4x4xf32>
    %8 = hal.tensor.export %7 "output0" : tensor<4x4xf32> -> !hal.buffer_view
    util.return %8 : !hal.buffer_view
  }
}


// -----// IR Dump After JitGlobalsPass (iree-consteval-jit-globals) //----- //
#executable_target_embedded_elf_arm_64 = #hal.executable.target<"llvm-cpu", "embedded-elf-arm_64", {cpu = "", cpu_features = "+reserve-x18", data_layout = "e-m:e-p270:32:32-p271:32:32-p272:64:64-i8:8:32-i16:16:32-i64:64-i128:128-n32:64-S128-Fn32", iree.encoding.resolver = #iree_cpu.cpu_encoding_resolver<>, max_stack_allocation_size = 32768 : i64, native_vector_size = 16 : i64, target_triple = "arm64-unknown-unknown-eabi-elf"}>
#map = affine_map<(d0, d1) -> (d0, d1)>
#device_target_local = #hal.device.target<"local", [#executable_target_embedded_elf_arm_64]> : !hal.device
module attributes {stream.affinity.default = #hal.device.affinity<@__device_0>} {
  util.global private @__device_0 = #device_target_local
  util.func public @matmul(%arg0: !hal.buffer_view, %arg1: !hal.buffer_view) -> !hal.buffer_view attributes {iree.abi.stub, iree.reflection = {iree.abi.declaration = "sync func @matmul(%input0: tensor<4x4xf32>, %input1: tensor<4x4xf32>) -> (%output0: tensor<4x4xf32>)"}} {
    %cst = arith.constant 0.000000e+00 : f32
    %0 = hal.tensor.import %arg0 "input0" : !hal.buffer_view -> tensor<4x4xf32>
    %1 = iree_tensor_ext.compute_barrier.start %0 : tensor<4x4xf32> -> tensor<4x4xf32>
    %2 = hal.tensor.import %arg1 "input1" : !hal.buffer_view -> tensor<4x4xf32>
    %3 = iree_tensor_ext.compute_barrier.start %2 : tensor<4x4xf32> -> tensor<4x4xf32>
    %4 = tensor.empty() : tensor<4x4xf32>
    %5 = linalg.matmul ins(%1, %3 : tensor<4x4xf32>, tensor<4x4xf32>) outs(%4 : tensor<4x4xf32>) -> tensor<4x4xf32>
    %6 = linalg.generic {indexing_maps = [#map, #map], iterator_types = ["parallel", "parallel"]} ins(%5 : tensor<4x4xf32>) outs(%4 : tensor<4x4xf32>) {
    ^bb0(%in: f32, %out: f32):
      %9 = arith.maximumf %in, %cst : f32
      linalg.yield %9 : f32
    } -> tensor<4x4xf32>
    %7 = iree_tensor_ext.compute_barrier.end %6 : tensor<4x4xf32> -> tensor<4x4xf32>
    %8 = hal.tensor.export %7 "output0" : tensor<4x4xf32> -> !hal.buffer_view
    util.return %8 : !hal.buffer_view
  }
}


// -----// IR Dump After CanonicalizePass (iree-flow-canonicalize) //----- //
util.func public @matmul(%arg0: !hal.buffer_view, %arg1: !hal.buffer_view) -> !hal.buffer_view attributes {iree.abi.stub, iree.reflection = {iree.abi.declaration = "sync func @matmul(%input0: tensor<4x4xf32>, %input1: tensor<4x4xf32>) -> (%output0: tensor<4x4xf32>)"}} {
  %cst = arith.constant 0.000000e+00 : f32
  %0 = hal.tensor.import %arg0 "input0" : !hal.buffer_view -> tensor<4x4xf32>
  %1 = iree_tensor_ext.compute_barrier.start %0 : tensor<4x4xf32> -> tensor<4x4xf32>
  %2 = hal.tensor.import %arg1 "input1" : !hal.buffer_view -> tensor<4x4xf32>
  %3 = iree_tensor_ext.compute_barrier.start %2 : tensor<4x4xf32> -> tensor<4x4xf32>
  %4 = tensor.empty() : tensor<4x4xf32>
  %5 = linalg.matmul ins(%1, %3 : tensor<4x4xf32>, tensor<4x4xf32>) outs(%4 : tensor<4x4xf32>) -> tensor<4x4xf32>
  %6 = linalg.generic {indexing_maps = [affine_map<(d0, d1) -> (d0, d1)>, affine_map<(d0, d1) -> (d0, d1)>], iterator_types = ["parallel", "parallel"]} ins(%5 : tensor<4x4xf32>) outs(%4 : tensor<4x4xf32>) {
  ^bb0(%in: f32, %out: f32):
    %9 = arith.maximumf %in, %cst : f32
    linalg.yield %9 : f32
  } -> tensor<4x4xf32>
  %7 = iree_tensor_ext.compute_barrier.end %6 : tensor<4x4xf32> -> tensor<4x4xf32>
  %8 = hal.tensor.export %7 "output0" : tensor<4x4xf32> -> !hal.buffer_view
  util.return %8 : !hal.buffer_view
}

// -----// IR Dump After CSE (cse) //----- //
util.func public @matmul(%arg0: !hal.buffer_view, %arg1: !hal.buffer_view) -> !hal.buffer_view attributes {iree.abi.stub, iree.reflection = {iree.abi.declaration = "sync func @matmul(%input0: tensor<4x4xf32>, %input1: tensor<4x4xf32>) -> (%output0: tensor<4x4xf32>)"}} {
  %cst = arith.constant 0.000000e+00 : f32
  %0 = hal.tensor.import %arg0 "input0" : !hal.buffer_view -> tensor<4x4xf32>
  %1 = iree_tensor_ext.compute_barrier.start %0 : tensor<4x4xf32> -> tensor<4x4xf32>
  %2 = hal.tensor.import %arg1 "input1" : !hal.buffer_view -> tensor<4x4xf32>
  %3 = iree_tensor_ext.compute_barrier.start %2 : tensor<4x4xf32> -> tensor<4x4xf32>
  %4 = tensor.empty() : tensor<4x4xf32>
  %5 = linalg.matmul ins(%1, %3 : tensor<4x4xf32>, tensor<4x4xf32>) outs(%4 : tensor<4x4xf32>) -> tensor<4x4xf32>
  %6 = linalg.generic {indexing_maps = [affine_map<(d0, d1) -> (d0, d1)>, affine_map<(d0, d1) -> (d0, d1)>], iterator_types = ["parallel", "parallel"]} ins(%5 : tensor<4x4xf32>) outs(%4 : tensor<4x4xf32>) {
  ^bb0(%in: f32, %out: f32):
    %9 = arith.maximumf %in, %cst : f32
    linalg.yield %9 : f32
  } -> tensor<4x4xf32>
  %7 = iree_tensor_ext.compute_barrier.end %6 : tensor<4x4xf32> -> tensor<4x4xf32>
  %8 = hal.tensor.export %7 "output0" : tensor<4x4xf32> -> !hal.buffer_view
  util.return %8 : !hal.buffer_view
}

// -----// IR Dump After RaiseSpecialOpsPass (iree-global-opt-raise-special-ops) //----- //
util.func public @matmul(%arg0: !hal.buffer_view, %arg1: !hal.buffer_view) -> !hal.buffer_view attributes {iree.abi.stub, iree.reflection = {iree.abi.declaration = "sync func @matmul(%input0: tensor<4x4xf32>, %input1: tensor<4x4xf32>) -> (%output0: tensor<4x4xf32>)"}} {
  %cst = arith.constant 0.000000e+00 : f32
  %0 = hal.tensor.import %arg0 "input0" : !hal.buffer_view -> tensor<4x4xf32>
  %1 = iree_tensor_ext.compute_barrier.start %0 : tensor<4x4xf32> -> tensor<4x4xf32>
  %2 = hal.tensor.import %arg1 "input1" : !hal.buffer_view -> tensor<4x4xf32>
  %3 = iree_tensor_ext.compute_barrier.start %2 : tensor<4x4xf32> -> tensor<4x4xf32>
  %4 = tensor.empty() : tensor<4x4xf32>
  %5 = linalg.matmul ins(%1, %3 : tensor<4x4xf32>, tensor<4x4xf32>) outs(%4 : tensor<4x4xf32>) -> tensor<4x4xf32>
  %6 = linalg.generic {indexing_maps = [affine_map<(d0, d1) -> (d0, d1)>, affine_map<(d0, d1) -> (d0, d1)>], iterator_types = ["parallel", "parallel"]} ins(%5 : tensor<4x4xf32>) outs(%4 : tensor<4x4xf32>) {
  ^bb0(%in: f32, %out: f32):
    %9 = arith.maximumf %in, %cst : f32
    linalg.yield %9 : f32
  } -> tensor<4x4xf32>
  %7 = iree_tensor_ext.compute_barrier.end %6 : tensor<4x4xf32> -> tensor<4x4xf32>
  %8 = hal.tensor.export %7 "output0" : tensor<4x4xf32> -> !hal.buffer_view
  util.return %8 : !hal.buffer_view
}

// -----// IR Dump After InjectTensorTracingPass (iree-flow-inject-tensor-tracing) //----- //
util.func public @matmul(%arg0: !hal.buffer_view, %arg1: !hal.buffer_view) -> !hal.buffer_view attributes {iree.abi.stub, iree.reflection = {iree.abi.declaration = "sync func @matmul(%input0: tensor<4x4xf32>, %input1: tensor<4x4xf32>) -> (%output0: tensor<4x4xf32>)"}} {
  %cst = arith.constant 0.000000e+00 : f32
  %0 = hal.tensor.import %arg0 "input0" : !hal.buffer_view -> tensor<4x4xf32>
  %1 = iree_tensor_ext.compute_barrier.start %0 : tensor<4x4xf32> -> tensor<4x4xf32>
  %2 = hal.tensor.import %arg1 "input1" : !hal.buffer_view -> tensor<4x4xf32>
  %3 = iree_tensor_ext.compute_barrier.start %2 : tensor<4x4xf32> -> tensor<4x4xf32>
  %4 = tensor.empty() : tensor<4x4xf32>
  %5 = linalg.matmul ins(%1, %3 : tensor<4x4xf32>, tensor<4x4xf32>) outs(%4 : tensor<4x4xf32>) -> tensor<4x4xf32>
  %6 = linalg.generic {indexing_maps = [affine_map<(d0, d1) -> (d0, d1)>, affine_map<(d0, d1) -> (d0, d1)>], iterator_types = ["parallel", "parallel"]} ins(%5 : tensor<4x4xf32>) outs(%4 : tensor<4x4xf32>) {
  ^bb0(%in: f32, %out: f32):
    %9 = arith.maximumf %in, %cst : f32
    linalg.yield %9 : f32
  } -> tensor<4x4xf32>
  %7 = iree_tensor_ext.compute_barrier.end %6 : tensor<4x4xf32> -> tensor<4x4xf32>
  %8 = hal.tensor.export %7 "output0" : tensor<4x4xf32> -> !hal.buffer_view
  util.return %8 : !hal.buffer_view
}

// -----// IR Dump After TensorPadToTensorInsertSlicePass (iree-dispatch-creation-tensor-pad-to-tensor-insert-slice) //----- //
#executable_target_embedded_elf_arm_64 = #hal.executable.target<"llvm-cpu", "embedded-elf-arm_64", {cpu = "", cpu_features = "+reserve-x18", data_layout = "e-m:e-p270:32:32-p271:32:32-p272:64:64-i8:8:32-i16:16:32-i64:64-i128:128-n32:64-S128-Fn32", iree.encoding.resolver = #iree_cpu.cpu_encoding_resolver<>, max_stack_allocation_size = 32768 : i64, native_vector_size = 16 : i64, target_triple = "arm64-unknown-unknown-eabi-elf"}>
#map = affine_map<(d0, d1) -> (d0, d1)>
#device_target_local = #hal.device.target<"local", [#executable_target_embedded_elf_arm_64]> : !hal.device
module attributes {stream.affinity.default = #hal.device.affinity<@__device_0>} {
  util.global private @__device_0 = #device_target_local
  util.func public @matmul(%arg0: !hal.buffer_view, %arg1: !hal.buffer_view) -> !hal.buffer_view attributes {iree.abi.stub, iree.reflection = {iree.abi.declaration = "sync func @matmul(%input0: tensor<4x4xf32>, %input1: tensor<4x4xf32>) -> (%output0: tensor<4x4xf32>)"}} {
    %cst = arith.constant 0.000000e+00 : f32
    %0 = hal.tensor.import %arg0 "input0" : !hal.buffer_view -> tensor<4x4xf32>
    %1 = iree_tensor_ext.compute_barrier.start %0 : tensor<4x4xf32> -> tensor<4x4xf32>
    %2 = hal.tensor.import %arg1 "input1" : !hal.buffer_view -> tensor<4x4xf32>
    %3 = iree_tensor_ext.compute_barrier.start %2 : tensor<4x4xf32> -> tensor<4x4xf32>
    %4 = tensor.empty() : tensor<4x4xf32>
    %5 = linalg.matmul ins(%1, %3 : tensor<4x4xf32>, tensor<4x4xf32>) outs(%4 : tensor<4x4xf32>) -> tensor<4x4xf32>
    %6 = linalg.generic {indexing_maps = [#map, #map], iterator_types = ["parallel", "parallel"]} ins(%5 : tensor<4x4xf32>) outs(%4 : tensor<4x4xf32>) {
    ^bb0(%in: f32, %out: f32):
      %9 = arith.maximumf %in, %cst : f32
      linalg.yield %9 : f32
    } -> tensor<4x4xf32>
    %7 = iree_tensor_ext.compute_barrier.end %6 : tensor<4x4xf32> -> tensor<4x4xf32>
    %8 = hal.tensor.export %7 "output0" : tensor<4x4xf32> -> !hal.buffer_view
    util.return %8 : !hal.buffer_view
  }
}


// -----// IR Dump After CanonicalizePass (iree-flow-canonicalize) //----- //
util.func public @matmul(%arg0: !hal.buffer_view, %arg1: !hal.buffer_view) -> !hal.buffer_view attributes {iree.abi.stub, iree.reflection = {iree.abi.declaration = "sync func @matmul(%input0: tensor<4x4xf32>, %input1: tensor<4x4xf32>) -> (%output0: tensor<4x4xf32>)"}} {
  %cst = arith.constant 0.000000e+00 : f32
  %0 = hal.tensor.import %arg0 "input0" : !hal.buffer_view -> tensor<4x4xf32>
  %1 = iree_tensor_ext.compute_barrier.start %0 : tensor<4x4xf32> -> tensor<4x4xf32>
  %2 = hal.tensor.import %arg1 "input1" : !hal.buffer_view -> tensor<4x4xf32>
  %3 = iree_tensor_ext.compute_barrier.start %2 : tensor<4x4xf32> -> tensor<4x4xf32>
  %4 = tensor.empty() : tensor<4x4xf32>
  %5 = linalg.matmul ins(%1, %3 : tensor<4x4xf32>, tensor<4x4xf32>) outs(%4 : tensor<4x4xf32>) -> tensor<4x4xf32>
  %6 = linalg.generic {indexing_maps = [affine_map<(d0, d1) -> (d0, d1)>, affine_map<(d0, d1) -> (d0, d1)>], iterator_types = ["parallel", "parallel"]} ins(%5 : tensor<4x4xf32>) outs(%4 : tensor<4x4xf32>) {
  ^bb0(%in: f32, %out: f32):
    %9 = arith.maximumf %in, %cst : f32
    linalg.yield %9 : f32
  } -> tensor<4x4xf32>
  %7 = iree_tensor_ext.compute_barrier.end %6 : tensor<4x4xf32> -> tensor<4x4xf32>
  %8 = hal.tensor.export %7 "output0" : tensor<4x4xf32> -> !hal.buffer_view
  util.return %8 : !hal.buffer_view
}

// -----// IR Dump After CSE (cse) //----- //
util.func public @matmul(%arg0: !hal.buffer_view, %arg1: !hal.buffer_view) -> !hal.buffer_view attributes {iree.abi.stub, iree.reflection = {iree.abi.declaration = "sync func @matmul(%input0: tensor<4x4xf32>, %input1: tensor<4x4xf32>) -> (%output0: tensor<4x4xf32>)"}} {
  %cst = arith.constant 0.000000e+00 : f32
  %0 = hal.tensor.import %arg0 "input0" : !hal.buffer_view -> tensor<4x4xf32>
  %1 = iree_tensor_ext.compute_barrier.start %0 : tensor<4x4xf32> -> tensor<4x4xf32>
  %2 = hal.tensor.import %arg1 "input1" : !hal.buffer_view -> tensor<4x4xf32>
  %3 = iree_tensor_ext.compute_barrier.start %2 : tensor<4x4xf32> -> tensor<4x4xf32>
  %4 = tensor.empty() : tensor<4x4xf32>
  %5 = linalg.matmul ins(%1, %3 : tensor<4x4xf32>, tensor<4x4xf32>) outs(%4 : tensor<4x4xf32>) -> tensor<4x4xf32>
  %6 = linalg.generic {indexing_maps = [affine_map<(d0, d1) -> (d0, d1)>, affine_map<(d0, d1) -> (d0, d1)>], iterator_types = ["parallel", "parallel"]} ins(%5 : tensor<4x4xf32>) outs(%4 : tensor<4x4xf32>) {
  ^bb0(%in: f32, %out: f32):
    %9 = arith.maximumf %in, %cst : f32
    linalg.yield %9 : f32
  } -> tensor<4x4xf32>
  %7 = iree_tensor_ext.compute_barrier.end %6 : tensor<4x4xf32> -> tensor<4x4xf32>
  %8 = hal.tensor.export %7 "output0" : tensor<4x4xf32> -> !hal.buffer_view
  util.return %8 : !hal.buffer_view
}

// -----// IR Dump After SimplifyGlobalAccessesPass (iree-util-simplify-global-accesses) //----- //
util.func public @matmul(%arg0: !hal.buffer_view, %arg1: !hal.buffer_view) -> !hal.buffer_view attributes {iree.abi.stub, iree.reflection = {iree.abi.declaration = "sync func @matmul(%input0: tensor<4x4xf32>, %input1: tensor<4x4xf32>) -> (%output0: tensor<4x4xf32>)"}} {
  %cst = arith.constant 0.000000e+00 : f32
  %0 = hal.tensor.import %arg0 "input0" : !hal.buffer_view -> tensor<4x4xf32>
  %1 = iree_tensor_ext.compute_barrier.start %0 : tensor<4x4xf32> -> tensor<4x4xf32>
  %2 = hal.tensor.import %arg1 "input1" : !hal.buffer_view -> tensor<4x4xf32>
  %3 = iree_tensor_ext.compute_barrier.start %2 : tensor<4x4xf32> -> tensor<4x4xf32>
  %4 = tensor.empty() : tensor<4x4xf32>
  %5 = linalg.matmul ins(%1, %3 : tensor<4x4xf32>, tensor<4x4xf32>) outs(%4 : tensor<4x4xf32>) -> tensor<4x4xf32>
  %6 = linalg.generic {indexing_maps = [affine_map<(d0, d1) -> (d0, d1)>, affine_map<(d0, d1) -> (d0, d1)>], iterator_types = ["parallel", "parallel"]} ins(%5 : tensor<4x4xf32>) outs(%4 : tensor<4x4xf32>) {
  ^bb0(%in: f32, %out: f32):
    %9 = arith.maximumf %in, %cst : f32
    linalg.yield %9 : f32
  } -> tensor<4x4xf32>
  %7 = iree_tensor_ext.compute_barrier.end %6 : tensor<4x4xf32> -> tensor<4x4xf32>
  %8 = hal.tensor.export %7 "output0" : tensor<4x4xf32> -> !hal.buffer_view
  util.return %8 : !hal.buffer_view
}

// -----// IR Dump After ApplyPatternsPass (iree-util-apply-patterns) //----- //
util.func public @matmul(%arg0: !hal.buffer_view, %arg1: !hal.buffer_view) -> !hal.buffer_view attributes {iree.abi.stub, iree.reflection = {iree.abi.declaration = "sync func @matmul(%input0: tensor<4x4xf32>, %input1: tensor<4x4xf32>) -> (%output0: tensor<4x4xf32>)"}} {
  %cst = arith.constant 0.000000e+00 : f32
  %0 = hal.tensor.import %arg0 "input0" : !hal.buffer_view -> tensor<4x4xf32>
  %1 = iree_tensor_ext.compute_barrier.start %0 : tensor<4x4xf32> -> tensor<4x4xf32>
  %2 = hal.tensor.import %arg1 "input1" : !hal.buffer_view -> tensor<4x4xf32>
  %3 = iree_tensor_ext.compute_barrier.start %2 : tensor<4x4xf32> -> tensor<4x4xf32>
  %4 = tensor.empty() : tensor<4x4xf32>
  %5 = linalg.matmul ins(%1, %3 : tensor<4x4xf32>, tensor<4x4xf32>) outs(%4 : tensor<4x4xf32>) -> tensor<4x4xf32>
  %6 = linalg.generic {indexing_maps = [affine_map<(d0, d1) -> (d0, d1)>, affine_map<(d0, d1) -> (d0, d1)>], iterator_types = ["parallel", "parallel"]} ins(%5 : tensor<4x4xf32>) outs(%4 : tensor<4x4xf32>) {
  ^bb0(%in: f32, %out: f32):
    %9 = arith.maximumf %in, %cst : f32
    linalg.yield %9 : f32
  } -> tensor<4x4xf32>
  %7 = iree_tensor_ext.compute_barrier.end %6 : tensor<4x4xf32> -> tensor<4x4xf32>
  %8 = hal.tensor.export %7 "output0" : tensor<4x4xf32> -> !hal.buffer_view
  util.return %8 : !hal.buffer_view
}

// -----// IR Dump After FoldGlobalsPass (iree-util-fold-globals) //----- //
#executable_target_embedded_elf_arm_64 = #hal.executable.target<"llvm-cpu", "embedded-elf-arm_64", {cpu = "", cpu_features = "+reserve-x18", data_layout = "e-m:e-p270:32:32-p271:32:32-p272:64:64-i8:8:32-i16:16:32-i64:64-i128:128-n32:64-S128-Fn32", iree.encoding.resolver = #iree_cpu.cpu_encoding_resolver<>, max_stack_allocation_size = 32768 : i64, native_vector_size = 16 : i64, target_triple = "arm64-unknown-unknown-eabi-elf"}>
#map = affine_map<(d0, d1) -> (d0, d1)>
#device_target_local = #hal.device.target<"local", [#executable_target_embedded_elf_arm_64]> : !hal.device
module attributes {iree.fixedpoint.iteration = 0 : index, stream.affinity.default = #hal.device.affinity<@__device_0>} {
  util.global private @__device_0 = #device_target_local
  util.func public @matmul(%arg0: !hal.buffer_view, %arg1: !hal.buffer_view) -> !hal.buffer_view attributes {iree.abi.stub, iree.reflection = {iree.abi.declaration = "sync func @matmul(%input0: tensor<4x4xf32>, %input1: tensor<4x4xf32>) -> (%output0: tensor<4x4xf32>)"}} {
    %cst = arith.constant 0.000000e+00 : f32
    %0 = hal.tensor.import %arg0 "input0" : !hal.buffer_view -> tensor<4x4xf32>
    %1 = iree_tensor_ext.compute_barrier.start %0 : tensor<4x4xf32> -> tensor<4x4xf32>
    %2 = hal.tensor.import %arg1 "input1" : !hal.buffer_view -> tensor<4x4xf32>
    %3 = iree_tensor_ext.compute_barrier.start %2 : tensor<4x4xf32> -> tensor<4x4xf32>
    %4 = tensor.empty() : tensor<4x4xf32>
    %5 = linalg.matmul ins(%1, %3 : tensor<4x4xf32>, tensor<4x4xf32>) outs(%4 : tensor<4x4xf32>) -> tensor<4x4xf32>
    %6 = linalg.generic {indexing_maps = [#map, #map], iterator_types = ["parallel", "parallel"]} ins(%5 : tensor<4x4xf32>) outs(%4 : tensor<4x4xf32>) {
    ^bb0(%in: f32, %out: f32):
      %9 = arith.maximumf %in, %cst : f32
      linalg.yield %9 : f32
    } -> tensor<4x4xf32>
    %7 = iree_tensor_ext.compute_barrier.end %6 : tensor<4x4xf32> -> tensor<4x4xf32>
    %8 = hal.tensor.export %7 "output0" : tensor<4x4xf32> -> !hal.buffer_view
    util.return %8 : !hal.buffer_view
  }
}


// -----// IR Dump After FuseGlobalsPass (iree-util-fuse-globals) //----- //
#executable_target_embedded_elf_arm_64 = #hal.executable.target<"llvm-cpu", "embedded-elf-arm_64", {cpu = "", cpu_features = "+reserve-x18", data_layout = "e-m:e-p270:32:32-p271:32:32-p272:64:64-i8:8:32-i16:16:32-i64:64-i128:128-n32:64-S128-Fn32", iree.encoding.resolver = #iree_cpu.cpu_encoding_resolver<>, max_stack_allocation_size = 32768 : i64, native_vector_size = 16 : i64, target_triple = "arm64-unknown-unknown-eabi-elf"}>
#map = affine_map<(d0, d1) -> (d0, d1)>
#device_target_local = #hal.device.target<"local", [#executable_target_embedded_elf_arm_64]> : !hal.device
module attributes {iree.fixedpoint.iteration = 0 : index, stream.affinity.default = #hal.device.affinity<@__device_0>} {
  util.global private @__device_0 = #device_target_local
  util.func public @matmul(%arg0: !hal.buffer_view, %arg1: !hal.buffer_view) -> !hal.buffer_view attributes {iree.abi.stub, iree.reflection = {iree.abi.declaration = "sync func @matmul(%input0: tensor<4x4xf32>, %input1: tensor<4x4xf32>) -> (%output0: tensor<4x4xf32>)"}} {
    %cst = arith.constant 0.000000e+00 : f32
    %0 = hal.tensor.import %arg0 "input0" : !hal.buffer_view -> tensor<4x4xf32>
    %1 = iree_tensor_ext.compute_barrier.start %0 : tensor<4x4xf32> -> tensor<4x4xf32>
    %2 = hal.tensor.import %arg1 "input1" : !hal.buffer_view -> tensor<4x4xf32>
    %3 = iree_tensor_ext.compute_barrier.start %2 : tensor<4x4xf32> -> tensor<4x4xf32>
    %4 = tensor.empty() : tensor<4x4xf32>
    %5 = linalg.matmul ins(%1, %3 : tensor<4x4xf32>, tensor<4x4xf32>) outs(%4 : tensor<4x4xf32>) -> tensor<4x4xf32>
    %6 = linalg.generic {indexing_maps = [#map, #map], iterator_types = ["parallel", "parallel"]} ins(%5 : tensor<4x4xf32>) outs(%4 : tensor<4x4xf32>) {
    ^bb0(%in: f32, %out: f32):
      %9 = arith.maximumf %in, %cst : f32
      linalg.yield %9 : f32
    } -> tensor<4x4xf32>
    %7 = iree_tensor_ext.compute_barrier.end %6 : tensor<4x4xf32> -> tensor<4x4xf32>
    %8 = hal.tensor.export %7 "output0" : tensor<4x4xf32> -> !hal.buffer_view
    util.return %8 : !hal.buffer_view
  }
}


// -----// IR Dump After IPOPass (iree-util-ipo) //----- //
#executable_target_embedded_elf_arm_64 = #hal.executable.target<"llvm-cpu", "embedded-elf-arm_64", {cpu = "", cpu_features = "+reserve-x18", data_layout = "e-m:e-p270:32:32-p271:32:32-p272:64:64-i8:8:32-i16:16:32-i64:64-i128:128-n32:64-S128-Fn32", iree.encoding.resolver = #iree_cpu.cpu_encoding_resolver<>, max_stack_allocation_size = 32768 : i64, native_vector_size = 16 : i64, target_triple = "arm64-unknown-unknown-eabi-elf"}>
#map = affine_map<(d0, d1) -> (d0, d1)>
#device_target_local = #hal.device.target<"local", [#executable_target_embedded_elf_arm_64]> : !hal.device
module attributes {iree.fixedpoint.iteration = 0 : index, stream.affinity.default = #hal.device.affinity<@__device_0>} {
  util.global private @__device_0 = #device_target_local
  util.func public @matmul(%arg0: !hal.buffer_view, %arg1: !hal.buffer_view) -> !hal.buffer_view attributes {iree.abi.stub, iree.reflection = {iree.abi.declaration = "sync func @matmul(%input0: tensor<4x4xf32>, %input1: tensor<4x4xf32>) -> (%output0: tensor<4x4xf32>)"}} {
    %cst = arith.constant 0.000000e+00 : f32
    %0 = hal.tensor.import %arg0 "input0" : !hal.buffer_view -> tensor<4x4xf32>
    %1 = iree_tensor_ext.compute_barrier.start %0 : tensor<4x4xf32> -> tensor<4x4xf32>
    %2 = hal.tensor.import %arg1 "input1" : !hal.buffer_view -> tensor<4x4xf32>
    %3 = iree_tensor_ext.compute_barrier.start %2 : tensor<4x4xf32> -> tensor<4x4xf32>
    %4 = tensor.empty() : tensor<4x4xf32>
    %5 = linalg.matmul ins(%1, %3 : tensor<4x4xf32>, tensor<4x4xf32>) outs(%4 : tensor<4x4xf32>) -> tensor<4x4xf32>
    %6 = linalg.generic {indexing_maps = [#map, #map], iterator_types = ["parallel", "parallel"]} ins(%5 : tensor<4x4xf32>) outs(%4 : tensor<4x4xf32>) {
    ^bb0(%in: f32, %out: f32):
      %9 = arith.maximumf %in, %cst : f32
      linalg.yield %9 : f32
    } -> tensor<4x4xf32>
    %7 = iree_tensor_ext.compute_barrier.end %6 : tensor<4x4xf32> -> tensor<4x4xf32>
    %8 = hal.tensor.export %7 "output0" : tensor<4x4xf32> -> !hal.buffer_view
    util.return %8 : !hal.buffer_view
  }
}


// -----// IR Dump After FixedPointIteratorPass (iree-util-fixed-point-iterator) //----- //
#executable_target_embedded_elf_arm_64 = #hal.executable.target<"llvm-cpu", "embedded-elf-arm_64", {cpu = "", cpu_features = "+reserve-x18", data_layout = "e-m:e-p270:32:32-p271:32:32-p272:64:64-i8:8:32-i16:16:32-i64:64-i128:128-n32:64-S128-Fn32", iree.encoding.resolver = #iree_cpu.cpu_encoding_resolver<>, max_stack_allocation_size = 32768 : i64, native_vector_size = 16 : i64, target_triple = "arm64-unknown-unknown-eabi-elf"}>
#map = affine_map<(d0, d1) -> (d0, d1)>
#device_target_local = #hal.device.target<"local", [#executable_target_embedded_elf_arm_64]> : !hal.device
module attributes {stream.affinity.default = #hal.device.affinity<@__device_0>} {
  util.global private @__device_0 = #device_target_local
  util.func public @matmul(%arg0: !hal.buffer_view, %arg1: !hal.buffer_view) -> !hal.buffer_view attributes {iree.abi.stub, iree.reflection = {iree.abi.declaration = "sync func @matmul(%input0: tensor<4x4xf32>, %input1: tensor<4x4xf32>) -> (%output0: tensor<4x4xf32>)"}} {
    %cst = arith.constant 0.000000e+00 : f32
    %0 = hal.tensor.import %arg0 "input0" : !hal.buffer_view -> tensor<4x4xf32>
    %1 = iree_tensor_ext.compute_barrier.start %0 : tensor<4x4xf32> -> tensor<4x4xf32>
    %2 = hal.tensor.import %arg1 "input1" : !hal.buffer_view -> tensor<4x4xf32>
    %3 = iree_tensor_ext.compute_barrier.start %2 : tensor<4x4xf32> -> tensor<4x4xf32>
    %4 = tensor.empty() : tensor<4x4xf32>
    %5 = linalg.matmul ins(%1, %3 : tensor<4x4xf32>, tensor<4x4xf32>) outs(%4 : tensor<4x4xf32>) -> tensor<4x4xf32>
    %6 = linalg.generic {indexing_maps = [#map, #map], iterator_types = ["parallel", "parallel"]} ins(%5 : tensor<4x4xf32>) outs(%4 : tensor<4x4xf32>) {
    ^bb0(%in: f32, %out: f32):
      %9 = arith.maximumf %in, %cst : f32
      linalg.yield %9 : f32
    } -> tensor<4x4xf32>
    %7 = iree_tensor_ext.compute_barrier.end %6 : tensor<4x4xf32> -> tensor<4x4xf32>
    %8 = hal.tensor.export %7 "output0" : tensor<4x4xf32> -> !hal.buffer_view
    util.return %8 : !hal.buffer_view
  }
}


// -----// IR Dump After FusionPreprocessingPass (iree-dispatch-creation-fusion-preprocessing) //----- //
util.func public @matmul(%arg0: !hal.buffer_view, %arg1: !hal.buffer_view) -> !hal.buffer_view attributes {iree.abi.stub, iree.reflection = {iree.abi.declaration = "sync func @matmul(%input0: tensor<4x4xf32>, %input1: tensor<4x4xf32>) -> (%output0: tensor<4x4xf32>)"}} {
  %cst = arith.constant 0.000000e+00 : f32
  %0 = hal.tensor.import %arg0 "input0" : !hal.buffer_view -> tensor<4x4xf32>
  %1 = iree_tensor_ext.compute_barrier.start %0 : tensor<4x4xf32> -> tensor<4x4xf32>
  %2 = hal.tensor.import %arg1 "input1" : !hal.buffer_view -> tensor<4x4xf32>
  %3 = iree_tensor_ext.compute_barrier.start %2 : tensor<4x4xf32> -> tensor<4x4xf32>
  %4 = tensor.empty() : tensor<4x4xf32>
  %5 = linalg.matmul ins(%1, %3 : tensor<4x4xf32>, tensor<4x4xf32>) outs(%4 : tensor<4x4xf32>) -> tensor<4x4xf32>
  %6 = linalg.generic {indexing_maps = [affine_map<(d0, d1) -> (d0, d1)>, affine_map<(d0, d1) -> (d0, d1)>], iterator_types = ["parallel", "parallel"]} ins(%5 : tensor<4x4xf32>) outs(%4 : tensor<4x4xf32>) {
  ^bb0(%in: f32, %out: f32):
    %9 = arith.maximumf %in, %cst : f32
    linalg.yield %9 : f32
  } -> tensor<4x4xf32>
  %7 = iree_tensor_ext.compute_barrier.end %6 : tensor<4x4xf32> -> tensor<4x4xf32>
  %8 = hal.tensor.export %7 "output0" : tensor<4x4xf32> -> !hal.buffer_view
  util.return %8 : !hal.buffer_view
}

// -----// IR Dump After CanonicalizePass (iree-flow-canonicalize) //----- //
util.func public @matmul(%arg0: !hal.buffer_view, %arg1: !hal.buffer_view) -> !hal.buffer_view attributes {iree.abi.stub, iree.reflection = {iree.abi.declaration = "sync func @matmul(%input0: tensor<4x4xf32>, %input1: tensor<4x4xf32>) -> (%output0: tensor<4x4xf32>)"}} {
  %cst = arith.constant 0.000000e+00 : f32
  %0 = hal.tensor.import %arg0 "input0" : !hal.buffer_view -> tensor<4x4xf32>
  %1 = iree_tensor_ext.compute_barrier.start %0 : tensor<4x4xf32> -> tensor<4x4xf32>
  %2 = hal.tensor.import %arg1 "input1" : !hal.buffer_view -> tensor<4x4xf32>
  %3 = iree_tensor_ext.compute_barrier.start %2 : tensor<4x4xf32> -> tensor<4x4xf32>
  %4 = tensor.empty() : tensor<4x4xf32>
  %5 = linalg.matmul ins(%1, %3 : tensor<4x4xf32>, tensor<4x4xf32>) outs(%4 : tensor<4x4xf32>) -> tensor<4x4xf32>
  %6 = linalg.generic {indexing_maps = [affine_map<(d0, d1) -> (d0, d1)>, affine_map<(d0, d1) -> (d0, d1)>], iterator_types = ["parallel", "parallel"]} ins(%5 : tensor<4x4xf32>) outs(%4 : tensor<4x4xf32>) {
  ^bb0(%in: f32, %out: f32):
    %9 = arith.maximumf %in, %cst : f32
    linalg.yield %9 : f32
  } -> tensor<4x4xf32>
  %7 = iree_tensor_ext.compute_barrier.end %6 : tensor<4x4xf32> -> tensor<4x4xf32>
  %8 = hal.tensor.export %7 "output0" : tensor<4x4xf32> -> !hal.buffer_view
  util.return %8 : !hal.buffer_view
}

// -----// IR Dump After CSE (cse) //----- //
util.func public @matmul(%arg0: !hal.buffer_view, %arg1: !hal.buffer_view) -> !hal.buffer_view attributes {iree.abi.stub, iree.reflection = {iree.abi.declaration = "sync func @matmul(%input0: tensor<4x4xf32>, %input1: tensor<4x4xf32>) -> (%output0: tensor<4x4xf32>)"}} {
  %cst = arith.constant 0.000000e+00 : f32
  %0 = hal.tensor.import %arg0 "input0" : !hal.buffer_view -> tensor<4x4xf32>
  %1 = iree_tensor_ext.compute_barrier.start %0 : tensor<4x4xf32> -> tensor<4x4xf32>
  %2 = hal.tensor.import %arg1 "input1" : !hal.buffer_view -> tensor<4x4xf32>
  %3 = iree_tensor_ext.compute_barrier.start %2 : tensor<4x4xf32> -> tensor<4x4xf32>
  %4 = tensor.empty() : tensor<4x4xf32>
  %5 = linalg.matmul ins(%1, %3 : tensor<4x4xf32>, tensor<4x4xf32>) outs(%4 : tensor<4x4xf32>) -> tensor<4x4xf32>
  %6 = linalg.generic {indexing_maps = [affine_map<(d0, d1) -> (d0, d1)>, affine_map<(d0, d1) -> (d0, d1)>], iterator_types = ["parallel", "parallel"]} ins(%5 : tensor<4x4xf32>) outs(%4 : tensor<4x4xf32>) {
  ^bb0(%in: f32, %out: f32):
    %9 = arith.maximumf %in, %cst : f32
    linalg.yield %9 : f32
  } -> tensor<4x4xf32>
  %7 = iree_tensor_ext.compute_barrier.end %6 : tensor<4x4xf32> -> tensor<4x4xf32>
  %8 = hal.tensor.export %7 "output0" : tensor<4x4xf32> -> !hal.buffer_view
  util.return %8 : !hal.buffer_view
}

// -----// IR Dump After ElementwiseOpFusionPass (iree-dispatch-creation-elementwise-op-fusion) //----- //
util.func public @matmul(%arg0: !hal.buffer_view, %arg1: !hal.buffer_view) -> !hal.buffer_view attributes {iree.abi.stub, iree.reflection = {iree.abi.declaration = "sync func @matmul(%input0: tensor<4x4xf32>, %input1: tensor<4x4xf32>) -> (%output0: tensor<4x4xf32>)"}} {
  %cst = arith.constant 0.000000e+00 : f32
  %0 = hal.tensor.import %arg0 "input0" : !hal.buffer_view -> tensor<4x4xf32>
  %1 = iree_tensor_ext.compute_barrier.start %0 : tensor<4x4xf32> -> tensor<4x4xf32>
  %2 = hal.tensor.import %arg1 "input1" : !hal.buffer_view -> tensor<4x4xf32>
  %3 = iree_tensor_ext.compute_barrier.start %2 : tensor<4x4xf32> -> tensor<4x4xf32>
  %4 = tensor.empty() : tensor<4x4xf32>
  %5 = linalg.matmul ins(%1, %3 : tensor<4x4xf32>, tensor<4x4xf32>) outs(%4 : tensor<4x4xf32>) -> tensor<4x4xf32>
  %6 = linalg.generic {indexing_maps = [affine_map<(d0, d1) -> (d0, d1)>, affine_map<(d0, d1) -> (d0, d1)>], iterator_types = ["parallel", "parallel"]} ins(%5 : tensor<4x4xf32>) outs(%4 : tensor<4x4xf32>) {
  ^bb0(%in: f32, %out: f32):
    %9 = arith.maximumf %in, %cst : f32
    linalg.yield %9 : f32
  } -> tensor<4x4xf32>
  %7 = iree_tensor_ext.compute_barrier.end %6 : tensor<4x4xf32> -> tensor<4x4xf32>
  %8 = hal.tensor.export %7 "output0" : tensor<4x4xf32> -> !hal.buffer_view
  util.return %8 : !hal.buffer_view
}

// -----// IR Dump After CanonicalizePass (iree-flow-canonicalize) //----- //
util.func public @matmul(%arg0: !hal.buffer_view, %arg1: !hal.buffer_view) -> !hal.buffer_view attributes {iree.abi.stub, iree.reflection = {iree.abi.declaration = "sync func @matmul(%input0: tensor<4x4xf32>, %input1: tensor<4x4xf32>) -> (%output0: tensor<4x4xf32>)"}} {
  %cst = arith.constant 0.000000e+00 : f32
  %0 = hal.tensor.import %arg0 "input0" : !hal.buffer_view -> tensor<4x4xf32>
  %1 = iree_tensor_ext.compute_barrier.start %0 : tensor<4x4xf32> -> tensor<4x4xf32>
  %2 = hal.tensor.import %arg1 "input1" : !hal.buffer_view -> tensor<4x4xf32>
  %3 = iree_tensor_ext.compute_barrier.start %2 : tensor<4x4xf32> -> tensor<4x4xf32>
  %4 = tensor.empty() : tensor<4x4xf32>
  %5 = linalg.matmul ins(%1, %3 : tensor<4x4xf32>, tensor<4x4xf32>) outs(%4 : tensor<4x4xf32>) -> tensor<4x4xf32>
  %6 = linalg.generic {indexing_maps = [affine_map<(d0, d1) -> (d0, d1)>, affine_map<(d0, d1) -> (d0, d1)>], iterator_types = ["parallel", "parallel"]} ins(%5 : tensor<4x4xf32>) outs(%4 : tensor<4x4xf32>) {
  ^bb0(%in: f32, %out: f32):
    %9 = arith.maximumf %in, %cst : f32
    linalg.yield %9 : f32
  } -> tensor<4x4xf32>
  %7 = iree_tensor_ext.compute_barrier.end %6 : tensor<4x4xf32> -> tensor<4x4xf32>
  %8 = hal.tensor.export %7 "output0" : tensor<4x4xf32> -> !hal.buffer_view
  util.return %8 : !hal.buffer_view
}

// -----// IR Dump After CSE (cse) //----- //
util.func public @matmul(%arg0: !hal.buffer_view, %arg1: !hal.buffer_view) -> !hal.buffer_view attributes {iree.abi.stub, iree.reflection = {iree.abi.declaration = "sync func @matmul(%input0: tensor<4x4xf32>, %input1: tensor<4x4xf32>) -> (%output0: tensor<4x4xf32>)"}} {
  %cst = arith.constant 0.000000e+00 : f32
  %0 = hal.tensor.import %arg0 "input0" : !hal.buffer_view -> tensor<4x4xf32>
  %1 = iree_tensor_ext.compute_barrier.start %0 : tensor<4x4xf32> -> tensor<4x4xf32>
  %2 = hal.tensor.import %arg1 "input1" : !hal.buffer_view -> tensor<4x4xf32>
  %3 = iree_tensor_ext.compute_barrier.start %2 : tensor<4x4xf32> -> tensor<4x4xf32>
  %4 = tensor.empty() : tensor<4x4xf32>
  %5 = linalg.matmul ins(%1, %3 : tensor<4x4xf32>, tensor<4x4xf32>) outs(%4 : tensor<4x4xf32>) -> tensor<4x4xf32>
  %6 = linalg.generic {indexing_maps = [affine_map<(d0, d1) -> (d0, d1)>, affine_map<(d0, d1) -> (d0, d1)>], iterator_types = ["parallel", "parallel"]} ins(%5 : tensor<4x4xf32>) outs(%4 : tensor<4x4xf32>) {
  ^bb0(%in: f32, %out: f32):
    %9 = arith.maximumf %in, %cst : f32
    linalg.yield %9 : f32
  } -> tensor<4x4xf32>
  %7 = iree_tensor_ext.compute_barrier.end %6 : tensor<4x4xf32> -> tensor<4x4xf32>
  %8 = hal.tensor.export %7 "output0" : tensor<4x4xf32> -> !hal.buffer_view
  util.return %8 : !hal.buffer_view
}

// -----// IR Dump After FoldReshapesIntoTensorBarriersPass (iree-dispatch-creation-fold-reshapes-into-tensor-barriers) //----- //
util.func public @matmul(%arg0: !hal.buffer_view, %arg1: !hal.buffer_view) -> !hal.buffer_view attributes {iree.abi.stub, iree.reflection = {iree.abi.declaration = "sync func @matmul(%input0: tensor<4x4xf32>, %input1: tensor<4x4xf32>) -> (%output0: tensor<4x4xf32>)"}} {
  %cst = arith.constant 0.000000e+00 : f32
  %0 = hal.tensor.import %arg0 "input0" : !hal.buffer_view -> tensor<4x4xf32>
  %1 = iree_tensor_ext.compute_barrier.start %0 : tensor<4x4xf32> -> tensor<4x4xf32>
  %2 = hal.tensor.import %arg1 "input1" : !hal.buffer_view -> tensor<4x4xf32>
  %3 = iree_tensor_ext.compute_barrier.start %2 : tensor<4x4xf32> -> tensor<4x4xf32>
  %4 = tensor.empty() : tensor<4x4xf32>
  %5 = linalg.matmul ins(%1, %3 : tensor<4x4xf32>, tensor<4x4xf32>) outs(%4 : tensor<4x4xf32>) -> tensor<4x4xf32>
  %6 = linalg.generic {indexing_maps = [affine_map<(d0, d1) -> (d0, d1)>, affine_map<(d0, d1) -> (d0, d1)>], iterator_types = ["parallel", "parallel"]} ins(%5 : tensor<4x4xf32>) outs(%4 : tensor<4x4xf32>) {
  ^bb0(%in: f32, %out: f32):
    %9 = arith.maximumf %in, %cst : f32
    linalg.yield %9 : f32
  } -> tensor<4x4xf32>
  %7 = iree_tensor_ext.compute_barrier.end %6 : tensor<4x4xf32> -> tensor<4x4xf32>
  %8 = hal.tensor.export %7 "output0" : tensor<4x4xf32> -> !hal.buffer_view
  util.return %8 : !hal.buffer_view
}

// -----// IR Dump After BubbleUpExpandShapesPass (iree-dispatch-creation-bubble-up-expand-shapes) //----- //
util.func public @matmul(%arg0: !hal.buffer_view, %arg1: !hal.buffer_view) -> !hal.buffer_view attributes {iree.abi.stub, iree.reflection = {iree.abi.declaration = "sync func @matmul(%input0: tensor<4x4xf32>, %input1: tensor<4x4xf32>) -> (%output0: tensor<4x4xf32>)"}} {
  %cst = arith.constant 0.000000e+00 : f32
  %0 = hal.tensor.import %arg0 "input0" : !hal.buffer_view -> tensor<4x4xf32>
  %1 = iree_tensor_ext.compute_barrier.start %0 : tensor<4x4xf32> -> tensor<4x4xf32>
  %2 = hal.tensor.import %arg1 "input1" : !hal.buffer_view -> tensor<4x4xf32>
  %3 = iree_tensor_ext.compute_barrier.start %2 : tensor<4x4xf32> -> tensor<4x4xf32>
  %4 = tensor.empty() : tensor<4x4xf32>
  %5 = linalg.matmul ins(%1, %3 : tensor<4x4xf32>, tensor<4x4xf32>) outs(%4 : tensor<4x4xf32>) -> tensor<4x4xf32>
  %6 = linalg.generic {indexing_maps = [affine_map<(d0, d1) -> (d0, d1)>, affine_map<(d0, d1) -> (d0, d1)>], iterator_types = ["parallel", "parallel"]} ins(%5 : tensor<4x4xf32>) outs(%4 : tensor<4x4xf32>) {
  ^bb0(%in: f32, %out: f32):
    %9 = arith.maximumf %in, %cst : f32
    linalg.yield %9 : f32
  } -> tensor<4x4xf32>
  %7 = iree_tensor_ext.compute_barrier.end %6 : tensor<4x4xf32> -> tensor<4x4xf32>
  %8 = hal.tensor.export %7 "output0" : tensor<4x4xf32> -> !hal.buffer_view
  util.return %8 : !hal.buffer_view
}

// -----// IR Dump After CanonicalizePass (iree-flow-canonicalize) //----- //
util.func public @matmul(%arg0: !hal.buffer_view, %arg1: !hal.buffer_view) -> !hal.buffer_view attributes {iree.abi.stub, iree.reflection = {iree.abi.declaration = "sync func @matmul(%input0: tensor<4x4xf32>, %input1: tensor<4x4xf32>) -> (%output0: tensor<4x4xf32>)"}} {
  %cst = arith.constant 0.000000e+00 : f32
  %0 = hal.tensor.import %arg0 "input0" : !hal.buffer_view -> tensor<4x4xf32>
  %1 = iree_tensor_ext.compute_barrier.start %0 : tensor<4x4xf32> -> tensor<4x4xf32>
  %2 = hal.tensor.import %arg1 "input1" : !hal.buffer_view -> tensor<4x4xf32>
  %3 = iree_tensor_ext.compute_barrier.start %2 : tensor<4x4xf32> -> tensor<4x4xf32>
  %4 = tensor.empty() : tensor<4x4xf32>
  %5 = linalg.matmul ins(%1, %3 : tensor<4x4xf32>, tensor<4x4xf32>) outs(%4 : tensor<4x4xf32>) -> tensor<4x4xf32>
  %6 = linalg.generic {indexing_maps = [affine_map<(d0, d1) -> (d0, d1)>, affine_map<(d0, d1) -> (d0, d1)>], iterator_types = ["parallel", "parallel"]} ins(%5 : tensor<4x4xf32>) outs(%4 : tensor<4x4xf32>) {
  ^bb0(%in: f32, %out: f32):
    %9 = arith.maximumf %in, %cst : f32
    linalg.yield %9 : f32
  } -> tensor<4x4xf32>
  %7 = iree_tensor_ext.compute_barrier.end %6 : tensor<4x4xf32> -> tensor<4x4xf32>
  %8 = hal.tensor.export %7 "output0" : tensor<4x4xf32> -> !hal.buffer_view
  util.return %8 : !hal.buffer_view
}

// -----// IR Dump After CSE (cse) //----- //
util.func public @matmul(%arg0: !hal.buffer_view, %arg1: !hal.buffer_view) -> !hal.buffer_view attributes {iree.abi.stub, iree.reflection = {iree.abi.declaration = "sync func @matmul(%input0: tensor<4x4xf32>, %input1: tensor<4x4xf32>) -> (%output0: tensor<4x4xf32>)"}} {
  %cst = arith.constant 0.000000e+00 : f32
  %0 = hal.tensor.import %arg0 "input0" : !hal.buffer_view -> tensor<4x4xf32>
  %1 = iree_tensor_ext.compute_barrier.start %0 : tensor<4x4xf32> -> tensor<4x4xf32>
  %2 = hal.tensor.import %arg1 "input1" : !hal.buffer_view -> tensor<4x4xf32>
  %3 = iree_tensor_ext.compute_barrier.start %2 : tensor<4x4xf32> -> tensor<4x4xf32>
  %4 = tensor.empty() : tensor<4x4xf32>
  %5 = linalg.matmul ins(%1, %3 : tensor<4x4xf32>, tensor<4x4xf32>) outs(%4 : tensor<4x4xf32>) -> tensor<4x4xf32>
  %6 = linalg.generic {indexing_maps = [affine_map<(d0, d1) -> (d0, d1)>, affine_map<(d0, d1) -> (d0, d1)>], iterator_types = ["parallel", "parallel"]} ins(%5 : tensor<4x4xf32>) outs(%4 : tensor<4x4xf32>) {
  ^bb0(%in: f32, %out: f32):
    %9 = arith.maximumf %in, %cst : f32
    linalg.yield %9 : f32
  } -> tensor<4x4xf32>
  %7 = iree_tensor_ext.compute_barrier.end %6 : tensor<4x4xf32> -> tensor<4x4xf32>
  %8 = hal.tensor.export %7 "output0" : tensor<4x4xf32> -> !hal.buffer_view
  util.return %8 : !hal.buffer_view
}

// -----// IR Dump After ElementwiseOpFusionPass (iree-dispatch-creation-elementwise-op-fusion) //----- //
util.func public @matmul(%arg0: !hal.buffer_view, %arg1: !hal.buffer_view) -> !hal.buffer_view attributes {iree.abi.stub, iree.reflection = {iree.abi.declaration = "sync func @matmul(%input0: tensor<4x4xf32>, %input1: tensor<4x4xf32>) -> (%output0: tensor<4x4xf32>)"}} {
  %cst = arith.constant 0.000000e+00 : f32
  %0 = hal.tensor.import %arg0 "input0" : !hal.buffer_view -> tensor<4x4xf32>
  %1 = iree_tensor_ext.compute_barrier.start %0 : tensor<4x4xf32> -> tensor<4x4xf32>
  %2 = hal.tensor.import %arg1 "input1" : !hal.buffer_view -> tensor<4x4xf32>
  %3 = iree_tensor_ext.compute_barrier.start %2 : tensor<4x4xf32> -> tensor<4x4xf32>
  %4 = tensor.empty() : tensor<4x4xf32>
  %5 = linalg.matmul ins(%1, %3 : tensor<4x4xf32>, tensor<4x4xf32>) outs(%4 : tensor<4x4xf32>) -> tensor<4x4xf32>
  %6 = linalg.generic {indexing_maps = [affine_map<(d0, d1) -> (d0, d1)>, affine_map<(d0, d1) -> (d0, d1)>], iterator_types = ["parallel", "parallel"]} ins(%5 : tensor<4x4xf32>) outs(%4 : tensor<4x4xf32>) {
  ^bb0(%in: f32, %out: f32):
    %9 = arith.maximumf %in, %cst : f32
    linalg.yield %9 : f32
  } -> tensor<4x4xf32>
  %7 = iree_tensor_ext.compute_barrier.end %6 : tensor<4x4xf32> -> tensor<4x4xf32>
  %8 = hal.tensor.export %7 "output0" : tensor<4x4xf32> -> !hal.buffer_view
  util.return %8 : !hal.buffer_view
}

// -----// IR Dump After CanonicalizePass (iree-flow-canonicalize) //----- //
util.func public @matmul(%arg0: !hal.buffer_view, %arg1: !hal.buffer_view) -> !hal.buffer_view attributes {iree.abi.stub, iree.reflection = {iree.abi.declaration = "sync func @matmul(%input0: tensor<4x4xf32>, %input1: tensor<4x4xf32>) -> (%output0: tensor<4x4xf32>)"}} {
  %cst = arith.constant 0.000000e+00 : f32
  %0 = hal.tensor.import %arg0 "input0" : !hal.buffer_view -> tensor<4x4xf32>
  %1 = iree_tensor_ext.compute_barrier.start %0 : tensor<4x4xf32> -> tensor<4x4xf32>
  %2 = hal.tensor.import %arg1 "input1" : !hal.buffer_view -> tensor<4x4xf32>
  %3 = iree_tensor_ext.compute_barrier.start %2 : tensor<4x4xf32> -> tensor<4x4xf32>
  %4 = tensor.empty() : tensor<4x4xf32>
  %5 = linalg.matmul ins(%1, %3 : tensor<4x4xf32>, tensor<4x4xf32>) outs(%4 : tensor<4x4xf32>) -> tensor<4x4xf32>
  %6 = linalg.generic {indexing_maps = [affine_map<(d0, d1) -> (d0, d1)>, affine_map<(d0, d1) -> (d0, d1)>], iterator_types = ["parallel", "parallel"]} ins(%5 : tensor<4x4xf32>) outs(%4 : tensor<4x4xf32>) {
  ^bb0(%in: f32, %out: f32):
    %9 = arith.maximumf %in, %cst : f32
    linalg.yield %9 : f32
  } -> tensor<4x4xf32>
  %7 = iree_tensor_ext.compute_barrier.end %6 : tensor<4x4xf32> -> tensor<4x4xf32>
  %8 = hal.tensor.export %7 "output0" : tensor<4x4xf32> -> !hal.buffer_view
  util.return %8 : !hal.buffer_view
}

// -----// IR Dump After CSE (cse) //----- //
util.func public @matmul(%arg0: !hal.buffer_view, %arg1: !hal.buffer_view) -> !hal.buffer_view attributes {iree.abi.stub, iree.reflection = {iree.abi.declaration = "sync func @matmul(%input0: tensor<4x4xf32>, %input1: tensor<4x4xf32>) -> (%output0: tensor<4x4xf32>)"}} {
  %cst = arith.constant 0.000000e+00 : f32
  %0 = hal.tensor.import %arg0 "input0" : !hal.buffer_view -> tensor<4x4xf32>
  %1 = iree_tensor_ext.compute_barrier.start %0 : tensor<4x4xf32> -> tensor<4x4xf32>
  %2 = hal.tensor.import %arg1 "input1" : !hal.buffer_view -> tensor<4x4xf32>
  %3 = iree_tensor_ext.compute_barrier.start %2 : tensor<4x4xf32> -> tensor<4x4xf32>
  %4 = tensor.empty() : tensor<4x4xf32>
  %5 = linalg.matmul ins(%1, %3 : tensor<4x4xf32>, tensor<4x4xf32>) outs(%4 : tensor<4x4xf32>) -> tensor<4x4xf32>
  %6 = linalg.generic {indexing_maps = [affine_map<(d0, d1) -> (d0, d1)>, affine_map<(d0, d1) -> (d0, d1)>], iterator_types = ["parallel", "parallel"]} ins(%5 : tensor<4x4xf32>) outs(%4 : tensor<4x4xf32>) {
  ^bb0(%in: f32, %out: f32):
    %9 = arith.maximumf %in, %cst : f32
    linalg.yield %9 : f32
  } -> tensor<4x4xf32>
  %7 = iree_tensor_ext.compute_barrier.end %6 : tensor<4x4xf32> -> tensor<4x4xf32>
  %8 = hal.tensor.export %7 "output0" : tensor<4x4xf32> -> !hal.buffer_view
  util.return %8 : !hal.buffer_view
}

// -----// IR Dump After SinkReshapesPass (iree-dispatch-creation-sink-reshapes) //----- //
util.func public @matmul(%arg0: !hal.buffer_view, %arg1: !hal.buffer_view) -> !hal.buffer_view attributes {iree.abi.stub, iree.reflection = {iree.abi.declaration = "sync func @matmul(%input0: tensor<4x4xf32>, %input1: tensor<4x4xf32>) -> (%output0: tensor<4x4xf32>)"}} {
  %cst = arith.constant 0.000000e+00 : f32
  %0 = hal.tensor.import %arg0 "input0" : !hal.buffer_view -> tensor<4x4xf32>
  %1 = iree_tensor_ext.compute_barrier.start %0 : tensor<4x4xf32> -> tensor<4x4xf32>
  %2 = hal.tensor.import %arg1 "input1" : !hal.buffer_view -> tensor<4x4xf32>
  %3 = iree_tensor_ext.compute_barrier.start %2 : tensor<4x4xf32> -> tensor<4x4xf32>
  %4 = tensor.empty() : tensor<4x4xf32>
  %5 = linalg.matmul ins(%1, %3 : tensor<4x4xf32>, tensor<4x4xf32>) outs(%4 : tensor<4x4xf32>) -> tensor<4x4xf32>
  %6 = linalg.generic {indexing_maps = [affine_map<(d0, d1) -> (d0, d1)>, affine_map<(d0, d1) -> (d0, d1)>], iterator_types = ["parallel", "parallel"]} ins(%5 : tensor<4x4xf32>) outs(%4 : tensor<4x4xf32>) {
  ^bb0(%in: f32, %out: f32):
    %9 = arith.maximumf %in, %cst : f32
    linalg.yield %9 : f32
  } -> tensor<4x4xf32>
  %7 = iree_tensor_ext.compute_barrier.end %6 : tensor<4x4xf32> -> tensor<4x4xf32>
  %8 = hal.tensor.export %7 "output0" : tensor<4x4xf32> -> !hal.buffer_view
  util.return %8 : !hal.buffer_view
}

// -----// IR Dump After CanonicalizePass (iree-flow-canonicalize) //----- //
util.func public @matmul(%arg0: !hal.buffer_view, %arg1: !hal.buffer_view) -> !hal.buffer_view attributes {iree.abi.stub, iree.reflection = {iree.abi.declaration = "sync func @matmul(%input0: tensor<4x4xf32>, %input1: tensor<4x4xf32>) -> (%output0: tensor<4x4xf32>)"}} {
  %cst = arith.constant 0.000000e+00 : f32
  %0 = hal.tensor.import %arg0 "input0" : !hal.buffer_view -> tensor<4x4xf32>
  %1 = iree_tensor_ext.compute_barrier.start %0 : tensor<4x4xf32> -> tensor<4x4xf32>
  %2 = hal.tensor.import %arg1 "input1" : !hal.buffer_view -> tensor<4x4xf32>
  %3 = iree_tensor_ext.compute_barrier.start %2 : tensor<4x4xf32> -> tensor<4x4xf32>
  %4 = tensor.empty() : tensor<4x4xf32>
  %5 = linalg.matmul ins(%1, %3 : tensor<4x4xf32>, tensor<4x4xf32>) outs(%4 : tensor<4x4xf32>) -> tensor<4x4xf32>
  %6 = linalg.generic {indexing_maps = [affine_map<(d0, d1) -> (d0, d1)>, affine_map<(d0, d1) -> (d0, d1)>], iterator_types = ["parallel", "parallel"]} ins(%5 : tensor<4x4xf32>) outs(%4 : tensor<4x4xf32>) {
  ^bb0(%in: f32, %out: f32):
    %9 = arith.maximumf %in, %cst : f32
    linalg.yield %9 : f32
  } -> tensor<4x4xf32>
  %7 = iree_tensor_ext.compute_barrier.end %6 : tensor<4x4xf32> -> tensor<4x4xf32>
  %8 = hal.tensor.export %7 "output0" : tensor<4x4xf32> -> !hal.buffer_view
  util.return %8 : !hal.buffer_view
}

// -----// IR Dump After CSE (cse) //----- //
util.func public @matmul(%arg0: !hal.buffer_view, %arg1: !hal.buffer_view) -> !hal.buffer_view attributes {iree.abi.stub, iree.reflection = {iree.abi.declaration = "sync func @matmul(%input0: tensor<4x4xf32>, %input1: tensor<4x4xf32>) -> (%output0: tensor<4x4xf32>)"}} {
  %cst = arith.constant 0.000000e+00 : f32
  %0 = hal.tensor.import %arg0 "input0" : !hal.buffer_view -> tensor<4x4xf32>
  %1 = iree_tensor_ext.compute_barrier.start %0 : tensor<4x4xf32> -> tensor<4x4xf32>
  %2 = hal.tensor.import %arg1 "input1" : !hal.buffer_view -> tensor<4x4xf32>
  %3 = iree_tensor_ext.compute_barrier.start %2 : tensor<4x4xf32> -> tensor<4x4xf32>
  %4 = tensor.empty() : tensor<4x4xf32>
  %5 = linalg.matmul ins(%1, %3 : tensor<4x4xf32>, tensor<4x4xf32>) outs(%4 : tensor<4x4xf32>) -> tensor<4x4xf32>
  %6 = linalg.generic {indexing_maps = [affine_map<(d0, d1) -> (d0, d1)>, affine_map<(d0, d1) -> (d0, d1)>], iterator_types = ["parallel", "parallel"]} ins(%5 : tensor<4x4xf32>) outs(%4 : tensor<4x4xf32>) {
  ^bb0(%in: f32, %out: f32):
    %9 = arith.maximumf %in, %cst : f32
    linalg.yield %9 : f32
  } -> tensor<4x4xf32>
  %7 = iree_tensor_ext.compute_barrier.end %6 : tensor<4x4xf32> -> tensor<4x4xf32>
  %8 = hal.tensor.export %7 "output0" : tensor<4x4xf32> -> !hal.buffer_view
  util.return %8 : !hal.buffer_view
}

// -----// IR Dump After FuseMultiUseElementwiseProducerPass (iree-dispatch-creation-fuse-multi-use-elementwise-producer) //----- //
util.func public @matmul(%arg0: !hal.buffer_view, %arg1: !hal.buffer_view) -> !hal.buffer_view attributes {iree.abi.stub, iree.reflection = {iree.abi.declaration = "sync func @matmul(%input0: tensor<4x4xf32>, %input1: tensor<4x4xf32>) -> (%output0: tensor<4x4xf32>)"}} {
  %cst = arith.constant 0.000000e+00 : f32
  %0 = hal.tensor.import %arg0 "input0" : !hal.buffer_view -> tensor<4x4xf32>
  %1 = iree_tensor_ext.compute_barrier.start %0 : tensor<4x4xf32> -> tensor<4x4xf32>
  %2 = hal.tensor.import %arg1 "input1" : !hal.buffer_view -> tensor<4x4xf32>
  %3 = iree_tensor_ext.compute_barrier.start %2 : tensor<4x4xf32> -> tensor<4x4xf32>
  %4 = tensor.empty() : tensor<4x4xf32>
  %5 = linalg.matmul ins(%1, %3 : tensor<4x4xf32>, tensor<4x4xf32>) outs(%4 : tensor<4x4xf32>) -> tensor<4x4xf32>
  %6 = linalg.generic {indexing_maps = [affine_map<(d0, d1) -> (d0, d1)>, affine_map<(d0, d1) -> (d0, d1)>], iterator_types = ["parallel", "parallel"]} ins(%5 : tensor<4x4xf32>) outs(%4 : tensor<4x4xf32>) {
  ^bb0(%in: f32, %out: f32):
    %9 = arith.maximumf %in, %cst : f32
    linalg.yield %9 : f32
  } -> tensor<4x4xf32>
  %7 = iree_tensor_ext.compute_barrier.end %6 : tensor<4x4xf32> -> tensor<4x4xf32>
  %8 = hal.tensor.export %7 "output0" : tensor<4x4xf32> -> !hal.buffer_view
  util.return %8 : !hal.buffer_view
}

// -----// IR Dump After CanonicalizePass (iree-flow-canonicalize) //----- //
util.func public @matmul(%arg0: !hal.buffer_view, %arg1: !hal.buffer_view) -> !hal.buffer_view attributes {iree.abi.stub, iree.reflection = {iree.abi.declaration = "sync func @matmul(%input0: tensor<4x4xf32>, %input1: tensor<4x4xf32>) -> (%output0: tensor<4x4xf32>)"}} {
  %cst = arith.constant 0.000000e+00 : f32
  %0 = hal.tensor.import %arg0 "input0" : !hal.buffer_view -> tensor<4x4xf32>
  %1 = iree_tensor_ext.compute_barrier.start %0 : tensor<4x4xf32> -> tensor<4x4xf32>
  %2 = hal.tensor.import %arg1 "input1" : !hal.buffer_view -> tensor<4x4xf32>
  %3 = iree_tensor_ext.compute_barrier.start %2 : tensor<4x4xf32> -> tensor<4x4xf32>
  %4 = tensor.empty() : tensor<4x4xf32>
  %5 = linalg.matmul ins(%1, %3 : tensor<4x4xf32>, tensor<4x4xf32>) outs(%4 : tensor<4x4xf32>) -> tensor<4x4xf32>
  %6 = linalg.generic {indexing_maps = [affine_map<(d0, d1) -> (d0, d1)>, affine_map<(d0, d1) -> (d0, d1)>], iterator_types = ["parallel", "parallel"]} ins(%5 : tensor<4x4xf32>) outs(%4 : tensor<4x4xf32>) {
  ^bb0(%in: f32, %out: f32):
    %9 = arith.maximumf %in, %cst : f32
    linalg.yield %9 : f32
  } -> tensor<4x4xf32>
  %7 = iree_tensor_ext.compute_barrier.end %6 : tensor<4x4xf32> -> tensor<4x4xf32>
  %8 = hal.tensor.export %7 "output0" : tensor<4x4xf32> -> !hal.buffer_view
  util.return %8 : !hal.buffer_view
}

// -----// IR Dump After CSE (cse) //----- //
util.func public @matmul(%arg0: !hal.buffer_view, %arg1: !hal.buffer_view) -> !hal.buffer_view attributes {iree.abi.stub, iree.reflection = {iree.abi.declaration = "sync func @matmul(%input0: tensor<4x4xf32>, %input1: tensor<4x4xf32>) -> (%output0: tensor<4x4xf32>)"}} {
  %cst = arith.constant 0.000000e+00 : f32
  %0 = hal.tensor.import %arg0 "input0" : !hal.buffer_view -> tensor<4x4xf32>
  %1 = iree_tensor_ext.compute_barrier.start %0 : tensor<4x4xf32> -> tensor<4x4xf32>
  %2 = hal.tensor.import %arg1 "input1" : !hal.buffer_view -> tensor<4x4xf32>
  %3 = iree_tensor_ext.compute_barrier.start %2 : tensor<4x4xf32> -> tensor<4x4xf32>
  %4 = tensor.empty() : tensor<4x4xf32>
  %5 = linalg.matmul ins(%1, %3 : tensor<4x4xf32>, tensor<4x4xf32>) outs(%4 : tensor<4x4xf32>) -> tensor<4x4xf32>
  %6 = linalg.generic {indexing_maps = [affine_map<(d0, d1) -> (d0, d1)>, affine_map<(d0, d1) -> (d0, d1)>], iterator_types = ["parallel", "parallel"]} ins(%5 : tensor<4x4xf32>) outs(%4 : tensor<4x4xf32>) {
  ^bb0(%in: f32, %out: f32):
    %9 = arith.maximumf %in, %cst : f32
    linalg.yield %9 : f32
  } -> tensor<4x4xf32>
  %7 = iree_tensor_ext.compute_barrier.end %6 : tensor<4x4xf32> -> tensor<4x4xf32>
  %8 = hal.tensor.export %7 "output0" : tensor<4x4xf32> -> !hal.buffer_view
  util.return %8 : !hal.buffer_view
}

// -----// IR Dump After SplitReductionPass (iree-dispatch-creation-split-reduction-ops) //----- //
util.func public @matmul(%arg0: !hal.buffer_view, %arg1: !hal.buffer_view) -> !hal.buffer_view attributes {iree.abi.stub, iree.reflection = {iree.abi.declaration = "sync func @matmul(%input0: tensor<4x4xf32>, %input1: tensor<4x4xf32>) -> (%output0: tensor<4x4xf32>)"}} {
  %cst = arith.constant 0.000000e+00 : f32
  %0 = hal.tensor.import %arg0 "input0" : !hal.buffer_view -> tensor<4x4xf32>
  %1 = iree_tensor_ext.compute_barrier.start %0 : tensor<4x4xf32> -> tensor<4x4xf32>
  %2 = hal.tensor.import %arg1 "input1" : !hal.buffer_view -> tensor<4x4xf32>
  %3 = iree_tensor_ext.compute_barrier.start %2 : tensor<4x4xf32> -> tensor<4x4xf32>
  %4 = tensor.empty() : tensor<4x4xf32>
  %5 = linalg.matmul ins(%1, %3 : tensor<4x4xf32>, tensor<4x4xf32>) outs(%4 : tensor<4x4xf32>) -> tensor<4x4xf32>
  %6 = linalg.generic {indexing_maps = [affine_map<(d0, d1) -> (d0, d1)>, affine_map<(d0, d1) -> (d0, d1)>], iterator_types = ["parallel", "parallel"]} ins(%5 : tensor<4x4xf32>) outs(%4 : tensor<4x4xf32>) {
  ^bb0(%in: f32, %out: f32):
    %9 = arith.maximumf %in, %cst : f32
    linalg.yield %9 : f32
  } -> tensor<4x4xf32>
  %7 = iree_tensor_ext.compute_barrier.end %6 : tensor<4x4xf32> -> tensor<4x4xf32>
  %8 = hal.tensor.export %7 "output0" : tensor<4x4xf32> -> !hal.buffer_view
  util.return %8 : !hal.buffer_view
}

// -----// IR Dump After FormSplitReductionDispatchesPass (iree-dispatch-creation-form-split-reduction-dispatches) //----- //
util.func public @matmul(%arg0: !hal.buffer_view, %arg1: !hal.buffer_view) -> !hal.buffer_view attributes {iree.abi.stub, iree.reflection = {iree.abi.declaration = "sync func @matmul(%input0: tensor<4x4xf32>, %input1: tensor<4x4xf32>) -> (%output0: tensor<4x4xf32>)"}} {
  %cst = arith.constant 0.000000e+00 : f32
  %0 = hal.tensor.import %arg0 "input0" : !hal.buffer_view -> tensor<4x4xf32>
  %1 = iree_tensor_ext.compute_barrier.start %0 : tensor<4x4xf32> -> tensor<4x4xf32>
  %2 = hal.tensor.import %arg1 "input1" : !hal.buffer_view -> tensor<4x4xf32>
  %3 = iree_tensor_ext.compute_barrier.start %2 : tensor<4x4xf32> -> tensor<4x4xf32>
  %4 = tensor.empty() : tensor<4x4xf32>
  %5 = linalg.matmul ins(%1, %3 : tensor<4x4xf32>, tensor<4x4xf32>) outs(%4 : tensor<4x4xf32>) -> tensor<4x4xf32>
  %6 = linalg.generic {indexing_maps = [affine_map<(d0, d1) -> (d0, d1)>, affine_map<(d0, d1) -> (d0, d1)>], iterator_types = ["parallel", "parallel"]} ins(%5 : tensor<4x4xf32>) outs(%4 : tensor<4x4xf32>) {
  ^bb0(%in: f32, %out: f32):
    %9 = arith.maximumf %in, %cst : f32
    linalg.yield %9 : f32
  } -> tensor<4x4xf32>
  %7 = iree_tensor_ext.compute_barrier.end %6 : tensor<4x4xf32> -> tensor<4x4xf32>
  %8 = hal.tensor.export %7 "output0" : tensor<4x4xf32> -> !hal.buffer_view
  util.return %8 : !hal.buffer_view
}

// -----// IR Dump After TransposeGenericOpsPass (iree-dispatch-creation-transpose-generic-ops) //----- //
util.func public @matmul(%arg0: !hal.buffer_view, %arg1: !hal.buffer_view) -> !hal.buffer_view attributes {iree.abi.stub, iree.reflection = {iree.abi.declaration = "sync func @matmul(%input0: tensor<4x4xf32>, %input1: tensor<4x4xf32>) -> (%output0: tensor<4x4xf32>)"}} {
  %cst = arith.constant 0.000000e+00 : f32
  %0 = hal.tensor.import %arg0 "input0" : !hal.buffer_view -> tensor<4x4xf32>
  %1 = iree_tensor_ext.compute_barrier.start %0 : tensor<4x4xf32> -> tensor<4x4xf32>
  %2 = hal.tensor.import %arg1 "input1" : !hal.buffer_view -> tensor<4x4xf32>
  %3 = iree_tensor_ext.compute_barrier.start %2 : tensor<4x4xf32> -> tensor<4x4xf32>
  %4 = tensor.empty() : tensor<4x4xf32>
  %5 = linalg.matmul ins(%1, %3 : tensor<4x4xf32>, tensor<4x4xf32>) outs(%4 : tensor<4x4xf32>) -> tensor<4x4xf32>
  %6 = linalg.generic {indexing_maps = [affine_map<(d0, d1) -> (d0, d1)>, affine_map<(d0, d1) -> (d0, d1)>], iterator_types = ["parallel", "parallel"]} ins(%5 : tensor<4x4xf32>) outs(%4 : tensor<4x4xf32>) {
  ^bb0(%in: f32, %out: f32):
    %9 = arith.maximumf %in, %cst : f32
    linalg.yield %9 : f32
  } -> tensor<4x4xf32>
  %7 = iree_tensor_ext.compute_barrier.end %6 : tensor<4x4xf32> -> tensor<4x4xf32>
  %8 = hal.tensor.export %7 "output0" : tensor<4x4xf32> -> !hal.buffer_view
  util.return %8 : !hal.buffer_view
}

// -----// IR Dump After PropagateEncodingsPass (iree-dispatch-creation-propagate-encodings) //----- //
util.func public @matmul(%arg0: !hal.buffer_view, %arg1: !hal.buffer_view) -> !hal.buffer_view attributes {iree.abi.stub, iree.reflection = {iree.abi.declaration = "sync func @matmul(%input0: tensor<4x4xf32>, %input1: tensor<4x4xf32>) -> (%output0: tensor<4x4xf32>)"}} {
  %cst = arith.constant 0.000000e+00 : f32
  %0 = hal.tensor.import %arg0 "input0" : !hal.buffer_view -> tensor<4x4xf32>
  %1 = iree_tensor_ext.compute_barrier.start %0 : tensor<4x4xf32> -> tensor<4x4xf32>
  %2 = hal.tensor.import %arg1 "input1" : !hal.buffer_view -> tensor<4x4xf32>
  %3 = iree_tensor_ext.compute_barrier.start %2 : tensor<4x4xf32> -> tensor<4x4xf32>
  %4 = tensor.empty() : tensor<4x4xf32>
  %5 = linalg.matmul ins(%1, %3 : tensor<4x4xf32>, tensor<4x4xf32>) outs(%4 : tensor<4x4xf32>) -> tensor<4x4xf32>
  %6 = linalg.generic {indexing_maps = [affine_map<(d0, d1) -> (d0, d1)>, affine_map<(d0, d1) -> (d0, d1)>], iterator_types = ["parallel", "parallel"]} ins(%5 : tensor<4x4xf32>) outs(%4 : tensor<4x4xf32>) {
  ^bb0(%in: f32, %out: f32):
    %9 = arith.maximumf %in, %cst : f32
    linalg.yield %9 : f32
  } -> tensor<4x4xf32>
  %7 = iree_tensor_ext.compute_barrier.end %6 : tensor<4x4xf32> -> tensor<4x4xf32>
  %8 = hal.tensor.export %7 "output0" : tensor<4x4xf32> -> !hal.buffer_view
  util.return %8 : !hal.buffer_view
}

// -----// IR Dump After HoistIntoGlobalsPass (iree-util-hoist-into-globals) //----- //
#executable_target_embedded_elf_arm_64 = #hal.executable.target<"llvm-cpu", "embedded-elf-arm_64", {cpu = "", cpu_features = "+reserve-x18", data_layout = "e-m:e-p270:32:32-p271:32:32-p272:64:64-i8:8:32-i16:16:32-i64:64-i128:128-n32:64-S128-Fn32", iree.encoding.resolver = #iree_cpu.cpu_encoding_resolver<>, max_stack_allocation_size = 32768 : i64, native_vector_size = 16 : i64, target_triple = "arm64-unknown-unknown-eabi-elf"}>
#map = affine_map<(d0, d1) -> (d0, d1)>
#device_target_local = #hal.device.target<"local", [#executable_target_embedded_elf_arm_64]> : !hal.device
module attributes {stream.affinity.default = #hal.device.affinity<@__device_0>} {
  util.global private @__device_0 = #device_target_local
  util.func public @matmul(%arg0: !hal.buffer_view, %arg1: !hal.buffer_view) -> !hal.buffer_view attributes {iree.abi.stub, iree.reflection = {iree.abi.declaration = "sync func @matmul(%input0: tensor<4x4xf32>, %input1: tensor<4x4xf32>) -> (%output0: tensor<4x4xf32>)"}} {
    %cst = arith.constant 0.000000e+00 : f32
    %0 = hal.tensor.import %arg0 "input0" : !hal.buffer_view -> tensor<4x4xf32>
    %1 = iree_tensor_ext.compute_barrier.start %0 : tensor<4x4xf32> -> tensor<4x4xf32>
    %2 = hal.tensor.import %arg1 "input1" : !hal.buffer_view -> tensor<4x4xf32>
    %3 = iree_tensor_ext.compute_barrier.start %2 : tensor<4x4xf32> -> tensor<4x4xf32>
    %4 = tensor.empty() : tensor<4x4xf32>
    %5 = linalg.matmul ins(%1, %3 : tensor<4x4xf32>, tensor<4x4xf32>) outs(%4 : tensor<4x4xf32>) -> tensor<4x4xf32>
    %6 = linalg.generic {indexing_maps = [#map, #map], iterator_types = ["parallel", "parallel"]} ins(%5 : tensor<4x4xf32>) outs(%4 : tensor<4x4xf32>) {
    ^bb0(%in: f32, %out: f32):
      %9 = arith.maximumf %in, %cst : f32
      linalg.yield %9 : f32
    } -> tensor<4x4xf32>
    %7 = iree_tensor_ext.compute_barrier.end %6 : tensor<4x4xf32> -> tensor<4x4xf32>
    %8 = hal.tensor.export %7 "output0" : tensor<4x4xf32> -> !hal.buffer_view
    util.return %8 : !hal.buffer_view
  }
}


// -----// IR Dump After CanonicalizePass (iree-flow-canonicalize) //----- //
util.func public @matmul(%arg0: !hal.buffer_view, %arg1: !hal.buffer_view) -> !hal.buffer_view attributes {iree.abi.stub, iree.reflection = {iree.abi.declaration = "sync func @matmul(%input0: tensor<4x4xf32>, %input1: tensor<4x4xf32>) -> (%output0: tensor<4x4xf32>)"}} {
  %cst = arith.constant 0.000000e+00 : f32
  %0 = hal.tensor.import %arg0 "input0" : !hal.buffer_view -> tensor<4x4xf32>
  %1 = iree_tensor_ext.compute_barrier.start %0 : tensor<4x4xf32> -> tensor<4x4xf32>
  %2 = hal.tensor.import %arg1 "input1" : !hal.buffer_view -> tensor<4x4xf32>
  %3 = iree_tensor_ext.compute_barrier.start %2 : tensor<4x4xf32> -> tensor<4x4xf32>
  %4 = tensor.empty() : tensor<4x4xf32>
  %5 = linalg.matmul ins(%1, %3 : tensor<4x4xf32>, tensor<4x4xf32>) outs(%4 : tensor<4x4xf32>) -> tensor<4x4xf32>
  %6 = linalg.generic {indexing_maps = [affine_map<(d0, d1) -> (d0, d1)>, affine_map<(d0, d1) -> (d0, d1)>], iterator_types = ["parallel", "parallel"]} ins(%5 : tensor<4x4xf32>) outs(%4 : tensor<4x4xf32>) {
  ^bb0(%in: f32, %out: f32):
    %9 = arith.maximumf %in, %cst : f32
    linalg.yield %9 : f32
  } -> tensor<4x4xf32>
  %7 = iree_tensor_ext.compute_barrier.end %6 : tensor<4x4xf32> -> tensor<4x4xf32>
  %8 = hal.tensor.export %7 "output0" : tensor<4x4xf32> -> !hal.buffer_view
  util.return %8 : !hal.buffer_view
}

// -----// IR Dump After CSE (cse) //----- //
util.func public @matmul(%arg0: !hal.buffer_view, %arg1: !hal.buffer_view) -> !hal.buffer_view attributes {iree.abi.stub, iree.reflection = {iree.abi.declaration = "sync func @matmul(%input0: tensor<4x4xf32>, %input1: tensor<4x4xf32>) -> (%output0: tensor<4x4xf32>)"}} {
  %cst = arith.constant 0.000000e+00 : f32
  %0 = hal.tensor.import %arg0 "input0" : !hal.buffer_view -> tensor<4x4xf32>
  %1 = iree_tensor_ext.compute_barrier.start %0 : tensor<4x4xf32> -> tensor<4x4xf32>
  %2 = hal.tensor.import %arg1 "input1" : !hal.buffer_view -> tensor<4x4xf32>
  %3 = iree_tensor_ext.compute_barrier.start %2 : tensor<4x4xf32> -> tensor<4x4xf32>
  %4 = tensor.empty() : tensor<4x4xf32>
  %5 = linalg.matmul ins(%1, %3 : tensor<4x4xf32>, tensor<4x4xf32>) outs(%4 : tensor<4x4xf32>) -> tensor<4x4xf32>
  %6 = linalg.generic {indexing_maps = [affine_map<(d0, d1) -> (d0, d1)>, affine_map<(d0, d1) -> (d0, d1)>], iterator_types = ["parallel", "parallel"]} ins(%5 : tensor<4x4xf32>) outs(%4 : tensor<4x4xf32>) {
  ^bb0(%in: f32, %out: f32):
    %9 = arith.maximumf %in, %cst : f32
    linalg.yield %9 : f32
  } -> tensor<4x4xf32>
  %7 = iree_tensor_ext.compute_barrier.end %6 : tensor<4x4xf32> -> tensor<4x4xf32>
  %8 = hal.tensor.export %7 "output0" : tensor<4x4xf32> -> !hal.buffer_view
  util.return %8 : !hal.buffer_view
}

// -----// IR Dump After FormScalarDispatchesPass (iree-dispatch-creation-form-scalar-dispatches) //----- //
util.func public @matmul(%arg0: !hal.buffer_view, %arg1: !hal.buffer_view) -> !hal.buffer_view attributes {iree.abi.stub, iree.reflection = {iree.abi.declaration = "sync func @matmul(%input0: tensor<4x4xf32>, %input1: tensor<4x4xf32>) -> (%output0: tensor<4x4xf32>)"}} {
  %cst = arith.constant 0.000000e+00 : f32
  %0 = hal.tensor.import %arg0 "input0" : !hal.buffer_view -> tensor<4x4xf32>
  %1 = iree_tensor_ext.compute_barrier.start %0 : tensor<4x4xf32> -> tensor<4x4xf32>
  %2 = hal.tensor.import %arg1 "input1" : !hal.buffer_view -> tensor<4x4xf32>
  %3 = iree_tensor_ext.compute_barrier.start %2 : tensor<4x4xf32> -> tensor<4x4xf32>
  %4 = tensor.empty() : tensor<4x4xf32>
  %5 = linalg.matmul ins(%1, %3 : tensor<4x4xf32>, tensor<4x4xf32>) outs(%4 : tensor<4x4xf32>) -> tensor<4x4xf32>
  %6 = linalg.generic {indexing_maps = [affine_map<(d0, d1) -> (d0, d1)>, affine_map<(d0, d1) -> (d0, d1)>], iterator_types = ["parallel", "parallel"]} ins(%5 : tensor<4x4xf32>) outs(%4 : tensor<4x4xf32>) {
  ^bb0(%in: f32, %out: f32):
    %9 = arith.maximumf %in, %cst : f32
    linalg.yield %9 : f32
  } -> tensor<4x4xf32>
  %7 = iree_tensor_ext.compute_barrier.end %6 : tensor<4x4xf32> -> tensor<4x4xf32>
  %8 = hal.tensor.export %7 "output0" : tensor<4x4xf32> -> !hal.buffer_view
  util.return %8 : !hal.buffer_view
}

// -----// IR Dump After FormDispatchRegionsPass (iree-dispatch-creation-form-dispatch-regions) //----- //
util.func public @matmul(%arg0: !hal.buffer_view, %arg1: !hal.buffer_view) -> !hal.buffer_view attributes {iree.abi.stub, iree.reflection = {iree.abi.declaration = "sync func @matmul(%input0: tensor<4x4xf32>, %input1: tensor<4x4xf32>) -> (%output0: tensor<4x4xf32>)"}} {
  %cst = arith.constant 0.000000e+00 : f32
  %0 = hal.tensor.import %arg0 "input0" : !hal.buffer_view -> tensor<4x4xf32>
  %1 = iree_tensor_ext.compute_barrier.start %0 : tensor<4x4xf32> -> tensor<4x4xf32>
  %2 = hal.tensor.import %arg1 "input1" : !hal.buffer_view -> tensor<4x4xf32>
  %3 = iree_tensor_ext.compute_barrier.start %2 : tensor<4x4xf32> -> tensor<4x4xf32>
  %4 = tensor.empty() : tensor<4x4xf32>
  %5 = flow.dispatch.region -> (tensor<4x4xf32>) {
    %8 = linalg.matmul ins(%1, %3 : tensor<4x4xf32>, tensor<4x4xf32>) outs(%4 : tensor<4x4xf32>) -> tensor<4x4xf32>
    %9 = linalg.generic {indexing_maps = [affine_map<(d0, d1) -> (d0, d1)>, affine_map<(d0, d1) -> (d0, d1)>], iterator_types = ["parallel", "parallel"]} ins(%8 : tensor<4x4xf32>) outs(%4 : tensor<4x4xf32>) {
    ^bb0(%in: f32, %out: f32):
      %10 = arith.maximumf %in, %cst : f32
      linalg.yield %10 : f32
    } -> tensor<4x4xf32>
    flow.return %9 : tensor<4x4xf32>
  }
  %6 = iree_tensor_ext.compute_barrier.end %5 : tensor<4x4xf32> -> tensor<4x4xf32>
  %7 = hal.tensor.export %6 "output0" : tensor<4x4xf32> -> !hal.buffer_view
  util.return %7 : !hal.buffer_view
}

// -----// IR Dump After ElementwiseOpFusionPass (iree-dispatch-creation-elementwise-op-fusion) //----- //
util.func public @matmul(%arg0: !hal.buffer_view, %arg1: !hal.buffer_view) -> !hal.buffer_view attributes {iree.abi.stub, iree.reflection = {iree.abi.declaration = "sync func @matmul(%input0: tensor<4x4xf32>, %input1: tensor<4x4xf32>) -> (%output0: tensor<4x4xf32>)"}} {
  %cst = arith.constant 0.000000e+00 : f32
  %0 = hal.tensor.import %arg0 "input0" : !hal.buffer_view -> tensor<4x4xf32>
  %1 = iree_tensor_ext.compute_barrier.start %0 : tensor<4x4xf32> -> tensor<4x4xf32>
  %2 = hal.tensor.import %arg1 "input1" : !hal.buffer_view -> tensor<4x4xf32>
  %3 = iree_tensor_ext.compute_barrier.start %2 : tensor<4x4xf32> -> tensor<4x4xf32>
  %4 = tensor.empty() : tensor<4x4xf32>
  %5 = flow.dispatch.region -> (tensor<4x4xf32>) {
    %8 = linalg.matmul ins(%1, %3 : tensor<4x4xf32>, tensor<4x4xf32>) outs(%4 : tensor<4x4xf32>) -> tensor<4x4xf32>
    %9 = linalg.generic {indexing_maps = [affine_map<(d0, d1) -> (d0, d1)>, affine_map<(d0, d1) -> (d0, d1)>], iterator_types = ["parallel", "parallel"]} ins(%8 : tensor<4x4xf32>) outs(%4 : tensor<4x4xf32>) {
    ^bb0(%in: f32, %out: f32):
      %10 = arith.maximumf %in, %cst : f32
      linalg.yield %10 : f32
    } -> tensor<4x4xf32>
    flow.return %9 : tensor<4x4xf32>
  }
  %6 = iree_tensor_ext.compute_barrier.end %5 : tensor<4x4xf32> -> tensor<4x4xf32>
  %7 = hal.tensor.export %6 "output0" : tensor<4x4xf32> -> !hal.buffer_view
  util.return %7 : !hal.buffer_view
}

// -----// IR Dump After FuseMultiUseElementwiseProducerPass (iree-dispatch-creation-fuse-multi-use-elementwise-producer) //----- //
util.func public @matmul(%arg0: !hal.buffer_view, %arg1: !hal.buffer_view) -> !hal.buffer_view attributes {iree.abi.stub, iree.reflection = {iree.abi.declaration = "sync func @matmul(%input0: tensor<4x4xf32>, %input1: tensor<4x4xf32>) -> (%output0: tensor<4x4xf32>)"}} {
  %cst = arith.constant 0.000000e+00 : f32
  %0 = hal.tensor.import %arg0 "input0" : !hal.buffer_view -> tensor<4x4xf32>
  %1 = iree_tensor_ext.compute_barrier.start %0 : tensor<4x4xf32> -> tensor<4x4xf32>
  %2 = hal.tensor.import %arg1 "input1" : !hal.buffer_view -> tensor<4x4xf32>
  %3 = iree_tensor_ext.compute_barrier.start %2 : tensor<4x4xf32> -> tensor<4x4xf32>
  %4 = tensor.empty() : tensor<4x4xf32>
  %5 = flow.dispatch.region -> (tensor<4x4xf32>) {
    %8 = linalg.matmul ins(%1, %3 : tensor<4x4xf32>, tensor<4x4xf32>) outs(%4 : tensor<4x4xf32>) -> tensor<4x4xf32>
    %9 = linalg.generic {indexing_maps = [affine_map<(d0, d1) -> (d0, d1)>, affine_map<(d0, d1) -> (d0, d1)>], iterator_types = ["parallel", "parallel"]} ins(%8 : tensor<4x4xf32>) outs(%4 : tensor<4x4xf32>) {
    ^bb0(%in: f32, %out: f32):
      %10 = arith.maximumf %in, %cst : f32
      linalg.yield %10 : f32
    } -> tensor<4x4xf32>
    flow.return %9 : tensor<4x4xf32>
  }
  %6 = iree_tensor_ext.compute_barrier.end %5 : tensor<4x4xf32> -> tensor<4x4xf32>
  %7 = hal.tensor.export %6 "output0" : tensor<4x4xf32> -> !hal.buffer_view
  util.return %7 : !hal.buffer_view
}

// -----// IR Dump After CloneProducersIntoDispatchRegionsPass (iree-dispatch-creation-clone-producers-into-dispatch-regions) //----- //
util.func public @matmul(%arg0: !hal.buffer_view, %arg1: !hal.buffer_view) -> !hal.buffer_view attributes {iree.abi.stub, iree.reflection = {iree.abi.declaration = "sync func @matmul(%input0: tensor<4x4xf32>, %input1: tensor<4x4xf32>) -> (%output0: tensor<4x4xf32>)"}} {
  %0 = hal.tensor.import %arg0 "input0" : !hal.buffer_view -> tensor<4x4xf32>
  %1 = iree_tensor_ext.compute_barrier.start %0 : tensor<4x4xf32> -> tensor<4x4xf32>
  %2 = hal.tensor.import %arg1 "input1" : !hal.buffer_view -> tensor<4x4xf32>
  %3 = iree_tensor_ext.compute_barrier.start %2 : tensor<4x4xf32> -> tensor<4x4xf32>
  %4 = flow.dispatch.region -> (tensor<4x4xf32>) {
    %cst = arith.constant 0.000000e+00 : f32
    %7 = tensor.empty() : tensor<4x4xf32>
    %8 = linalg.matmul ins(%1, %3 : tensor<4x4xf32>, tensor<4x4xf32>) outs(%7 : tensor<4x4xf32>) -> tensor<4x4xf32>
    %9 = linalg.generic {indexing_maps = [affine_map<(d0, d1) -> (d0, d1)>, affine_map<(d0, d1) -> (d0, d1)>], iterator_types = ["parallel", "parallel"]} ins(%8 : tensor<4x4xf32>) outs(%7 : tensor<4x4xf32>) {
    ^bb0(%in: f32, %out: f32):
      %10 = arith.maximumf %in, %cst : f32
      linalg.yield %10 : f32
    } -> tensor<4x4xf32>
    flow.return %9 : tensor<4x4xf32>
  }
  %5 = iree_tensor_ext.compute_barrier.end %4 : tensor<4x4xf32> -> tensor<4x4xf32>
  %6 = hal.tensor.export %5 "output0" : tensor<4x4xf32> -> !hal.buffer_view
  util.return %6 : !hal.buffer_view
}

// -----// IR Dump After CollapseDimensionsPass (iree-dispatch-creation-collapse-dimensions) //----- //
util.func public @matmul(%arg0: !hal.buffer_view, %arg1: !hal.buffer_view) -> !hal.buffer_view attributes {iree.abi.stub, iree.reflection = {iree.abi.declaration = "sync func @matmul(%input0: tensor<4x4xf32>, %input1: tensor<4x4xf32>) -> (%output0: tensor<4x4xf32>)"}} {
  %0 = hal.tensor.import %arg0 "input0" : !hal.buffer_view -> tensor<4x4xf32>
  %1 = iree_tensor_ext.compute_barrier.start %0 : tensor<4x4xf32> -> tensor<4x4xf32>
  %2 = hal.tensor.import %arg1 "input1" : !hal.buffer_view -> tensor<4x4xf32>
  %3 = iree_tensor_ext.compute_barrier.start %2 : tensor<4x4xf32> -> tensor<4x4xf32>
  %4 = flow.dispatch.region -> (tensor<4x4xf32>) {
    %cst = arith.constant 0.000000e+00 : f32
    %7 = tensor.empty() : tensor<4x4xf32>
    %8 = linalg.matmul ins(%1, %3 : tensor<4x4xf32>, tensor<4x4xf32>) outs(%7 : tensor<4x4xf32>) -> tensor<4x4xf32>
    %9 = linalg.generic {indexing_maps = [affine_map<(d0, d1) -> (d0, d1)>, affine_map<(d0, d1) -> (d0, d1)>], iterator_types = ["parallel", "parallel"]} ins(%8 : tensor<4x4xf32>) outs(%7 : tensor<4x4xf32>) {
    ^bb0(%in: f32, %out: f32):
      %10 = arith.maximumf %in, %cst : f32
      linalg.yield %10 : f32
    } -> tensor<4x4xf32>
    flow.return %9 : tensor<4x4xf32>
  }
  %5 = iree_tensor_ext.compute_barrier.end %4 : tensor<4x4xf32> -> tensor<4x4xf32>
  %6 = hal.tensor.export %5 "output0" : tensor<4x4xf32> -> !hal.buffer_view
  util.return %6 : !hal.buffer_view
}

// -----// IR Dump After HoistUniformScalarComputePass (iree-dispatch-creation-hoist-uniform-scalar-compute) //----- //
util.func public @matmul(%arg0: !hal.buffer_view, %arg1: !hal.buffer_view) -> !hal.buffer_view attributes {iree.abi.stub, iree.reflection = {iree.abi.declaration = "sync func @matmul(%input0: tensor<4x4xf32>, %input1: tensor<4x4xf32>) -> (%output0: tensor<4x4xf32>)"}} {
  %0 = hal.tensor.import %arg0 "input0" : !hal.buffer_view -> tensor<4x4xf32>
  %1 = iree_tensor_ext.compute_barrier.start %0 : tensor<4x4xf32> -> tensor<4x4xf32>
  %2 = hal.tensor.import %arg1 "input1" : !hal.buffer_view -> tensor<4x4xf32>
  %3 = iree_tensor_ext.compute_barrier.start %2 : tensor<4x4xf32> -> tensor<4x4xf32>
  %4 = flow.dispatch.region -> (tensor<4x4xf32>) {
    %cst = arith.constant 0.000000e+00 : f32
    %7 = tensor.empty() : tensor<4x4xf32>
    %8 = linalg.matmul ins(%1, %3 : tensor<4x4xf32>, tensor<4x4xf32>) outs(%7 : tensor<4x4xf32>) -> tensor<4x4xf32>
    %9 = linalg.generic {indexing_maps = [affine_map<(d0, d1) -> (d0, d1)>, affine_map<(d0, d1) -> (d0, d1)>], iterator_types = ["parallel", "parallel"]} ins(%8 : tensor<4x4xf32>) outs(%7 : tensor<4x4xf32>) {
    ^bb0(%in: f32, %out: f32):
      %10 = arith.maximumf %in, %cst : f32
      linalg.yield %10 : f32
    } -> tensor<4x4xf32>
    flow.return %9 : tensor<4x4xf32>
  }
  %5 = iree_tensor_ext.compute_barrier.end %4 : tensor<4x4xf32> -> tensor<4x4xf32>
  %6 = hal.tensor.export %5 "output0" : tensor<4x4xf32> -> !hal.buffer_view
  util.return %6 : !hal.buffer_view
}

// -----// IR Dump After FuseEncodingOpsIntoDispatchRegionsPass (iree-dispatch-creation-fuse-encoding-ops-into-dispatch-regions-pass) //----- //
util.func public @matmul(%arg0: !hal.buffer_view, %arg1: !hal.buffer_view) -> !hal.buffer_view attributes {iree.abi.stub, iree.reflection = {iree.abi.declaration = "sync func @matmul(%input0: tensor<4x4xf32>, %input1: tensor<4x4xf32>) -> (%output0: tensor<4x4xf32>)"}} {
  %0 = hal.tensor.import %arg0 "input0" : !hal.buffer_view -> tensor<4x4xf32>
  %1 = iree_tensor_ext.compute_barrier.start %0 : tensor<4x4xf32> -> tensor<4x4xf32>
  %2 = hal.tensor.import %arg1 "input1" : !hal.buffer_view -> tensor<4x4xf32>
  %3 = iree_tensor_ext.compute_barrier.start %2 : tensor<4x4xf32> -> tensor<4x4xf32>
  %4 = flow.dispatch.region -> (tensor<4x4xf32>) {
    %cst = arith.constant 0.000000e+00 : f32
    %7 = tensor.empty() : tensor<4x4xf32>
    %8 = linalg.matmul ins(%1, %3 : tensor<4x4xf32>, tensor<4x4xf32>) outs(%7 : tensor<4x4xf32>) -> tensor<4x4xf32>
    %9 = linalg.generic {indexing_maps = [affine_map<(d0, d1) -> (d0, d1)>, affine_map<(d0, d1) -> (d0, d1)>], iterator_types = ["parallel", "parallel"]} ins(%8 : tensor<4x4xf32>) outs(%7 : tensor<4x4xf32>) {
    ^bb0(%in: f32, %out: f32):
      %10 = arith.maximumf %in, %cst : f32
      linalg.yield %10 : f32
    } -> tensor<4x4xf32>
    flow.return %9 : tensor<4x4xf32>
  }
  %5 = iree_tensor_ext.compute_barrier.end %4 : tensor<4x4xf32> -> tensor<4x4xf32>
  %6 = hal.tensor.export %5 "output0" : tensor<4x4xf32> -> !hal.buffer_view
  util.return %6 : !hal.buffer_view
}

// -----// IR Dump After ConvertEncodingToFlowPass (iree-dispatch-creation-convert-encoding-to-flow) //----- //
…
  %c0 = arith.constant 0 : index
  %c3 = arith.constant 3 : index
  %c-1_i64 = arith.constant -1 : i64
  %cmd = hal.command_buffer.create device(%__device_0 : !hal.device) mode("None") categories("Transfer|Dispatch") affinity(%c-1_i64) bindings(%c3) : !hal.command_buffer
  hal.command_buffer.dispatch<%cmd : !hal.command_buffer> target(%__device_0_executable_0_matmul_dispatch_0 : !hal.executable)[%c0] workgroups([%c1, %c1, %c1]) bindings([
    (%c0 : index)[%c0, %c64], 
    (%c1 : index)[%c0, %c64], 
    (%c2 : index)[%c0, %c64]
  ]) flags("None")
  hal.command_buffer.execution_barrier<%cmd : !hal.command_buffer> source("Dispatch|Transfer|CommandRetire") target("CommandIssue|Dispatch|Transfer") flags("None")
  hal.command_buffer.finalize<%cmd : !hal.command_buffer>
  util.return %cmd : !hal.command_buffer
}

// -----// IR Dump After SimplifyGlobalAccessesPass (iree-util-simplify-global-accesses) //----- //
util.initializer {
  %c18_i32 = arith.constant 18 : i32
  %false = arith.constant false
  %c0 = arith.constant 0 : index
  %c1 = arith.constant 1 : index
  %0 = util.null : !hal.device
  %device_count = hal.devices.count : index
  cf.br ^bb1(%c0, %c0, %0 : index, index, !hal.device)
^bb1(%1: index, %2: index, %3: !hal.device):  // 2 preds: ^bb0, ^bb4
  %4 = util.cmp.eq %3, %0 : !hal.device
  %5 = arith.cmpi slt, %1, %device_count : index
  %6 = arith.andi %4, %5 : i1
  cf.cond_br %6, ^bb2, ^bb5
^bb2:  // pred: ^bb1
  %device_n = hal.devices.get %1 : !hal.device
  %ok, %value = hal.device.query<%device_n : !hal.device> key("hal.device.id" :: "local*") : i1, i1 = false
  cf.cond_br %value, ^bb3, ^bb4(%false : i1)
^bb3:  // pred: ^bb2
  %ok_0, %value_1 = hal.device.query<%device_n : !hal.device> key("hal.executable.format" :: "embedded-elf-arm_64") : i1, i1 = false
  cf.br ^bb4(%value_1 : i1)
^bb4(%7: i1):  // 2 preds: ^bb2, ^bb3
  %8 = arith.cmpi eq, %2, %c0 : index
  %9 = arith.select %7, %c1, %c0 : index
  %10 = arith.addi %2, %9 : index
  %11 = arith.andi %7, %8 : i1
  %12 = arith.select %11, %device_n, %0 : !hal.device
  %13 = arith.addi %1, %c1 : index
  cf.br ^bb1(%13, %10, %12 : index, index, !hal.device)
^bb5:  // pred: ^bb1
  cf.cond_br %4, ^bb6, ^bb7
^bb6:  // pred: ^bb5
  util.status.check_ok %c18_i32, "HAL device `__device_0` not found or unavailable: #hal.device.target<\22local\22, [#hal.executable.target<\22llvm-cpu\22, \22embedded-elf-arm_64\22, {cpu = \22\22, cpu_features = \22+reserve-x18\22, data_layout = \22e-m:e-p270:32:32-p271:32:32-p272:64:64-i8:8:32-i16:16:32-i64:64-i128:128-n32:64-S128-Fn32\22, iree.encoding.resolver = #iree_cpu.cpu_encoding_resolver<>, max_stack_allocation_size = 32768 : i64, native_vector_size = 16 : i64, target_triple = \22arm64-unknown-unknown-eabi-elf\22}>]>"
  cf.br ^bb7
^bb7:  // 2 preds: ^bb5, ^bb6
  util.global.store %3, @__device_0 : !hal.device
  util.return
}

// -----// IR Dump After ApplyPatternsPass (iree-util-apply-patterns) //----- //
util.func public @matmul(%arg0: !hal.buffer_view, %arg1: !hal.buffer_view) -> !hal.buffer_view attributes {iree.abi.stub, iree.reflection = {iree.abi.declaration = "sync func @matmul(%input0: tensor<4x4xf32>, %input1: tensor<4x4xf32>) -> (%output0: tensor<4x4xf32>)"}} {
  %c-1_i32 = arith.constant -1 : i32
  %c0_i64 = arith.constant 0 : i64
  %0 = util.null : !hal.fence
  %c-1_i64 = arith.constant -1 : i64
  %c0 = arith.constant 0 : index
  %c64 = arith.constant 64 : index
  %c4 = arith.constant 4 : index
  %memory_type = hal.memory_type<"DeviceVisible|DeviceLocal"> : i32
  %buffer_usage = hal.buffer_usage<"TransferSource|TransferTarget|Transfer|DispatchStorageRead|DispatchStorageWrite|DispatchStorage"> : i32
  %__device_0 = util.global.load immutable @__device_0 : !hal.device
  %__matmul_memoize_result_0_device_0 = util.global.load immutable @__matmul_memoize_result_0_device_0 : !hal.command_buffer
  %element_type_f32 = hal.element_type<f32> : i32
  %dense_row_major = hal.encoding_type<dense_row_major> : i32
  hal.buffer_view.assert<%arg0 : !hal.buffer_view> message("input0") shape([%c4, %c4]) type(%element_type_f32) encoding(%dense_row_major)
  %buffer = hal.buffer_view.buffer<%arg0 : !hal.buffer_view> : !hal.buffer
  %allocator = hal.device.allocator<%__device_0 : !hal.device> : !hal.allocator
  hal.buffer.assert<%buffer : !hal.buffer> message("tensor") allocator(%allocator : !hal.allocator) minimum_length(%c64) type(DeviceVisible) usage("TransferSource|TransferTarget|Transfer|DispatchStorageRead|DispatchStorageWrite|DispatchStorage")
  hal.buffer_view.assert<%arg1 : !hal.buffer_view> message("input1") shape([%c4, %c4]) type(%element_type_f32) encoding(%dense_row_major)
  %buffer_0 = hal.buffer_view.buffer<%arg1 : !hal.buffer_view> : !hal.buffer
  hal.buffer.assert<%buffer_0 : !hal.buffer> message("tensor") allocator(%allocator : !hal.allocator) minimum_length(%c64) type(DeviceVisible) usage("TransferSource|TransferTarget|Transfer|DispatchStorageRead|DispatchStorageWrite|DispatchStorage")
  %fence = hal.fence.create device(%__device_0 : !hal.device) flags("None") : !hal.fence
  %transient_buffer = hal.device.queue.alloca<%__device_0 : !hal.device> affinity(%c-1_i64) wait(%0) signal(%fence) pool(%c0_i64) type(%memory_type) usage(%buffer_usage) flags("None") : !hal.buffer{%c64}
  %fence_1 = hal.fence.create device(%__device_0 : !hal.device) flags("None") : !hal.fence
  hal.device.queue.execute.indirect<%__device_0 : !hal.device> affinity(%c-1_i64) wait(%fence) signal(%fence_1) commands(%__matmul_memoize_result_0_device_0) bindings([
    (%buffer : !hal.buffer)[%c0, %c64], 
    (%buffer_0 : !hal.buffer)[%c0, %c64], 
    (%transient_buffer : !hal.buffer)[%c0, %c64]
  ]) flags("None")
  %status = hal.fence.await until([%fence_1]) timeout_millis(%c-1_i32) flags("None") : i32
  util.status.check_ok %status, "failed to wait on timepoint"
  %view = hal.buffer_view.create buffer(%transient_buffer : !hal.buffer)[%c0, %c64] shape([%c4, %c4]) type(%element_type_f32) encoding(%dense_row_major) : !hal.buffer_view
  util.return %view : !hal.buffer_view
}

// -----// IR Dump After ApplyPatternsPass (iree-util-apply-patterns) //----- //
util.func private @__matmul_memoize_apply() -> !hal.command_buffer attributes {inlining_policy = #util.inline.never} {
  %c-1_i64 = arith.constant -1 : i64
  %c3 = arith.constant 3 : index
  %c0 = arith.constant 0 : index
  %c1 = arith.constant 1 : index
  %c2 = arith.constant 2 : index
  %c64 = arith.constant 64 : index
  %__device_0 = util.global.load immutable @__device_0 : !hal.device
  %__device_0_executable_0_matmul_dispatch_0 = util.global.load immutable @__device_0_executable_0_matmul_dispatch_0 : !hal.executable
  %cmd = hal.command_buffer.create device(%__device_0 : !hal.device) mode("None") categories("Transfer|Dispatch") affinity(%c-1_i64) bindings(%c3) : !hal.command_buffer
  hal.command_buffer.dispatch<%cmd : !hal.command_buffer> target(%__device_0_executable_0_matmul_dispatch_0 : !hal.executable)[%c0] workgroups([%c1, %c1, %c1]) bindings([
    (%c0 : index)[%c0, %c64], 
    (%c1 : index)[%c0, %c64], 
    (%c2 : index)[%c0, %c64]
  ]) flags("None")
  hal.command_buffer.execution_barrier<%cmd : !hal.command_buffer> source("Dispatch|Transfer|CommandRetire") target("CommandIssue|Dispatch|Transfer") flags("None")
  hal.command_buffer.finalize<%cmd : !hal.command_buffer>
  util.return %cmd : !hal.command_buffer
}

// -----// IR Dump After ApplyPatternsPass (iree-util-apply-patterns) //----- //
util.initializer {
  %0 = util.call @__matmul_memoize_apply() : () -> !hal.command_buffer
  util.global.store %0, @__matmul_memoize_result_0_device_0 : !hal.command_buffer
  util.return
}

// -----// IR Dump After Canonicalizer (canonicalize) //----- //
util.initializer {
  %0 = util.null : !hal.executable
  %c14_i32 = arith.constant 14 : i32
  %c0 = arith.constant 0 : index
  %c-1 = arith.constant -1 : index
  %c-1_i64 = arith.constant -1 : i64
  %__device_0_query_0_hal_executable_format_embedded_elf_arm_64 = util.global.load @__device_0_query_0_hal_executable_format_embedded_elf_arm_64 : i1
  %__device_0 = util.global.load @__device_0 : !hal.device
  %1 = arith.select %__device_0_query_0_hal_executable_format_embedded_elf_arm_64, %c0, %c-1 : index
  %2 = arith.cmpi eq, %1, %c0 : index
  cf.cond_br %2, ^bb1, ^bb2
^bb1:  // pred: ^bb0
  %executable = hal.executable.create device(%__device_0 : !hal.device) affinity(%c-1_i64) target(@matmul_dispatch_0::@embedded_elf_arm_64) : !hal.executable
  cf.br ^bb3(%executable : !hal.executable)
^bb2:  // pred: ^bb0
  util.status.check_ok %c14_i32, "HAL device `__device_0` does not support any variant of executable `matmul_dispatch_0`; available formats: [embedded-elf-arm_64]"
  cf.br ^bb3(%0 : !hal.executable)
^bb3(%3: !hal.executable):  // 2 preds: ^bb1, ^bb2
  util.global.store %3, @__device_0_executable_0_matmul_dispatch_0 : !hal.executable
  util.return
}

// -----// IR Dump After ApplyPatternsPass (iree-util-apply-patterns) //----- //
util.initializer {
  %c18_i32 = arith.constant 18 : i32
  %false = arith.constant false
  %c0 = arith.constant 0 : index
  %c1 = arith.constant 1 : index
  %0 = util.null : !hal.device
  %device_count = hal.devices.count : index
  cf.br ^bb1(%c0, %c0, %0 : index, index, !hal.device)
^bb1(%1: index, %2: index, %3: !hal.device):  // 2 preds: ^bb0, ^bb4
  %4 = util.cmp.eq %3, %0 : !hal.device
  %5 = arith.cmpi slt, %1, %device_count : index
  %6 = arith.andi %4, %5 : i1
  cf.cond_br %6, ^bb2, ^bb5
^bb2:  // pred: ^bb1
  %device_n = hal.devices.get %1 : !hal.device
  %ok, %value = hal.device.query<%device_n : !hal.device> key("hal.device.id" :: "local*") : i1, i1 = false
  cf.cond_br %value, ^bb3, ^bb4(%false : i1)
^bb3:  // pred: ^bb2
  %ok_0, %value_1 = hal.device.query<%device_n : !hal.device> key("hal.executable.format" :: "embedded-elf-arm_64") : i1, i1 = false
  cf.br ^bb4(%value_1 : i1)
^bb4(%7: i1):  // 2 preds: ^bb2, ^bb3
  %8 = arith.cmpi eq, %2, %c0 : index
  %9 = arith.select %7, %c1, %c0 : index
  %10 = arith.addi %2, %9 : index
  %11 = arith.andi %7, %8 : i1
  %12 = arith.select %11, %device_n, %0 : !hal.device
  %13 = arith.addi %1, %c1 : index
  cf.br ^bb1(%13, %10, %12 : index, index, !hal.device)
^bb5:  // pred: ^bb1
  cf.cond_br %4, ^bb6, ^bb7
^bb6:  // pred: ^bb5
  util.status.check_ok %c18_i32, "HAL device `__device_0` not found or unavailable: #hal.device.target<\22local\22, [#hal.executable.target<\22llvm-cpu\22, \22embedded-elf-arm_64\22, {cpu = \22\22, cpu_features = \22+reserve-x18\22, data_layout = \22e-m:e-p270:32:32-p271:32:32-p272:64:64-i8:8:32-i16:16:32-i64:64-i128:128-n32:64-S128-Fn32\22, iree.encoding.resolver = #iree_cpu.cpu_encoding_resolver<>, max_stack_allocation_size = 32768 : i64, native_vector_size = 16 : i64, target_triple = \22arm64-unknown-unknown-eabi-elf\22}>]>"
  cf.br ^bb7
^bb7:  // 2 preds: ^bb5, ^bb6
  util.global.store %3, @__device_0 : !hal.device
  util.return
}

// -----// IR Dump After CSE (cse) //----- //
util.initializer {
  %0 = util.null : !hal.executable
  %c14_i32 = arith.constant 14 : i32
  %c0 = arith.constant 0 : index
  %c-1 = arith.constant -1 : index
  %c-1_i64 = arith.constant -1 : i64
  %__device_0_query_0_hal_executable_format_embedded_elf_arm_64 = util.global.load @__device_0_query_0_hal_executable_format_embedded_elf_arm_64 : i1
  %__device_0 = util.global.load @__device_0 : !hal.device
  %1 = arith.select %__device_0_query_0_hal_executable_format_embedded_elf_arm_64, %c0, %c-1 : index
  %2 = arith.cmpi eq, %1, %c0 : index
  cf.cond_br %2, ^bb1, ^bb2
^bb1:  // pred: ^bb0
  %executable = hal.executable.create device(%__device_0 : !hal.device) affinity(%c-1_i64) target(@matmul_dispatch_0::@embedded_elf_arm_64) : !hal.executable
  cf.br ^bb3(%executable : !hal.executable)
^bb2:  // pred: ^bb0
  util.status.check_ok %c14_i32, "HAL device `__device_0` does not support any variant of executable `matmul_dispatch_0`; available formats: [embedded-elf-arm_64]"
  cf.br ^bb3(%0 : !hal.executable)
^bb3(%3: !hal.executable):  // 2 preds: ^bb1, ^bb2
  util.global.store %3, @__device_0_executable_0_matmul_dispatch_0 : !hal.executable
  util.return
}

// -----// IR Dump After SimplifyGlobalAccessesPass (iree-util-simplify-global-accesses) //----- //
util.initializer {
  %__device_0_query_0_hal_executable_format_embedded_elf_arm_64 = util.global.load @__device_0_query_0_hal_executable_format_embedded_elf_arm_64 : i1
  %__device_0 = util.global.load @__device_0 : !hal.device
  %0 = util.null : !hal.executable
  %c14_i32 = arith.constant 14 : i32
  %c0 = arith.constant 0 : index
  %c-1 = arith.constant -1 : index
  %c-1_i64 = arith.constant -1 : i64
  %1 = arith.select %__device_0_query_0_hal_executable_format_embedded_elf_arm_64, %c0, %c-1 : index
  %2 = arith.cmpi eq, %1, %c0 : index
  cf.cond_br %2, ^bb1, ^bb2
^bb1:  // pred: ^bb0
  %executable = hal.executable.create device(%__device_0 : !hal.device) affinity(%c-1_i64) target(@matmul_dispatch_0::@embedded_elf_arm_64) : !hal.executable
  cf.br ^bb3(%executable : !hal.executable)
^bb2:  // pred: ^bb0
  util.status.check_ok %c14_i32, "HAL device `__device_0` does not support any variant of executable `matmul_dispatch_0`; available formats: [embedded-elf-arm_64]"
  cf.br ^bb3(%0 : !hal.executable)
^bb3(%3: !hal.executable):  // 2 preds: ^bb1, ^bb2
  util.global.store %3, @__device_0_executable_0_matmul_dispatch_0 : !hal.executable
  util.return
}

// -----// IR Dump After ApplyPatternsPass (iree-util-apply-patterns) //----- //
util.initializer {
  %c-1_i64 = arith.constant -1 : i64
  %c-1 = arith.constant -1 : index
  %c0 = arith.constant 0 : index
  %c14_i32 = arith.constant 14 : i32
  %0 = util.null : !hal.executable
  %__device_0_query_0_hal_executable_format_embedded_elf_arm_64 = util.global.load @__device_0_query_0_hal_executable_format_embedded_elf_arm_64 : i1
  %__device_0 = util.global.load @__device_0 : !hal.device
  %1 = arith.select %__device_0_query_0_hal_executable_format_embedded_elf_arm_64, %c0, %c-1 : index
  %2 = arith.cmpi eq, %1, %c0 : index
  cf.cond_br %2, ^bb1, ^bb2
^bb1:  // pred: ^bb0
  %executable = hal.executable.create device(%__device_0 : !hal.device) affinity(%c-1_i64) target(@matmul_dispatch_0::@embedded_elf_arm_64) : !hal.executable
  cf.br ^bb3(%executable : !hal.executable)
^bb2:  // pred: ^bb0
  util.status.check_ok %c14_i32, "HAL device `__device_0` does not support any variant of executable `matmul_dispatch_0`; available formats: [embedded-elf-arm_64]"
  cf.br ^bb3(%0 : !hal.executable)
^bb3(%3: !hal.executable):  // 2 preds: ^bb1, ^bb2
  util.global.store %3, @__device_0_executable_0_matmul_dispatch_0 : !hal.executable
  util.return
}

// -----// IR Dump After FoldGlobalsPass (iree-util-fold-globals) //----- //
module attributes {iree.fixedpoint.iteration = 3 : index} {
  util.global private @__device_0 : !hal.device
  util.initializer {
    %c18_i32 = arith.constant 18 : i32
    %false = arith.constant false
    %c0 = arith.constant 0 : index
    %c1 = arith.constant 1 : index
    %0 = util.null : !hal.device
    %device_count = hal.devices.count : index
    cf.br ^bb1(%c0, %c0, %0 : index, index, !hal.device)
  ^bb1(%1: index, %2: index, %3: !hal.device):  // 2 preds: ^bb0, ^bb4
    %4 = util.cmp.eq %3, %0 : !hal.device
    %5 = arith.cmpi slt, %1, %device_count : index
    %6 = arith.andi %4, %5 : i1
    cf.cond_br %6, ^bb2, ^bb5
  ^bb2:  // pred: ^bb1
    %device_n = hal.devices.get %1 : !hal.device
    %ok, %value = hal.device.query<%device_n : !hal.device> key("hal.device.id" :: "local*") : i1, i1 = false
    cf.cond_br %value, ^bb3, ^bb4(%false : i1)
  ^bb3:  // pred: ^bb2
    %ok_0, %value_1 = hal.device.query<%device_n : !hal.device> key("hal.executable.format" :: "embedded-elf-arm_64") : i1, i1 = false
    cf.br ^bb4(%value_1 : i1)
  ^bb4(%7: i1):  // 2 preds: ^bb2, ^bb3
    %8 = arith.cmpi eq, %2, %c0 : index
    %9 = arith.select %7, %c1, %c0 : index
    %10 = arith.addi %2, %9 : index
    %11 = arith.andi %7, %8 : i1
    %12 = arith.select %11, %device_n, %0 : !hal.device
    %13 = arith.addi %1, %c1 : index
    cf.br ^bb1(%13, %10, %12 : index, index, !hal.device)
  ^bb5:  // pred: ^bb1
    cf.cond_br %4, ^bb6, ^bb7
  ^bb6:  // pred: ^bb5
    util.status.check_ok %c18_i32, "HAL device `__device_0` not found or unavailable: #hal.device.target<\22local\22, [#hal.executable.target<\22llvm-cpu\22, \22embedded-elf-arm_64\22, {cpu = \22\22, cpu_features = \22+reserve-x18\22, data_layout = \22e-m:e-p270:32:32-p271:32:32-p272:64:64-i8:8:32-i16:16:32-i64:64-i128:128-n32:64-S128-Fn32\22, iree.encoding.resolver = #iree_cpu.cpu_encoding_resolver<>, max_stack_allocation_size = 32768 : i64, native_vector_size = 16 : i64, target_triple = \22arm64-unknown-unknown-eabi-elf\22}>]>"
    cf.br ^bb7
  ^bb7:  // 2 preds: ^bb5, ^bb6
    util.global.store %3, @__device_0 : !hal.device
    util.return
  }
  util.global private @__device_0_query_0_hal_executable_format_embedded_elf_arm_64 : i1
  util.initializer {
    %__device_0 = util.global.load @__device_0 : !hal.device
    %ok, %value = hal.device.query<%__device_0 : !hal.device> key("hal.executable.format" :: "embedded-elf-arm_64") : i1, i1 = false
    util.global.store %value, @__device_0_query_0_hal_executable_format_embedded_elf_arm_64 : i1
    util.return
  }
  util.global private @__device_0_executable_0_matmul_dispatch_0 : !hal.executable
  util.initializer {
    %c-1_i64 = arith.constant -1 : i64
    %c-1 = arith.constant -1 : index
    %c0 = arith.constant 0 : index
    %c14_i32 = arith.constant 14 : i32
    %0 = util.null : !hal.executable
    %__device_0_query_0_hal_executable_format_embedded_elf_arm_64 = util.global.load @__device_0_query_0_hal_executable_format_embedded_elf_arm_64 : i1
    %__device_0 = util.global.load @__device_0 : !hal.device
    %1 = arith.select %__device_0_query_0_hal_executable_format_embedded_elf_arm_64, %c0, %c-1 : index
    %2 = arith.cmpi eq, %1, %c0 : index
    cf.cond_br %2, ^bb1, ^bb2
  ^bb1:  // pred: ^bb0
    %executable = hal.executable.create device(%__device_0 : !hal.device) affinity(%c-1_i64) target(@matmul_dispatch_0::@embedded_elf_arm_64) : !hal.executable
    cf.br ^bb3(%executable : !hal.executable)
  ^bb2:  // pred: ^bb0
    util.status.check_ok %c14_i32, "HAL device `__device_0` does not support any variant of executable `matmul_dispatch_0`; available formats: [embedded-elf-arm_64]"
    cf.br ^bb3(%0 : !hal.executable)
  ^bb3(%3: !hal.executable):  // 2 preds: ^bb1, ^bb2
    util.global.store %3, @__device_0_executable_0_matmul_dispatch_0 : !hal.executable
    util.return
  }
  hal.executable private @matmul_dispatch_0 {
    hal.executable.binary public @embedded_elf_arm_64 attributes {data = dense<"…"> : vector<3600xi8>, format = "embedded-elf-arm_64", mime_type = "application/x-elf"}
  }
  util.func private @__matmul_memoize_apply() -> !hal.command_buffer attributes {inlining_policy = #util.inline.never} {
    %c-1_i64 = arith.constant -1 : i64
    %c3 = arith.constant 3 : index
    %c0 = arith.constant 0 : index
    %c1 = arith.constant 1 : index
    %c2 = arith.constant 2 : index
    %c64 = arith.constant 64 : index
    %__device_0 = util.global.load immutable @__device_0 : !hal.device
    %__device_0_executable_0_matmul_dispatch_0 = util.global.load immutable @__device_0_executable_0_matmul_dispatch_0 : !hal.executable
    %cmd = hal.command_buffer.create device(%__device_0 : !hal.device) mode("None") categories("Transfer|Dispatch") affinity(%c-1_i64) bindings(%c3) : !hal.command_buffer
    hal.command_buffer.dispatch<%cmd : !hal.command_buffer> target(%__device_0_executable_0_matmul_dispatch_0 : !hal.executable)[%c0] workgroups([%c1, %c1, %c1]) bindings([
      (%c0 : index)[%c0, %c64], 
      (%c1 : index)[%c0, %c64], 
      (%c2 : index)[%c0, %c64]
    ]) flags("None")
    hal.command_buffer.execution_barrier<%cmd : !hal.command_buffer> source("Dispatch|Transfer|CommandRetire") target("CommandIssue|Dispatch|Transfer") flags("None")
    hal.command_buffer.finalize<%cmd : !hal.command_buffer>
    util.return %cmd : !hal.command_buffer
  }
  util.global private @__matmul_memoize_result_0_device_0 : !hal.command_buffer
  util.initializer {
    %0 = util.call @__matmul_memoize_apply() : () -> !hal.command_buffer
    util.global.store %0, @__matmul_memoize_result_0_device_0 : !hal.command_buffer
    util.return
  }
  util.func public @matmul(%arg0: !hal.buffer_view, %arg1: !hal.buffer_view) -> !hal.buffer_view attributes {iree.abi.stub, iree.reflection = {iree.abi.declaration = "sync func @matmul(%input0: tensor<4x4xf32>, %input1: tensor<4x4xf32>) -> (%output0: tensor<4x4xf32>)"}} {
    %c-1_i32 = arith.constant -1 : i32
    %c0_i64 = arith.constant 0 : i64
    %0 = util.null : !hal.fence
    %c-1_i64 = arith.constant -1 : i64
    %c0 = arith.constant 0 : index
    %c64 = arith.constant 64 : index
    %c4 = arith.constant 4 : index
    %memory_type = hal.memory_type<"DeviceVisible|DeviceLocal"> : i32
    %buffer_usage = hal.buffer_usage<"TransferSource|TransferTarget|Transfer|DispatchStorageRead|DispatchStorageWrite|DispatchStorage"> : i32
    %__device_0 = util.global.load immutable @__device_0 : !hal.device
    %__matmul_memoize_result_0_device_0 = util.global.load immutable @__matmul_memoize_result_0_device_0 : !hal.command_buffer
    %element_type_f32 = hal.element_type<f32> : i32
    %dense_row_major = hal.encoding_type<dense_row_major> : i32
    hal.buffer_view.assert<%arg0 : !hal.buffer_view> message("input0") shape([%c4, %c4]) type(%element_type_f32) encoding(%dense_row_major)
    %buffer = hal.buffer_view.buffer<%arg0 : !hal.buffer_view> : !hal.buffer
    %allocator = hal.device.allocator<%__device_0 : !hal.device> : !hal.allocator
    hal.buffer.assert<%buffer : !hal.buffer> message("tensor") allocator(%allocator : !hal.allocator) minimum_length(%c64) type(DeviceVisible) usage("TransferSource|TransferTarget|Transfer|DispatchStorageRead|DispatchStorageWrite|DispatchStorage")
    hal.buffer_view.assert<%arg1 : !hal.buffer_view> message("input1") shape([%c4, %c4]) type(%element_type_f32) encoding(%dense_row_major)
    %buffer_0 = hal.buffer_view.buffer<%arg1 : !hal.buffer_view> : !hal.buffer
    hal.buffer.assert<%buffer_0 : !hal.buffer> message("tensor") allocator(%allocator : !hal.allocator) minimum_length(%c64) type(DeviceVisible) usage("TransferSource|TransferTarget|Transfer|DispatchStorageRead|DispatchStorageWrite|DispatchStorage")
    %fence = hal.fence.create device(%__device_0 : !hal.device) flags("None") : !hal.fence
    %transient_buffer = hal.device.queue.alloca<%__device_0 : !hal.device> affinity(%c-1_i64) wait(%0) signal(%fence) pool(%c0_i64) type(%memory_type) usage(%buffer_usage) flags("None") : !hal.buffer{%c64}
    %fence_1 = hal.fence.create device(%__device_0 : !hal.device) flags("None") : !hal.fence
    hal.device.queue.execute.indirect<%__device_0 : !hal.device> affinity(%c-1_i64) wait(%fence) signal(%fence_1) commands(%__matmul_memoize_result_0_device_0) bindings([
      (%buffer : !hal.buffer)[%c0, %c64], 
      (%buffer_0 : !hal.buffer)[%c0, %c64], 
      (%transient_buffer : !hal.buffer)[%c0, %c64]
    ]) flags("None")
    %status = hal.fence.await until([%fence_1]) timeout_millis(%c-1_i32) flags("None") : i32
    util.status.check_ok %status, "failed to wait on timepoint"
    %view = hal.buffer_view.create buffer(%transient_buffer : !hal.buffer)[%c0, %c64] shape([%c4, %c4]) type(%element_type_f32) encoding(%dense_row_major) : !hal.buffer_view
    util.return %view : !hal.buffer_view
  }
}


// -----// IR Dump After FuseGlobalsPass (iree-util-fuse-globals) //----- //
module attributes {iree.fixedpoint.iteration = 3 : index} {
  util.global private @__device_0 : !hal.device
  util.initializer {
    %c18_i32 = arith.constant 18 : i32
    %false = arith.constant false
    %c0 = arith.constant 0 : index
    %c1 = arith.constant 1 : index
    %0 = util.null : !hal.device
    %device_count = hal.devices.count : index
    cf.br ^bb1(%c0, %c0, %0 : index, index, !hal.device)
  ^bb1(%1: index, %2: index, %3: !hal.device):  // 2 preds: ^bb0, ^bb4
    %4 = util.cmp.eq %3, %0 : !hal.device
    %5 = arith.cmpi slt, %1, %device_count : index
    %6 = arith.andi %4, %5 : i1
    cf.cond_br %6, ^bb2, ^bb5
  ^bb2:  // pred: ^bb1
    %device_n = hal.devices.get %1 : !hal.device
    %ok, %value = hal.device.query<%device_n : !hal.device> key("hal.device.id" :: "local*") : i1, i1 = false
    cf.cond_br %value, ^bb3, ^bb4(%false : i1)
  ^bb3:  // pred: ^bb2
    %ok_0, %value_1 = hal.device.query<%device_n : !hal.device> key("hal.executable.format" :: "embedded-elf-arm_64") : i1, i1 = false
    cf.br ^bb4(%value_1 : i1)
  ^bb4(%7: i1):  // 2 preds: ^bb2, ^bb3
    %8 = arith.cmpi eq, %2, %c0 : index
    %9 = arith.select %7, %c1, %c0 : index
    %10 = arith.addi %2, %9 : index
    %11 = arith.andi %7, %8 : i1
    %12 = arith.select %11, %device_n, %0 : !hal.device
    %13 = arith.addi %1, %c1 : index
    cf.br ^bb1(%13, %10, %12 : index, index, !hal.device)
  ^bb5:  // pred: ^bb1
    cf.cond_br %4, ^bb6, ^bb7
  ^bb6:  // pred: ^bb5
    util.status.check_ok %c18_i32, "HAL device `__device_0` not found or unavailable: #hal.device.target<\22local\22, [#hal.executable.target<\22llvm-cpu\22, \22embedded-elf-arm_64\22, {cpu = \22\22, cpu_features = \22+reserve-x18\22, data_layout = \22e-m:e-p270:32:32-p271:32:32-p272:64:64-i8:8:32-i16:16:32-i64:64-i128:128-n32:64-S128-Fn32\22, iree.encoding.resolver = #iree_cpu.cpu_encoding_resolver<>, max_stack_allocation_size = 32768 : i64, native_vector_size = 16 : i64, target_triple = \22arm64-unknown-unknown-eabi-elf\22}>]>"
    cf.br ^bb7
  ^bb7:  // 2 preds: ^bb5, ^bb6
    util.global.store %3, @__device_0 : !hal.device
    util.return
  }
  util.global private @__device_0_query_0_hal_executable_format_embedded_elf_arm_64 : i1
  util.initializer {
    %__device_0 = util.global.load @__device_0 : !hal.device
    %ok, %value = hal.device.query<%__device_0 : !hal.device> key("hal.executable.format" :: "embedded-elf-arm_64") : i1, i1 = false
    util.global.store %value, @__device_0_query_0_hal_executable_format_embedded_elf_arm_64 : i1
    util.return
  }
  util.global private @__device_0_executable_0_matmul_dispatch_0 : !hal.executable
  util.initializer {
    %c-1_i64 = arith.constant -1 : i64
    %c-1 = arith.constant -1 : index
    %c0 = arith.constant 0 : index
    %c14_i32 = arith.constant 14 : i32
    %0 = util.null : !hal.executable
    %__device_0_query_0_hal_executable_format_embedded_elf_arm_64 = util.global.load @__device_0_query_0_hal_executable_format_embedded_elf_arm_64 : i1
    %__device_0 = util.global.load @__device_0 : !hal.device
    %1 = arith.select %__device_0_query_0_hal_executable_format_embedded_elf_arm_64, %c0, %c-1 : index
    %2 = arith.cmpi eq, %1, %c0 : index
    cf.cond_br %2, ^bb1, ^bb2
  ^bb1:  // pred: ^bb0
    %executable = hal.executable.create device(%__device_0 : !hal.device) affinity(%c-1_i64) target(@matmul_dispatch_0::@embedded_elf_arm_64) : !hal.executable
    cf.br ^bb3(%executable : !hal.executable)
  ^bb2:  // pred: ^bb0
    util.status.check_ok %c14_i32, "HAL device `__device_0` does not support any variant of executable `matmul_dispatch_0`; available formats: [embedded-elf-arm_64]"
    cf.br ^bb3(%0 : !hal.executable)
  ^bb3(%3: !hal.executable):  // 2 preds: ^bb1, ^bb2
    util.global.store %3, @__device_0_executable_0_matmul_dispatch_0 : !hal.executable
    util.return
  }
  hal.executable private @matmul_dispatch_0 {
    hal.executable.binary public @embedded_elf_arm_64 attributes {data = dense<"…"> : vector<3600xi8>, format = "embedded-elf-arm_64", mime_type = "application/x-elf"}
  }
  util.func private @__matmul_memoize_apply() -> !hal.command_buffer attributes {inlining_policy = #util.inline.never} {
    %c-1_i64 = arith.constant -1 : i64
    %c3 = arith.constant 3 : index
    %c0 = arith.constant 0 : index
    %c1 = arith.constant 1 : index
    %c2 = arith.constant 2 : index
    %c64 = arith.constant 64 : index
    %__device_0 = util.global.load immutable @__device_0 : !hal.device
    %__device_0_executable_0_matmul_dispatch_0 = util.global.load immutable @__device_0_executable_0_matmul_dispatch_0 : !hal.executable
    %cmd = hal.command_buffer.create device(%__device_0 : !hal.device) mode("None") categories("Transfer|Dispatch") affinity(%c-1_i64) bindings(%c3) : !hal.command_buffer
    hal.command_buffer.dispatch<%cmd : !hal.command_buffer> target(%__device_0_executable_0_matmul_dispatch_0 : !hal.executable)[%c0] workgroups([%c1, %c1, %c1]) bindings([
      (%c0 : index)[%c0, %c64], 
      (%c1 : index)[%c0, %c64], 
      (%c2 : index)[%c0, %c64]
    ]) flags("None")
    hal.command_buffer.execution_barrier<%cmd : !hal.command_buffer> source("Dispatch|Transfer|CommandRetire") target("CommandIssue|Dispatch|Transfer") flags("None")
    hal.command_buffer.finalize<%cmd : !hal.command_buffer>
    util.return %cmd : !hal.command_buffer
  }
  util.global private @__matmul_memoize_result_0_device_0 : !hal.command_buffer
  util.initializer {
    %0 = util.call @__matmul_memoize_apply() : () -> !hal.command_buffer
    util.global.store %0, @__matmul_memoize_result_0_device_0 : !hal.command_buffer
    util.return
  }
  util.func public @matmul(%arg0: !hal.buffer_view, %arg1: !hal.buffer_view) -> !hal.buffer_view attributes {iree.abi.stub, iree.reflection = {iree.abi.declaration = "sync func @matmul(%input0: tensor<4x4xf32>, %input1: tensor<4x4xf32>) -> (%output0: tensor<4x4xf32>)"}} {
    %c-1_i32 = arith.constant -1 : i32
    %c0_i64 = arith.constant 0 : i64
    %0 = util.null : !hal.fence
    %c-1_i64 = arith.constant -1 : i64
    %c0 = arith.constant 0 : index
    %c64 = arith.constant 64 : index
    %c4 = arith.constant 4 : index
    %memory_type = hal.memory_type<"DeviceVisible|DeviceLocal"> : i32
    %buffer_usage = hal.buffer_usage<"TransferSource|TransferTarget|Transfer|DispatchStorageRead|DispatchStorageWrite|DispatchStorage"> : i32
    %__device_0 = util.global.load immutable @__device_0 : !hal.device
    %__matmul_memoize_result_0_device_0 = util.global.load immutable @__matmul_memoize_result_0_device_0 : !hal.command_buffer
    %element_type_f32 = hal.element_type<f32> : i32
    %dense_row_major = hal.encoding_type<dense_row_major> : i32
    hal.buffer_view.assert<%arg0 : !hal.buffer_view> message("input0") shape([%c4, %c4]) type(%element_type_f32) encoding(%dense_row_major)
    %buffer = hal.buffer_view.buffer<%arg0 : !hal.buffer_view> : !hal.buffer
    %allocator = hal.device.allocator<%__device_0 : !hal.device> : !hal.allocator
    hal.buffer.assert<%buffer : !hal.buffer> message("tensor") allocator(%allocator : !hal.allocator) minimum_length(%c64) type(DeviceVisible) usage("TransferSource|TransferTarget|Transfer|DispatchStorageRead|DispatchStorageWrite|DispatchStorage")
    hal.buffer_view.assert<%arg1 : !hal.buffer_view> message("input1") shape([%c4, %c4]) type(%element_type_f32) encoding(%dense_row_major)
    %buffer_0 = hal.buffer_view.buffer<%arg1 : !hal.buffer_view> : !hal.buffer
    hal.buffer.assert<%buffer_0 : !hal.buffer> message("tensor") allocator(%allocator : !hal.allocator) minimum_length(%c64) type(DeviceVisible) usage("TransferSource|TransferTarget|Transfer|DispatchStorageRead|DispatchStorageWrite|DispatchStorage")
    %fence = hal.fence.create device(%__device_0 : !hal.device) flags("None") : !hal.fence
    %transient_buffer = hal.device.queue.alloca<%__device_0 : !hal.device> affinity(%c-1_i64) wait(%0) signal(%fence) pool(%c0_i64) type(%memory_type) usage(%buffer_usage) flags("None") : !hal.buffer{%c64}
    %fence_1 = hal.fence.create device(%__device_0 : !hal.device) flags("None") : !hal.fence
    hal.device.queue.execute.indirect<%__device_0 : !hal.device> affinity(%c-1_i64) wait(%fence) signal(%fence_1) commands(%__matmul_memoize_result_0_device_0) bindings([
      (%buffer : !hal.buffer)[%c0, %c64], 
      (%buffer_0 : !hal.buffer)[%c0, %c64], 
      (%transient_buffer : !hal.buffer)[%c0, %c64]
    ]) flags("None")
    %status = hal.fence.await until([%fence_1]) timeout_millis(%c-1_i32) flags("None") : i32
    util.status.check_ok %status, "failed to wait on timepoint"
    %view = hal.buffer_view.create buffer(%transient_buffer : !hal.buffer)[%c0, %c64] shape([%c4, %c4]) type(%element_type_f32) encoding(%dense_row_major) : !hal.buffer_view
    util.return %view : !hal.buffer_view
  }
}


// -----// IR Dump After IPOPass (iree-util-ipo) //----- //
module attributes {iree.fixedpoint.iteration = 3 : index} {
  util.global private @__device_0 : !hal.device
  util.initializer {
    %c18_i32 = arith.constant 18 : i32
    %false = arith.constant false
    %c0 = arith.constant 0 : index
    %c1 = arith.constant 1 : index
    %0 = util.null : !hal.device
    %device_count = hal.devices.count : index
    cf.br ^bb1(%c0, %c0, %0 : index, index, !hal.device)
  ^bb1(%1: index, %2: index, %3: !hal.device):  // 2 preds: ^bb0, ^bb4
    %4 = util.cmp.eq %3, %0 : !hal.device
    %5 = arith.cmpi slt, %1, %device_count : index
    %6 = arith.andi %4, %5 : i1
    cf.cond_br %6, ^bb2, ^bb5
  ^bb2:  // pred: ^bb1
    %device_n = hal.devices.get %1 : !hal.device
    %ok, %value = hal.device.query<%device_n : !hal.device> key("hal.device.id" :: "local*") : i1, i1 = false
    cf.cond_br %value, ^bb3, ^bb4(%false : i1)
  ^bb3:  // pred: ^bb2
    %ok_0, %value_1 = hal.device.query<%device_n : !hal.device> key("hal.executable.format" :: "embedded-elf-arm_64") : i1, i1 = false
    cf.br ^bb4(%value_1 : i1)
  ^bb4(%7: i1):  // 2 preds: ^bb2, ^bb3
    %8 = arith.cmpi eq, %2, %c0 : index
    %9 = arith.select %7, %c1, %c0 : index
    %10 = arith.addi %2, %9 : index
    %11 = arith.andi %7, %8 : i1
    %12 = arith.select %11, %device_n, %0 : !hal.device
    %13 = arith.addi %1, %c1 : index
    cf.br ^bb1(%13, %10, %12 : index, index, !hal.device)
  ^bb5:  // pred: ^bb1
    cf.cond_br %4, ^bb6, ^bb7
  ^bb6:  // pred: ^bb5
    util.status.check_ok %c18_i32, "HAL device `__device_0` not found or unavailable: #hal.device.target<\22local\22, [#hal.executable.target<\22llvm-cpu\22, \22embedded-elf-arm_64\22, {cpu = \22\22, cpu_features = \22+reserve-x18\22, data_layout = \22e-m:e-p270:32:32-p271:32:32-p272:64:64-i8:8:32-i16:16:32-i64:64-i128:128-n32:64-S128-Fn32\22, iree.encoding.resolver = #iree_cpu.cpu_encoding_resolver<>, max_stack_allocation_size = 32768 : i64, native_vector_size = 16 : i64, target_triple = \22arm64-unknown-unknown-eabi-elf\22}>]>"
    cf.br ^bb7
  ^bb7:  // 2 preds: ^bb5, ^bb6
    util.global.store %3, @__device_0 : !hal.device
    util.return
  }
  util.global private @__device_0_query_0_hal_executable_format_embedded_elf_arm_64 : i1
  util.initializer {
    %__device_0 = util.global.load @__device_0 : !hal.device
    %ok, %value = hal.device.query<%__device_0 : !hal.device> key("hal.executable.format" :: "embedded-elf-arm_64") : i1, i1 = false
    util.global.store %value, @__device_0_query_0_hal_executable_format_embedded_elf_arm_64 : i1
    util.return
  }
  util.global private @__device_0_executable_0_matmul_dispatch_0 : !hal.executable
  util.initializer {
    %c-1_i64 = arith.constant -1 : i64
    %c-1 = arith.constant -1 : index
    %c0 = arith.constant 0 : index
    %c14_i32 = arith.constant 14 : i32
    %0 = util.null : !hal.executable
    %__device_0_query_0_hal_executable_format_embedded_elf_arm_64 = util.global.load @__device_0_query_0_hal_executable_format_embedded_elf_arm_64 : i1
    %__device_0 = util.global.load @__device_0 : !hal.device
    %1 = arith.select %__device_0_query_0_hal_executable_format_embedded_elf_arm_64, %c0, %c-1 : index
    %2 = arith.cmpi eq, %1, %c0 : index
    cf.cond_br %2, ^bb1, ^bb2
  ^bb1:  // pred: ^bb0
    %executable = hal.executable.create device(%__device_0 : !hal.device) affinity(%c-1_i64) target(@matmul_dispatch_0::@embedded_elf_arm_64) : !hal.executable
    cf.br ^bb3(%executable : !hal.executable)
  ^bb2:  // pred: ^bb0
    util.status.check_ok %c14_i32, "HAL device `__device_0` does not support any variant of executable `matmul_dispatch_0`; available formats: [embedded-elf-arm_64]"
    cf.br ^bb3(%0 : !hal.executable)
  ^bb3(%3: !hal.executable):  // 2 preds: ^bb1, ^bb2
    util.global.store %3, @__device_0_executable_0_matmul_dispatch_0 : !hal.executable
    util.return
  }
  hal.executable private @matmul_dispatch_0 {
    hal.executable.binary public @embedded_elf_arm_64 attributes {data = dense<"…"> : vector<3600xi8>, format = "embedded-elf-arm_64", mime_type = "application/x-elf"}
  }
  util.func private @__matmul_memoize_apply() -> !hal.command_buffer attributes {inlining_policy = #util.inline.never} {
    %c-1_i64 = arith.constant -1 : i64
    %c3 = arith.constant 3 : index
    %c0 = arith.constant 0 : index
    %c1 = arith.constant 1 : index
    %c2 = arith.constant 2 : index
    %c64 = arith.constant 64 : index
    %__device_0 = util.global.load immutable @__device_0 : !hal.device
    %__device_0_executable_0_matmul_dispatch_0 = util.global.load immutable @__device_0_executable_0_matmul_dispatch_0 : !hal.executable
    %cmd = hal.command_buffer.create device(%__device_0 : !hal.device) mode("None") categories("Transfer|Dispatch") affinity(%c-1_i64) bindings(%c3) : !hal.command_buffer
    hal.command_buffer.dispatch<%cmd : !hal.command_buffer> target(%__device_0_executable_0_matmul_dispatch_0 : !hal.executable)[%c0] workgroups([%c1, %c1, %c1]) bindings([
      (%c0 : index)[%c0, %c64], 
      (%c1 : index)[%c0, %c64], 
      (%c2 : index)[%c0, %c64]
    ]) flags("None")
    hal.command_buffer.execution_barrier<%cmd : !hal.command_buffer> source("Dispatch|Transfer|CommandRetire") target("CommandIssue|Dispatch|Transfer") flags("None")
    hal.command_buffer.finalize<%cmd : !hal.command_buffer>
    util.return %cmd : !hal.command_buffer
  }
  util.global private @__matmul_memoize_result_0_device_0 : !hal.command_buffer
  util.initializer {
    %0 = util.call @__matmul_memoize_apply() : () -> !hal.command_buffer
    util.global.store %0, @__matmul_memoize_result_0_device_0 : !hal.command_buffer
    util.return
  }
  util.func public @matmul(%arg0: !hal.buffer_view, %arg1: !hal.buffer_view) -> !hal.buffer_view attributes {iree.abi.stub, iree.reflection = {iree.abi.declaration = "sync func @matmul(%input0: tensor<4x4xf32>, %input1: tensor<4x4xf32>) -> (%output0: tensor<4x4xf32>)"}} {
    %c-1_i32 = arith.constant -1 : i32
    %c0_i64 = arith.constant 0 : i64
    %0 = util.null : !hal.fence
    %c-1_i64 = arith.constant -1 : i64
    %c0 = arith.constant 0 : index
    %c64 = arith.constant 64 : index
    %c4 = arith.constant 4 : index
    %memory_type = hal.memory_type<"DeviceVisible|DeviceLocal"> : i32
    %buffer_usage = hal.buffer_usage<"TransferSource|TransferTarget|Transfer|DispatchStorageRead|DispatchStorageWrite|DispatchStorage"> : i32
    %__device_0 = util.global.load immutable @__device_0 : !hal.device
    %__matmul_memoize_result_0_device_0 = util.global.load immutable @__matmul_memoize_result_0_device_0 : !hal.command_buffer
    %element_type_f32 = hal.element_type<f32> : i32
    %dense_row_major = hal.encoding_type<dense_row_major> : i32
    hal.buffer_view.assert<%arg0 : !hal.buffer_view> message("input0") shape([%c4, %c4]) type(%element_type_f32) encoding(%dense_row_major)
    %buffer = hal.buffer_view.buffer<%arg0 : !hal.buffer_view> : !hal.buffer
    %allocator = hal.device.allocator<%__device_0 : !hal.device> : !hal.allocator
    hal.buffer.assert<%buffer : !hal.buffer> message("tensor") allocator(%allocator : !hal.allocator) minimum_length(%c64) type(DeviceVisible) usage("TransferSource|TransferTarget|Transfer|DispatchStorageRead|DispatchStorageWrite|DispatchStorage")
    hal.buffer_view.assert<%arg1 : !hal.buffer_view> message("input1") shape([%c4, %c4]) type(%element_type_f32) encoding(%dense_row_major)
    %buffer_0 = hal.buffer_view.buffer<%arg1 : !hal.buffer_view> : !hal.buffer
    hal.buffer.assert<%buffer_0 : !hal.buffer> message("tensor") allocator(%allocator : !hal.allocator) minimum_length(%c64) type(DeviceVisible) usage("TransferSource|TransferTarget|Transfer|DispatchStorageRead|DispatchStorageWrite|DispatchStorage")
    %fence = hal.fence.create device(%__device_0 : !hal.device) flags("None") : !hal.fence
    %transient_buffer = hal.device.queue.alloca<%__device_0 : !hal.device> affinity(%c-1_i64) wait(%0) signal(%fence) pool(%c0_i64) type(%memory_type) usage(%buffer_usage) flags("None") : !hal.buffer{%c64}
    %fence_1 = hal.fence.create device(%__device_0 : !hal.device) flags("None") : !hal.fence
    hal.device.queue.execute.indirect<%__device_0 : !hal.device> affinity(%c-1_i64) wait(%fence) signal(%fence_1) commands(%__matmul_memoize_result_0_device_0) bindings([
      (%buffer : !hal.buffer)[%c0, %c64], 
      (%buffer_0 : !hal.buffer)[%c0, %c64], 
      (%transient_buffer : !hal.buffer)[%c0, %c64]
    ]) flags("None")
    %status = hal.fence.await until([%fence_1]) timeout_millis(%c-1_i32) flags("None") : i32
    util.status.check_ok %status, "failed to wait on timepoint"
    %view = hal.buffer_view.create buffer(%transient_buffer : !hal.buffer)[%c0, %c64] shape([%c4, %c4]) type(%element_type_f32) encoding(%dense_row_major) : !hal.buffer_view
    util.return %view : !hal.buffer_view
  }
}


// -----// IR Dump After FixedPointIteratorPass (iree-util-fixed-point-iterator) //----- //
module {
  util.global private @__device_0 : !hal.device
  util.initializer {
    %c18_i32 = arith.constant 18 : i32
    %false = arith.constant false
    %c0 = arith.constant 0 : index
    %c1 = arith.constant 1 : index
    %0 = util.null : !hal.device
    %device_count = hal.devices.count : index
    cf.br ^bb1(%c0, %c0, %0 : index, index, !hal.device)
  ^bb1(%1: index, %2: index, %3: !hal.device):  // 2 preds: ^bb0, ^bb4
    %4 = util.cmp.eq %3, %0 : !hal.device
    %5 = arith.cmpi slt, %1, %device_count : index
    %6 = arith.andi %4, %5 : i1
    cf.cond_br %6, ^bb2, ^bb5
  ^bb2:  // pred: ^bb1
    %device_n = hal.devices.get %1 : !hal.device
    %ok, %value = hal.device.query<%device_n : !hal.device> key("hal.device.id" :: "local*") : i1, i1 = false
    cf.cond_br %value, ^bb3, ^bb4(%false : i1)
  ^bb3:  // pred: ^bb2
    %ok_0, %value_1 = hal.device.query<%device_n : !hal.device> key("hal.executable.format" :: "embedded-elf-arm_64") : i1, i1 = false
    cf.br ^bb4(%value_1 : i1)
  ^bb4(%7: i1):  // 2 preds: ^bb2, ^bb3
    %8 = arith.cmpi eq, %2, %c0 : index
    %9 = arith.select %7, %c1, %c0 : index
    %10 = arith.addi %2, %9 : index
    %11 = arith.andi %7, %8 : i1
    %12 = arith.select %11, %device_n, %0 : !hal.device
    %13 = arith.addi %1, %c1 : index
    cf.br ^bb1(%13, %10, %12 : index, index, !hal.device)
  ^bb5:  // pred: ^bb1
    cf.cond_br %4, ^bb6, ^bb7
  ^bb6:  // pred: ^bb5
    util.status.check_ok %c18_i32, "HAL device `__device_0` not found or unavailable: #hal.device.target<\22local\22, [#hal.executable.target<\22llvm-cpu\22, \22embedded-elf-arm_64\22, {cpu = \22\22, cpu_features = \22+reserve-x18\22, data_layout = \22e-m:e-p270:32:32-p271:32:32-p272:64:64-i8:8:32-i16:16:32-i64:64-i128:128-n32:64-S128-Fn32\22, iree.encoding.resolver = #iree_cpu.cpu_encoding_resolver<>, max_stack_allocation_size = 32768 : i64, native_vector_size = 16 : i64, target_triple = \22arm64-unknown-unknown-eabi-elf\22}>]>"
    cf.br ^bb7
  ^bb7:  // 2 preds: ^bb5, ^bb6
    util.global.store %3, @__device_0 : !hal.device
    util.return
  }
  util.global private @__device_0_query_0_hal_executable_format_embedded_elf_arm_64 : i1
  util.initializer {
    %__device_0 = util.global.load @__device_0 : !hal.device
    %ok, %value = hal.device.query<%__device_0 : !hal.device> key("hal.executable.format" :: "embedded-elf-arm_64") : i1, i1 = false
    util.global.store %value, @__device_0_query_0_hal_executable_format_embedded_elf_arm_64 : i1
    util.return
  }
  util.global private @__device_0_executable_0_matmul_dispatch_0 : !hal.executable
  util.initializer {
    %c-1_i64 = arith.constant -1 : i64
    %c-1 = arith.constant -1 : index
    %c0 = arith.constant 0 : index
    %c14_i32 = arith.constant 14 : i32
    %0 = util.null : !hal.executable
    %__device_0_query_0_hal_executable_format_embedded_elf_arm_64 = util.global.load @__device_0_query_0_hal_executable_format_embedded_elf_arm_64 : i1
    %__device_0 = util.global.load @__device_0 : !hal.device
    %1 = arith.select %__device_0_query_0_hal_executable_format_embedded_elf_arm_64, %c0, %c-1 : index
    %2 = arith.cmpi eq, %1, %c0 : index
    cf.cond_br %2, ^bb1, ^bb2
  ^bb1:  // pred: ^bb0
    %executable = hal.executable.create device(%__device_0 : !hal.device) affinity(%c-1_i64) target(@matmul_dispatch_0::@embedded_elf_arm_64) : !hal.executable
    cf.br ^bb3(%executable : !hal.executable)
  ^bb2:  // pred: ^bb0
    util.status.check_ok %c14_i32, "HAL device `__device_0` does not support any variant of executable `matmul_dispatch_0`; available formats: [embedded-elf-arm_64]"
    cf.br ^bb3(%0 : !hal.executable)
  ^bb3(%3: !hal.executable):  // 2 preds: ^bb1, ^bb2
    util.global.store %3, @__device_0_executable_0_matmul_dispatch_0 : !hal.executable
    util.return
  }
  hal.executable private @matmul_dispatch_0 {
    hal.executable.binary public @embedded_elf_arm_64 attributes {data = dense<"…"> : vector<3600xi8>, format = "embedded-elf-arm_64", mime_type = "application/x-elf"}
  }
  util.func private @__matmul_memoize_apply() -> !hal.command_buffer attributes {inlining_policy = #util.inline.never} {
    %c-1_i64 = arith.constant -1 : i64
    %c3 = arith.constant 3 : index
    %c0 = arith.constant 0 : index
    %c1 = arith.constant 1 : index
    %c2 = arith.constant 2 : index
    %c64 = arith.constant 64 : index
    %__device_0 = util.global.load immutable @__device_0 : !hal.device
    %__device_0_executable_0_matmul_dispatch_0 = util.global.load immutable @__device_0_executable_0_matmul_dispatch_0 : !hal.executable
    %cmd = hal.command_buffer.create device(%__device_0 : !hal.device) mode("None") categories("Transfer|Dispatch") affinity(%c-1_i64) bindings(%c3) : !hal.command_buffer
    hal.command_buffer.dispatch<%cmd : !hal.command_buffer> target(%__device_0_executable_0_matmul_dispatch_0 : !hal.executable)[%c0] workgroups([%c1, %c1, %c1]) bindings([
      (%c0 : index)[%c0, %c64], 
      (%c1 : index)[%c0, %c64], 
      (%c2 : index)[%c0, %c64]
    ]) flags("None")
    hal.command_buffer.execution_barrier<%cmd : !hal.command_buffer> source("Dispatch|Transfer|CommandRetire") target("CommandIssue|Dispatch|Transfer") flags("None")
    hal.command_buffer.finalize<%cmd : !hal.command_buffer>
    util.return %cmd : !hal.command_buffer
  }
  util.global private @__matmul_memoize_result_0_device_0 : !hal.command_buffer
  util.initializer {
    %0 = util.call @__matmul_memoize_apply() : () -> !hal.command_buffer
    util.global.store %0, @__matmul_memoize_result_0_device_0 : !hal.command_buffer
    util.return
  }
  util.func public @matmul(%arg0: !hal.buffer_view, %arg1: !hal.buffer_view) -> !hal.buffer_view attributes {iree.abi.stub, iree.reflection = {iree.abi.declaration = "sync func @matmul(%input0: tensor<4x4xf32>, %input1: tensor<4x4xf32>) -> (%output0: tensor<4x4xf32>)"}} {
    %c-1_i32 = arith.constant -1 : i32
    %c0_i64 = arith.constant 0 : i64
    %0 = util.null : !hal.fence
    %c-1_i64 = arith.constant -1 : i64
    %c0 = arith.constant 0 : index
    %c64 = arith.constant 64 : index
    %c4 = arith.constant 4 : index
    %memory_type = hal.memory_type<"DeviceVisible|DeviceLocal"> : i32
    %buffer_usage = hal.buffer_usage<"TransferSource|TransferTarget|Transfer|DispatchStorageRead|DispatchStorageWrite|DispatchStorage"> : i32
    %__device_0 = util.global.load immutable @__device_0 : !hal.device
    %__matmul_memoize_result_0_device_0 = util.global.load immutable @__matmul_memoize_result_0_device_0 : !hal.command_buffer
    %element_type_f32 = hal.element_type<f32> : i32
    %dense_row_major = hal.encoding_type<dense_row_major> : i32
    hal.buffer_view.assert<%arg0 : !hal.buffer_view> message("input0") shape([%c4, %c4]) type(%element_type_f32) encoding(%dense_row_major)
    %buffer = hal.buffer_view.buffer<%arg0 : !hal.buffer_view> : !hal.buffer
    %allocator = hal.device.allocator<%__device_0 : !hal.device> : !hal.allocator
    hal.buffer.assert<%buffer : !hal.buffer> message("tensor") allocator(%allocator : !hal.allocator) minimum_length(%c64) type(DeviceVisible) usage("TransferSource|TransferTarget|Transfer|DispatchStorageRead|DispatchStorageWrite|DispatchStorage")
    hal.buffer_view.assert<%arg1 : !hal.buffer_view> message("input1") shape([%c4, %c4]) type(%element_type_f32) encoding(%dense_row_major)
    %buffer_0 = hal.buffer_view.buffer<%arg1 : !hal.buffer_view> : !hal.buffer
    hal.buffer.assert<%buffer_0 : !hal.buffer> message("tensor") allocator(%allocator : !hal.allocator) minimum_length(%c64) type(DeviceVisible) usage("TransferSource|TransferTarget|Transfer|DispatchStorageRead|DispatchStorageWrite|DispatchStorage")
    %fence = hal.fence.create device(%__device_0 : !hal.device) flags("None") : !hal.fence
    %transient_buffer = hal.device.queue.alloca<%__device_0 : !hal.device> affinity(%c-1_i64) wait(%0) signal(%fence) pool(%c0_i64) type(%memory_type) usage(%buffer_usage) flags("None") : !hal.buffer{%c64}
    %fence_1 = hal.fence.create device(%__device_0 : !hal.device) flags("None") : !hal.fence
    hal.device.queue.execute.indirect<%__device_0 : !hal.device> affinity(%c-1_i64) wait(%fence) signal(%fence_1) commands(%__matmul_memoize_result_0_device_0) bindings([
      (%buffer : !hal.buffer)[%c0, %c64], 
      (%buffer_0 : !hal.buffer)[%c0, %c64], 
      (%transient_buffer : !hal.buffer)[%c0, %c64]
    ]) flags("None")
    %status = hal.fence.await until([%fence_1]) timeout_millis(%c-1_i32) flags("None") : i32
    util.status.check_ok %status, "failed to wait on timepoint"
    %view = hal.buffer_view.create buffer(%transient_buffer : !hal.buffer)[%c0, %c64] shape([%c4, %c4]) type(%element_type_f32) encoding(%dense_row_major) : !hal.buffer_view
    util.return %view : !hal.buffer_view
  }
}


