// -----// IR Dump After AutoInputConversionPipelinePass (iree-auto-input-conversion) //----- //
#map = affine_map<(d0, d1) -> (d0, d1)>
module {
  func.func @matmul(%arg0: tensor<4x4xf32>, %arg1: tensor<4x4xf32>) -> tensor<4x4xf32> {
    %0 = tensor.empty() : tensor<4x4xf32>
    %1 = linalg.matmul ins(%arg0, %arg1 : tensor<4x4xf32>, tensor<4x4xf32>) outs(%0 : tensor<4x4xf32>) -> tensor<4x4xf32>
    %2 = linalg.generic {indexing_maps = [#map, #map], iterator_types = ["parallel", "parallel"]} ins(%1 : tensor<4x4xf32>) outs(%0 : tensor<4x4xf32>) {
    ^bb0(%in: f32, %out: f32):
      %cst = arith.constant 0.000000e+00 : f32
      %3 = arith.maximumf %in, %cst : f32
      linalg.yield %3 : f32
    } -> tensor<4x4xf32>
    return %2 : tensor<4x4xf32>
  }
}


// -----// IR Dump After IREEImportPublicPass (iree-import-public) //----- //
#map = affine_map<(d0, d1) -> (d0, d1)>
module {
  util.func public @matmul(%arg0: tensor<4x4xf32>, %arg1: tensor<4x4xf32>) -> tensor<4x4xf32> {
    %0 = tensor.empty() : tensor<4x4xf32>
    %1 = linalg.matmul ins(%arg0, %arg1 : tensor<4x4xf32>, tensor<4x4xf32>) outs(%0 : tensor<4x4xf32>) -> tensor<4x4xf32>
    %2 = linalg.generic {indexing_maps = [#map, #map], iterator_types = ["parallel", "parallel"]} ins(%1 : tensor<4x4xf32>) outs(%0 : tensor<4x4xf32>) {
    ^bb0(%in: f32, %out: f32):
      %cst = arith.constant 0.000000e+00 : f32
      %3 = arith.maximumf %in, %cst : f32
      linalg.yield %3 : f32
    } -> tensor<4x4xf32>
    util.return %2 : tensor<4x4xf32>
  }
}


// -----// IR Dump After ImportMLProgramPass (iree-import-ml-program) //----- //
#map = affine_map<(d0, d1) -> (d0, d1)>
module {
  util.func public @matmul(%arg0: tensor<4x4xf32>, %arg1: tensor<4x4xf32>) -> tensor<4x4xf32> {
    %0 = tensor.empty() : tensor<4x4xf32>
    %1 = linalg.matmul ins(%arg0, %arg1 : tensor<4x4xf32>, tensor<4x4xf32>) outs(%0 : tensor<4x4xf32>) -> tensor<4x4xf32>
    %2 = linalg.generic {indexing_maps = [#map, #map], iterator_types = ["parallel", "parallel"]} ins(%1 : tensor<4x4xf32>) outs(%0 : tensor<4x4xf32>) {
    ^bb0(%in: f32, %out: f32):
      %cst = arith.constant 0.000000e+00 : f32
      %3 = arith.maximumf %in, %cst : f32
      linalg.yield %3 : f32
    } -> tensor<4x4xf32>
    util.return %2 : tensor<4x4xf32>
  }
}


// -----// IR Dump After SanitizeModuleNamesPass (iree-sanitize-module-names) //----- //
#map = affine_map<(d0, d1) -> (d0, d1)>
module {
  util.func public @matmul(%arg0: tensor<4x4xf32>, %arg1: tensor<4x4xf32>) -> tensor<4x4xf32> {
    %0 = tensor.empty() : tensor<4x4xf32>
    %1 = linalg.matmul ins(%arg0, %arg1 : tensor<4x4xf32>, tensor<4x4xf32>) outs(%0 : tensor<4x4xf32>) -> tensor<4x4xf32>
    %2 = linalg.generic {indexing_maps = [#map, #map], iterator_types = ["parallel", "parallel"]} ins(%1 : tensor<4x4xf32>) outs(%0 : tensor<4x4xf32>) {
    ^bb0(%in: f32, %out: f32):
      %cst = arith.constant 0.000000e+00 : f32
      %3 = arith.maximumf %in, %cst : f32
      linalg.yield %3 : f32
    } -> tensor<4x4xf32>
    util.return %2 : tensor<4x4xf32>
  }
}


// -----// IR Dump After DemoteF64ToF32Pass (iree-input-conversion-demote-f64-to-f32) //----- //
#map = affine_map<(d0, d1) -> (d0, d1)>
module {
  util.func public @matmul(%arg0: tensor<4x4xf32>, %arg1: tensor<4x4xf32>) -> tensor<4x4xf32> {
    %0 = tensor.empty() : tensor<4x4xf32>
    %1 = linalg.matmul ins(%arg0, %arg1 : tensor<4x4xf32>, tensor<4x4xf32>) outs(%0 : tensor<4x4xf32>) -> tensor<4x4xf32>
    %2 = linalg.generic {indexing_maps = [#map, #map], iterator_types = ["parallel", "parallel"]} ins(%1 : tensor<4x4xf32>) outs(%0 : tensor<4x4xf32>) {
    ^bb0(%in: f32, %out: f32):
      %cst = arith.constant 0.000000e+00 : f32
      %3 = arith.maximumf %in, %cst : f32
      linalg.yield %3 : f32
    } -> tensor<4x4xf32>
    util.return %2 : tensor<4x4xf32>
  }
}


// -----// IR Dump After ConvertStreamableOpsPass (iree-abi-convert-streamable-ops) //----- //
#map = affine_map<(d0, d1) -> (d0, d1)>
module {
  util.func public @matmul(%arg0: tensor<4x4xf32>, %arg1: tensor<4x4xf32>) -> tensor<4x4xf32> {
    %0 = tensor.empty() : tensor<4x4xf32>
    %1 = linalg.matmul ins(%arg0, %arg1 : tensor<4x4xf32>, tensor<4x4xf32>) outs(%0 : tensor<4x4xf32>) -> tensor<4x4xf32>
    %2 = linalg.generic {indexing_maps = [#map, #map], iterator_types = ["parallel", "parallel"]} ins(%1 : tensor<4x4xf32>) outs(%0 : tensor<4x4xf32>) {
    ^bb0(%in: f32, %out: f32):
      %cst = arith.constant 0.000000e+00 : f32
      %3 = arith.maximumf %in, %cst : f32
      linalg.yield %3 : f32
    } -> tensor<4x4xf32>
    util.return %2 : tensor<4x4xf32>
  }
}


// -----// IR Dump After WrapEntryPointsPass (iree-abi-wrap-entry-points) //----- //
#map = affine_map<(d0, d1) -> (d0, d1)>
module {
  util.func public @matmul(%arg0: !hal.buffer_view, %arg1: !hal.buffer_view) -> !hal.buffer_view attributes {iree.abi.stub, iree.reflection = {iree.abi.declaration = "sync func @matmul(%input0: tensor<4x4xf32>, %input1: tensor<4x4xf32>) -> (%output0: tensor<4x4xf32>)"}} {
    %0 = hal.tensor.import %arg0 "input0" : !hal.buffer_view -> tensor<4x4xf32>
    %1 = hal.tensor.import %arg1 "input1" : !hal.buffer_view -> tensor<4x4xf32>
    %2 = util.call @_matmul(%0, %1) : (tensor<4x4xf32>, tensor<4x4xf32>) -> tensor<4x4xf32>
    %3 = hal.tensor.export %2 "output0" : tensor<4x4xf32> -> !hal.buffer_view
    util.return %3 : !hal.buffer_view
  }
  util.func private @_matmul(%arg0: tensor<4x4xf32>, %arg1: tensor<4x4xf32>) -> tensor<4x4xf32> attributes {hal.abi.convention = #hal.abi.convention<synchronous>} {
    %0 = tensor.empty() : tensor<4x4xf32>
    %1 = linalg.matmul ins(%arg0, %arg1 : tensor<4x4xf32>, tensor<4x4xf32>) outs(%0 : tensor<4x4xf32>) -> tensor<4x4xf32>
    %2 = linalg.generic {indexing_maps = [#map, #map], iterator_types = ["parallel", "parallel"]} ins(%1 : tensor<4x4xf32>) outs(%0 : tensor<4x4xf32>) {
    ^bb0(%in: f32, %out: f32):
      %cst = arith.constant 0.000000e+00 : f32
      %3 = arith.maximumf %in, %cst : f32
      linalg.yield %3 : f32
    } -> tensor<4x4xf32>
    util.return %2 : tensor<4x4xf32>
  }
}


// -----// IR Dump After Canonicalizer (canonicalize) //----- //
util.func private @_matmul(%arg0: tensor<4x4xf32>, %arg1: tensor<4x4xf32>) -> tensor<4x4xf32> attributes {hal.abi.convention = #hal.abi.convention<synchronous>} {
  %cst = arith.constant 0.000000e+00 : f32
  %0 = tensor.empty() : tensor<4x4xf32>
  %1 = linalg.matmul ins(%arg0, %arg1 : tensor<4x4xf32>, tensor<4x4xf32>) outs(%0 : tensor<4x4xf32>) -> tensor<4x4xf32>
  %2 = linalg.generic {indexing_maps = [affine_map<(d0, d1) -> (d0, d1)>, affine_map<(d0, d1) -> (d0, d1)>], iterator_types = ["parallel", "parallel"]} ins(%1 : tensor<4x4xf32>) outs(%0 : tensor<4x4xf32>) {
  ^bb0(%in: f32, %out: f32):
    %3 = arith.maximumf %in, %cst : f32
    linalg.yield %3 : f32
  } -> tensor<4x4xf32>
  util.return %2 : tensor<4x4xf32>
}

// -----// IR Dump After Canonicalizer (canonicalize) //----- //
util.func public @matmul(%arg0: !hal.buffer_view, %arg1: !hal.buffer_view) -> !hal.buffer_view attributes {iree.abi.stub, iree.reflection = {iree.abi.declaration = "sync func @matmul(%input0: tensor<4x4xf32>, %input1: tensor<4x4xf32>) -> (%output0: tensor<4x4xf32>)"}} {
  %0 = hal.tensor.import %arg0 "input0" : !hal.buffer_view -> tensor<4x4xf32>
  %1 = hal.tensor.import %arg1 "input1" : !hal.buffer_view -> tensor<4x4xf32>
  %2 = util.call @_matmul(%0, %1) : (tensor<4x4xf32>, tensor<4x4xf32>) -> tensor<4x4xf32>
  %3 = hal.tensor.export %2 "output0" : tensor<4x4xf32> -> !hal.buffer_view
  util.return %3 : !hal.buffer_view
}

// -----// IR Dump After Canonicalizer (canonicalize) //----- //
util.func public @matmul(%arg0: !hal.buffer_view, %arg1: !hal.buffer_view) -> !hal.buffer_view attributes {iree.abi.stub, iree.reflection = {iree.abi.declaration = "sync func @matmul(%input0: tensor<4x4xf32>, %input1: tensor<4x4xf32>) -> (%output0: tensor<4x4xf32>)"}} {
  %cst = arith.constant 0.000000e+00 : f32
  %0 = hal.tensor.import %arg0 "input0" : !hal.buffer_view -> tensor<4x4xf32>
  %1 = hal.tensor.import %arg1 "input1" : !hal.buffer_view -> tensor<4x4xf32>
  %2 = tensor.empty() : tensor<4x4xf32>
  %3 = linalg.matmul ins(%0, %1 : tensor<4x4xf32>, tensor<4x4xf32>) outs(%2 : tensor<4x4xf32>) -> tensor<4x4xf32>
  %4 = linalg.generic {indexing_maps = [affine_map<(d0, d1) -> (d0, d1)>, affine_map<(d0, d1) -> (d0, d1)>], iterator_types = ["parallel", "parallel"]} ins(%3 : tensor<4x4xf32>) outs(%2 : tensor<4x4xf32>) {
  ^bb0(%in: f32, %out: f32):
    %6 = arith.maximumf %in, %cst : f32
    linalg.yield %6 : f32
  } -> tensor<4x4xf32>
  %5 = hal.tensor.export %4 "output0" : tensor<4x4xf32> -> !hal.buffer_view
  util.return %5 : !hal.buffer_view
}

// -----// IR Dump After Inliner (inline) //----- //
#map = affine_map<(d0, d1) -> (d0, d1)>
module {
  util.func public @matmul(%arg0: !hal.buffer_view, %arg1: !hal.buffer_view) -> !hal.buffer_view attributes {iree.abi.stub, iree.reflection = {iree.abi.declaration = "sync func @matmul(%input0: tensor<4x4xf32>, %input1: tensor<4x4xf32>) -> (%output0: tensor<4x4xf32>)"}} {
    %cst = arith.constant 0.000000e+00 : f32
    %0 = hal.tensor.import %arg0 "input0" : !hal.buffer_view -> tensor<4x4xf32>
    %1 = hal.tensor.import %arg1 "input1" : !hal.buffer_view -> tensor<4x4xf32>
    %2 = tensor.empty() : tensor<4x4xf32>
    %3 = linalg.matmul ins(%0, %1 : tensor<4x4xf32>, tensor<4x4xf32>) outs(%2 : tensor<4x4xf32>) -> tensor<4x4xf32>
    %4 = linalg.generic {indexing_maps = [#map, #map], iterator_types = ["parallel", "parallel"]} ins(%3 : tensor<4x4xf32>) outs(%2 : tensor<4x4xf32>) {
    ^bb0(%in: f32, %out: f32):
      %6 = arith.maximumf %in, %cst : f32
      linalg.yield %6 : f32
    } -> tensor<4x4xf32>
    %5 = hal.tensor.export %4 "output0" : tensor<4x4xf32> -> !hal.buffer_view
    util.return %5 : !hal.buffer_view
  }
}


// -----// IR Dump After Canonicalizer (canonicalize) //----- //
util.func public @matmul(%arg0: !hal.buffer_view, %arg1: !hal.buffer_view) -> !hal.buffer_view attributes {iree.abi.stub, iree.reflection = {iree.abi.declaration = "sync func @matmul(%input0: tensor<4x4xf32>, %input1: tensor<4x4xf32>) -> (%output0: tensor<4x4xf32>)"}} {
  %cst = arith.constant 0.000000e+00 : f32
  %0 = hal.tensor.import %arg0 "input0" : !hal.buffer_view -> tensor<4x4xf32>
  %1 = hal.tensor.import %arg1 "input1" : !hal.buffer_view -> tensor<4x4xf32>
  %2 = tensor.empty() : tensor<4x4xf32>
  %3 = linalg.matmul ins(%0, %1 : tensor<4x4xf32>, tensor<4x4xf32>) outs(%2 : tensor<4x4xf32>) -> tensor<4x4xf32>
  %4 = linalg.generic {indexing_maps = [affine_map<(d0, d1) -> (d0, d1)>, affine_map<(d0, d1) -> (d0, d1)>], iterator_types = ["parallel", "parallel"]} ins(%3 : tensor<4x4xf32>) outs(%2 : tensor<4x4xf32>) {
  ^bb0(%in: f32, %out: f32):
    %6 = arith.maximumf %in, %cst : f32
    linalg.yield %6 : f32
  } -> tensor<4x4xf32>
  %5 = hal.tensor.export %4 "output0" : tensor<4x4xf32> -> !hal.buffer_view
  util.return %5 : !hal.buffer_view
}

// -----// IR Dump After CSE (cse) //----- //
util.func public @matmul(%arg0: !hal.buffer_view, %arg1: !hal.buffer_view) -> !hal.buffer_view attributes {iree.abi.stub, iree.reflection = {iree.abi.declaration = "sync func @matmul(%input0: tensor<4x4xf32>, %input1: tensor<4x4xf32>) -> (%output0: tensor<4x4xf32>)"}} {
  %cst = arith.constant 0.000000e+00 : f32
  %0 = hal.tensor.import %arg0 "input0" : !hal.buffer_view -> tensor<4x4xf32>
  %1 = hal.tensor.import %arg1 "input1" : !hal.buffer_view -> tensor<4x4xf32>
  %2 = tensor.empty() : tensor<4x4xf32>
  %3 = linalg.matmul ins(%0, %1 : tensor<4x4xf32>, tensor<4x4xf32>) outs(%2 : tensor<4x4xf32>) -> tensor<4x4xf32>
  %4 = linalg.generic {indexing_maps = [affine_map<(d0, d1) -> (d0, d1)>, affine_map<(d0, d1) -> (d0, d1)>], iterator_types = ["parallel", "parallel"]} ins(%3 : tensor<4x4xf32>) outs(%2 : tensor<4x4xf32>) {
  ^bb0(%in: f32, %out: f32):
    %6 = arith.maximumf %in, %cst : f32
    linalg.yield %6 : f32
  } -> tensor<4x4xf32>
  %5 = hal.tensor.export %4 "output0" : tensor<4x4xf32> -> !hal.buffer_view
  util.return %5 : !hal.buffer_view
}

// -----// IR Dump After SymbolDCE (symbol-dce) //----- //
#map = affine_map<(d0, d1) -> (d0, d1)>
module {
  util.func public @matmul(%arg0: !hal.buffer_view, %arg1: !hal.buffer_view) -> !hal.buffer_view attributes {iree.abi.stub, iree.reflection = {iree.abi.declaration = "sync func @matmul(%input0: tensor<4x4xf32>, %input1: tensor<4x4xf32>) -> (%output0: tensor<4x4xf32>)"}} {
    %cst = arith.constant 0.000000e+00 : f32
    %0 = hal.tensor.import %arg0 "input0" : !hal.buffer_view -> tensor<4x4xf32>
    %1 = hal.tensor.import %arg1 "input1" : !hal.buffer_view -> tensor<4x4xf32>
    %2 = tensor.empty() : tensor<4x4xf32>
    %3 = linalg.matmul ins(%0, %1 : tensor<4x4xf32>, tensor<4x4xf32>) outs(%2 : tensor<4x4xf32>) -> tensor<4x4xf32>
    %4 = linalg.generic {indexing_maps = [#map, #map], iterator_types = ["parallel", "parallel"]} ins(%3 : tensor<4x4xf32>) outs(%2 : tensor<4x4xf32>) {
    ^bb0(%in: f32, %out: f32):
      %6 = arith.maximumf %in, %cst : f32
      linalg.yield %6 : f32
    } -> tensor<4x4xf32>
    %5 = hal.tensor.export %4 "output0" : tensor<4x4xf32> -> !hal.buffer_view
    util.return %5 : !hal.buffer_view
  }
}


// -----// IR Dump After AssignLegacyTargetDevicesPass (iree-hal-assign-legacy-target-devices) //----- //
#executable_target_embedded_elf_arm_64 = #hal.executable.target<"llvm-cpu", "embedded-elf-arm_64", {cpu = "", cpu_features = "+reserve-x18", data_layout = "e-m:e-p270:32:32-p271:32:32-p272:64:64-i8:8:32-i16:16:32-i64:64-i128:128-n32:64-S128-Fn32", iree.encoding.resolver = #iree_cpu.cpu_encoding_resolver<>, max_stack_allocation_size = 32768 : i64, native_vector_size = 16 : i64, target_triple = "arm64-unknown-unknown-eabi-elf"}>
#map = affine_map<(d0, d1) -> (d0, d1)>
#device_target_local = #hal.device.target<"local", [#executable_target_embedded_elf_arm_64]> : !hal.device
module attributes {hal.device.targets = [#device_target_local]} {
  util.func public @matmul(%arg0: !hal.buffer_view, %arg1: !hal.buffer_view) -> !hal.buffer_view attributes {iree.abi.stub, iree.reflection = {iree.abi.declaration = "sync func @matmul(%input0: tensor<4x4xf32>, %input1: tensor<4x4xf32>) -> (%output0: tensor<4x4xf32>)"}} {
    %cst = arith.constant 0.000000e+00 : f32
    %0 = hal.tensor.import %arg0 "input0" : !hal.buffer_view -> tensor<4x4xf32>
    %1 = hal.tensor.import %arg1 "input1" : !hal.buffer_view -> tensor<4x4xf32>
    %2 = tensor.empty() : tensor<4x4xf32>
    %3 = linalg.matmul ins(%0, %1 : tensor<4x4xf32>, tensor<4x4xf32>) outs(%2 : tensor<4x4xf32>) -> tensor<4x4xf32>
    %4 = linalg.generic {indexing_maps = [#map, #map], iterator_types = ["parallel", "parallel"]} ins(%3 : tensor<4x4xf32>) outs(%2 : tensor<4x4xf32>) {
    ^bb0(%in: f32, %out: f32):
      %6 = arith.maximumf %in, %cst : f32
      linalg.yield %6 : f32
    } -> tensor<4x4xf32>
    %5 = hal.tensor.export %4 "output0" : tensor<4x4xf32> -> !hal.buffer_view
    util.return %5 : !hal.buffer_view
  }
}


// -----// IR Dump After MaterializeTargetDevicesPass (iree-hal-materialize-target-devices) //----- //
#executable_target_embedded_elf_arm_64 = #hal.executable.target<"llvm-cpu", "embedded-elf-arm_64", {cpu = "", cpu_features = "+reserve-x18", data_layout = "e-m:e-p270:32:32-p271:32:32-p272:64:64-i8:8:32-i16:16:32-i64:64-i128:128-n32:64-S128-Fn32", iree.encoding.resolver = #iree_cpu.cpu_encoding_resolver<>, max_stack_allocation_size = 32768 : i64, native_vector_size = 16 : i64, target_triple = "arm64-unknown-unknown-eabi-elf"}>
#map = affine_map<(d0, d1) -> (d0, d1)>
#device_target_local = #hal.device.target<"local", [#executable_target_embedded_elf_arm_64]> : !hal.device
module attributes {stream.affinity.default = #hal.device.affinity<@__device_0>} {
  util.global private @__device_0 = #device_target_local
  util.func public @matmul(%arg0: !hal.buffer_view, %arg1: !hal.buffer_view) -> !hal.buffer_view attributes {iree.abi.stub, iree.reflection = {iree.abi.declaration = "sync func @matmul(%input0: tensor<4x4xf32>, %input1: tensor<4x4xf32>) -> (%output0: tensor<4x4xf32>)"}} {
    %cst = arith.constant 0.000000e+00 : f32
    %0 = hal.tensor.import %arg0 "input0" : !hal.buffer_view -> tensor<4x4xf32>
    %1 = hal.tensor.import %arg1 "input1" : !hal.buffer_view -> tensor<4x4xf32>
    %2 = tensor.empty() : tensor<4x4xf32>
    %3 = linalg.matmul ins(%0, %1 : tensor<4x4xf32>, tensor<4x4xf32>) outs(%2 : tensor<4x4xf32>) -> tensor<4x4xf32>
    %4 = linalg.generic {indexing_maps = [#map, #map], iterator_types = ["parallel", "parallel"]} ins(%3 : tensor<4x4xf32>) outs(%2 : tensor<4x4xf32>) {
    ^bb0(%in: f32, %out: f32):
      %6 = arith.maximumf %in, %cst : f32
      linalg.yield %6 : f32
    } -> tensor<4x4xf32>
    %5 = hal.tensor.export %4 "output0" : tensor<4x4xf32> -> !hal.buffer_view
    util.return %5 : !hal.buffer_view
  }
}


// -----// IR Dump After ResolveDevicePromisesPass (iree-hal-resolve-device-promises) //----- //
#executable_target_embedded_elf_arm_64 = #hal.executable.target<"llvm-cpu", "embedded-elf-arm_64", {cpu = "", cpu_features = "+reserve-x18", data_layout = "e-m:e-p270:32:32-p271:32:32-p272:64:64-i8:8:32-i16:16:32-i64:64-i128:128-n32:64-S128-Fn32", iree.encoding.resolver = #iree_cpu.cpu_encoding_resolver<>, max_stack_allocation_size = 32768 : i64, native_vector_size = 16 : i64, target_triple = "arm64-unknown-unknown-eabi-elf"}>
#map = affine_map<(d0, d1) -> (d0, d1)>
#device_target_local = #hal.device.target<"local", [#executable_target_embedded_elf_arm_64]> : !hal.device
module attributes {stream.affinity.default = #hal.device.affinity<@__device_0>} {
  util.global private @__device_0 = #device_target_local
  util.func public @matmul(%arg0: !hal.buffer_view, %arg1: !hal.buffer_view) -> !hal.buffer_view attributes {iree.abi.stub, iree.reflection = {iree.abi.declaration = "sync func @matmul(%input0: tensor<4x4xf32>, %input1: tensor<4x4xf32>) -> (%output0: tensor<4x4xf32>)"}} {
    %cst = arith.constant 0.000000e+00 : f32
    %0 = hal.tensor.import %arg0 "input0" : !hal.buffer_view -> tensor<4x4xf32>
    %1 = hal.tensor.import %arg1 "input1" : !hal.buffer_view -> tensor<4x4xf32>
    %2 = tensor.empty() : tensor<4x4xf32>
    %3 = linalg.matmul ins(%0, %1 : tensor<4x4xf32>, tensor<4x4xf32>) outs(%2 : tensor<4x4xf32>) -> tensor<4x4xf32>
    %4 = linalg.generic {indexing_maps = [#map, #map], iterator_types = ["parallel", "parallel"]} ins(%3 : tensor<4x4xf32>) outs(%2 : tensor<4x4xf32>) {
    ^bb0(%in: f32, %out: f32):
      %6 = arith.maximumf %in, %cst : f32
      linalg.yield %6 : f32
    } -> tensor<4x4xf32>
    %5 = hal.tensor.export %4 "output0" : tensor<4x4xf32> -> !hal.buffer_view
    util.return %5 : !hal.buffer_view
  }
}


// -----// IR Dump After ResolveDeviceAliasesPass (iree-hal-resolve-device-aliases) //----- //
#executable_target_embedded_elf_arm_64 = #hal.executable.target<"llvm-cpu", "embedded-elf-arm_64", {cpu = "", cpu_features = "+reserve-x18", data_layout = "e-m:e-p270:32:32-p271:32:32-p272:64:64-i8:8:32-i16:16:32-i64:64-i128:128-n32:64-S128-Fn32", iree.encoding.resolver = #iree_cpu.cpu_encoding_resolver<>, max_stack_allocation_size = 32768 : i64, native_vector_size = 16 : i64, target_triple = "arm64-unknown-unknown-eabi-elf"}>
#map = affine_map<(d0, d1) -> (d0, d1)>
#device_target_local = #hal.device.target<"local", [#executable_target_embedded_elf_arm_64]> : !hal.device
module attributes {stream.affinity.default = #hal.device.affinity<@__device_0>} {
  util.global private @__device_0 = #device_target_local
  util.func public @matmul(%arg0: !hal.buffer_view, %arg1: !hal.buffer_view) -> !hal.buffer_view attributes {iree.abi.stub, iree.reflection = {iree.abi.declaration = "sync func @matmul(%input0: tensor<4x4xf32>, %input1: tensor<4x4xf32>) -> (%output0: tensor<4x4xf32>)"}} {
    %cst = arith.constant 0.000000e+00 : f32
    %0 = hal.tensor.import %arg0 "input0" : !hal.buffer_view -> tensor<4x4xf32>
    %1 = hal.tensor.import %arg1 "input1" : !hal.buffer_view -> tensor<4x4xf32>
    %2 = tensor.empty() : tensor<4x4xf32>
    %3 = linalg.matmul ins(%0, %1 : tensor<4x4xf32>, tensor<4x4xf32>) outs(%2 : tensor<4x4xf32>) -> tensor<4x4xf32>
    %4 = linalg.generic {indexing_maps = [#map, #map], iterator_types = ["parallel", "parallel"]} ins(%3 : tensor<4x4xf32>) outs(%2 : tensor<4x4xf32>) {
    ^bb0(%in: f32, %out: f32):
      %6 = arith.maximumf %in, %cst : f32
      linalg.yield %6 : f32
    } -> tensor<4x4xf32>
    %5 = hal.tensor.export %4 "output0" : tensor<4x4xf32> -> !hal.buffer_view
    util.return %5 : !hal.buffer_view
  }
}


// -----// IR Dump After VerifyDevicesPass (iree-hal-verify-devices) //----- //
#executable_target_embedded_elf_arm_64 = #hal.executable.target<"llvm-cpu", "embedded-elf-arm_64", {cpu = "", cpu_features = "+reserve-x18", data_layout = "e-m:e-p270:32:32-p271:32:32-p272:64:64-i8:8:32-i16:16:32-i64:64-i128:128-n32:64-S128-Fn32", iree.encoding.resolver = #iree_cpu.cpu_encoding_resolver<>, max_stack_allocation_size = 32768 : i64, native_vector_size = 16 : i64, target_triple = "arm64-unknown-unknown-eabi-elf"}>
#map = affine_map<(d0, d1) -> (d0, d1)>
#device_target_local = #hal.device.target<"local", [#executable_target_embedded_elf_arm_64]> : !hal.device
module attributes {stream.affinity.default = #hal.device.affinity<@__device_0>} {
  util.global private @__device_0 = #device_target_local
  util.func public @matmul(%arg0: !hal.buffer_view, %arg1: !hal.buffer_view) -> !hal.buffer_view attributes {iree.abi.stub, iree.reflection = {iree.abi.declaration = "sync func @matmul(%input0: tensor<4x4xf32>, %input1: tensor<4x4xf32>) -> (%output0: tensor<4x4xf32>)"}} {
    %cst = arith.constant 0.000000e+00 : f32
    %0 = hal.tensor.import %arg0 "input0" : !hal.buffer_view -> tensor<4x4xf32>
    %1 = hal.tensor.import %arg1 "input1" : !hal.buffer_view -> tensor<4x4xf32>
    %2 = tensor.empty() : tensor<4x4xf32>
    %3 = linalg.matmul ins(%0, %1 : tensor<4x4xf32>, tensor<4x4xf32>) outs(%2 : tensor<4x4xf32>) -> tensor<4x4xf32>
    %4 = linalg.generic {indexing_maps = [#map, #map], iterator_types = ["parallel", "parallel"]} ins(%3 : tensor<4x4xf32>) outs(%2 : tensor<4x4xf32>) {
    ^bb0(%in: f32, %out: f32):
      %6 = arith.maximumf %in, %cst : f32
      linalg.yield %6 : f32
    } -> tensor<4x4xf32>
    %5 = hal.tensor.export %4 "output0" : tensor<4x4xf32> -> !hal.buffer_view
    util.return %5 : !hal.buffer_view
  }
}


// -----// IR Dump After AttrBasedPipelinePass (iree-preprocessing-attr-based-pipeline) //----- //
util.func public @matmul(%arg0: !hal.buffer_view, %arg1: !hal.buffer_view) -> !hal.buffer_view attributes {iree.abi.stub, iree.reflection = {iree.abi.declaration = "sync func @matmul(%input0: tensor<4x4xf32>, %input1: tensor<4x4xf32>) -> (%output0: tensor<4x4xf32>)"}} {
  %cst = arith.constant 0.000000e+00 : f32
  %0 = hal.tensor.import %arg0 "input0" : !hal.buffer_view -> tensor<4x4xf32>
  %1 = hal.tensor.import %arg1 "input1" : !hal.buffer_view -> tensor<4x4xf32>
  %2 = tensor.empty() : tensor<4x4xf32>
  %3 = linalg.matmul ins(%0, %1 : tensor<4x4xf32>, tensor<4x4xf32>) outs(%2 : tensor<4x4xf32>) -> tensor<4x4xf32>
  %4 = linalg.generic {indexing_maps = [affine_map<(d0, d1) -> (d0, d1)>, affine_map<(d0, d1) -> (d0, d1)>], iterator_types = ["parallel", "parallel"]} ins(%3 : tensor<4x4xf32>) outs(%2 : tensor<4x4xf32>) {
  ^bb0(%in: f32, %out: f32):
    %6 = arith.maximumf %in, %cst : f32
    linalg.yield %6 : f32
  } -> tensor<4x4xf32>
  %5 = hal.tensor.export %4 "output0" : tensor<4x4xf32> -> !hal.buffer_view
  util.return %5 : !hal.buffer_view
}

/Users/josephbak/scratch/matmul_relu.mlir:3:13: warning: reads uninitialized values from an operand produced by a tensor.empty op. To disable this warning, pass --iree-global-opt-enable-warn-on-uninitialized-values=false .
  %result = linalg.matmul ins(%a, %b : tensor<4x4xf32>, tensor<4x4xf32>)
            ^
/Users/josephbak/scratch/matmul_relu.mlir:1:1: note: called from
func.func @matmul(%a: tensor<4x4xf32>, %b: tensor<4x4xf32>) -> tensor<4x4xf32> {
^
/Users/josephbak/scratch/matmul_relu.mlir:3:13: note: see current operation: %3 = linalg.matmul ins(%0, %1 : tensor<4x4xf32>, tensor<4x4xf32>) outs(%2 : tensor<4x4xf32>) -> tensor<4x4xf32>
  %result = linalg.matmul ins(%a, %b : tensor<4x4xf32>, tensor<4x4xf32>)
            ^
// -----// IR Dump After WarnOnUninitializedValuesPass (iree-global-opt-warn-on-uninitialized-values) //----- //
util.func public @matmul(%arg0: !hal.buffer_view, %arg1: !hal.buffer_view) -> !hal.buffer_view attributes {iree.abi.stub, iree.reflection = {iree.abi.declaration = "sync func @matmul(%input0: tensor<4x4xf32>, %input1: tensor<4x4xf32>) -> (%output0: tensor<4x4xf32>)"}} {
  %cst = arith.constant 0.000000e+00 : f32
  %0 = hal.tensor.import %arg0 "input0" : !hal.buffer_view -> tensor<4x4xf32>
  %1 = hal.tensor.import %arg1 "input1" : !hal.buffer_view -> tensor<4x4xf32>
  %2 = tensor.empty() : tensor<4x4xf32>
  %3 = linalg.matmul ins(%0, %1 : tensor<4x4xf32>, tensor<4x4xf32>) outs(%2 : tensor<4x4xf32>) -> tensor<4x4xf32>
  %4 = linalg.generic {indexing_maps = [affine_map<(d0, d1) -> (d0, d1)>, affine_map<(d0, d1) -> (d0, d1)>], iterator_types = ["parallel", "parallel"]} ins(%3 : tensor<4x4xf32>) outs(%2 : tensor<4x4xf32>) {
  ^bb0(%in: f32, %out: f32):
    %6 = arith.maximumf %in, %cst : f32
    linalg.yield %6 : f32
  } -> tensor<4x4xf32>
  %5 = hal.tensor.export %4 "output0" : tensor<4x4xf32> -> !hal.buffer_view
  util.return %5 : !hal.buffer_view
}

// -----// IR Dump After OptimizeIntArithmeticPass (iree-util-optimize-int-arithmetic) //----- //
util.func public @matmul(%arg0: !hal.buffer_view, %arg1: !hal.buffer_view) -> !hal.buffer_view attributes {iree.abi.stub, iree.reflection = {iree.abi.declaration = "sync func @matmul(%input0: tensor<4x4xf32>, %input1: tensor<4x4xf32>) -> (%output0: tensor<4x4xf32>)"}} {
  %cst = arith.constant 0.000000e+00 : f32
  %0 = hal.tensor.import %arg0 "input0" : !hal.buffer_view -> tensor<4x4xf32>
  %1 = hal.tensor.import %arg1 "input1" : !hal.buffer_view -> tensor<4x4xf32>
  %2 = tensor.empty() : tensor<4x4xf32>
  %3 = linalg.matmul ins(%0, %1 : tensor<4x4xf32>, tensor<4x4xf32>) outs(%2 : tensor<4x4xf32>) -> tensor<4x4xf32>
  %4 = linalg.generic {indexing_maps = [affine_map<(d0, d1) -> (d0, d1)>, affine_map<(d0, d1) -> (d0, d1)>], iterator_types = ["parallel", "parallel"]} ins(%3 : tensor<4x4xf32>) outs(%2 : tensor<4x4xf32>) {
  ^bb0(%in: f32, %out: f32):
    %6 = arith.maximumf %in, %cst : f32
    linalg.yield %6 : f32
  } -> tensor<4x4xf32>
  %5 = hal.tensor.export %4 "output0" : tensor<4x4xf32> -> !hal.buffer_view
  util.return %5 : !hal.buffer_view
}

// -----// IR Dump After LinalgQuantizedConvToConvPass (iree-global-opt-quantized-conv-to-conv) //----- //
util.func public @matmul(%arg0: !hal.buffer_view, %arg1: !hal.buffer_view) -> !hal.buffer_view attributes {iree.abi.stub, iree.reflection = {iree.abi.declaration = "sync func @matmul(%input0: tensor<4x4xf32>, %input1: tensor<4x4xf32>) -> (%output0: tensor<4x4xf32>)"}} {
  %cst = arith.constant 0.000000e+00 : f32
  %0 = hal.tensor.import %arg0 "input0" : !hal.buffer_view -> tensor<4x4xf32>
  %1 = hal.tensor.import %arg1 "input1" : !hal.buffer_view -> tensor<4x4xf32>
  %2 = tensor.empty() : tensor<4x4xf32>
  %3 = linalg.matmul ins(%0, %1 : tensor<4x4xf32>, tensor<4x4xf32>) outs(%2 : tensor<4x4xf32>) -> tensor<4x4xf32>
  %4 = linalg.generic {indexing_maps = [affine_map<(d0, d1) -> (d0, d1)>, affine_map<(d0, d1) -> (d0, d1)>], iterator_types = ["parallel", "parallel"]} ins(%3 : tensor<4x4xf32>) outs(%2 : tensor<4x4xf32>) {
  ^bb0(%in: f32, %out: f32):
    %6 = arith.maximumf %in, %cst : f32
    linalg.yield %6 : f32
  } -> tensor<4x4xf32>
  %5 = hal.tensor.export %4 "output0" : tensor<4x4xf32> -> !hal.buffer_view
  util.return %5 : !hal.buffer_view
}

// -----// IR Dump After LinalgQuantizedMatmulToMatmulPass (iree-global-opt-quantized-matmul-to-matmul) //----- //
util.func public @matmul(%arg0: !hal.buffer_view, %arg1: !hal.buffer_view) -> !hal.buffer_view attributes {iree.abi.stub, iree.reflection = {iree.abi.declaration = "sync func @matmul(%input0: tensor<4x4xf32>, %input1: tensor<4x4xf32>) -> (%output0: tensor<4x4xf32>)"}} {
  %cst = arith.constant 0.000000e+00 : f32
  %0 = hal.tensor.import %arg0 "input0" : !hal.buffer_view -> tensor<4x4xf32>
  %1 = hal.tensor.import %arg1 "input1" : !hal.buffer_view -> tensor<4x4xf32>
  %2 = tensor.empty() : tensor<4x4xf32>
  %3 = linalg.matmul ins(%0, %1 : tensor<4x4xf32>, tensor<4x4xf32>) outs(%2 : tensor<4x4xf32>) -> tensor<4x4xf32>
  %4 = linalg.generic {indexing_maps = [affine_map<(d0, d1) -> (d0, d1)>, affine_map<(d0, d1) -> (d0, d1)>], iterator_types = ["parallel", "parallel"]} ins(%3 : tensor<4x4xf32>) outs(%2 : tensor<4x4xf32>) {
  ^bb0(%in: f32, %out: f32):
    %6 = arith.maximumf %in, %cst : f32
    linalg.yield %6 : f32
  } -> tensor<4x4xf32>
  %5 = hal.tensor.export %4 "output0" : tensor<4x4xf32> -> !hal.buffer_view
  util.return %5 : !hal.buffer_view
}

// -----// IR Dump After CanonicalizePass (iree-flow-canonicalize) //----- //
util.func public @matmul(%arg0: !hal.buffer_view, %arg1: !hal.buffer_view) -> !hal.buffer_view attributes {iree.abi.stub, iree.reflection = {iree.abi.declaration = "sync func @matmul(%input0: tensor<4x4xf32>, %input1: tensor<4x4xf32>) -> (%output0: tensor<4x4xf32>)"}} {
  %cst = arith.constant 0.000000e+00 : f32
  %0 = hal.tensor.import %arg0 "input0" : !hal.buffer_view -> tensor<4x4xf32>
  %1 = hal.tensor.import %arg1 "input1" : !hal.buffer_view -> tensor<4x4xf32>
  %2 = tensor.empty() : tensor<4x4xf32>
  %3 = linalg.matmul ins(%0, %1 : tensor<4x4xf32>, tensor<4x4xf32>) outs(%2 : tensor<4x4xf32>) -> tensor<4x4xf32>
  %4 = linalg.generic {indexing_maps = [affine_map<(d0, d1) -> (d0, d1)>, affine_map<(d0, d1) -> (d0, d1)>], iterator_types = ["parallel", "parallel"]} ins(%3 : tensor<4x4xf32>) outs(%2 : tensor<4x4xf32>) {
  ^bb0(%in: f32, %out: f32):
    %6 = arith.maximumf %in, %cst : f32
    linalg.yield %6 : f32
  } -> tensor<4x4xf32>
  %5 = hal.tensor.export %4 "output0" : tensor<4x4xf32> -> !hal.buffer_view
  util.return %5 : !hal.buffer_view
}

// -----// IR Dump After RemoveZeroExtentTensorsPass (iree-global-opt-remove-zero-extent-tensors) //----- //
util.func public @matmul(%arg0: !hal.buffer_view, %arg1: !hal.buffer_view) -> !hal.buffer_view attributes {iree.abi.stub, iree.reflection = {iree.abi.declaration = "sync func @matmul(%input0: tensor<4x4xf32>, %input1: tensor<4x4xf32>) -> (%output0: tensor<4x4xf32>)"}} {
  %cst = arith.constant 0.000000e+00 : f32
  %0 = hal.tensor.import %arg0 "input0" : !hal.buffer_view -> tensor<4x4xf32>
  %1 = hal.tensor.import %arg1 "input1" : !hal.buffer_view -> tensor<4x4xf32>
  %2 = tensor.empty() : tensor<4x4xf32>
  %3 = linalg.matmul ins(%0, %1 : tensor<4x4xf32>, tensor<4x4xf32>) outs(%2 : tensor<4x4xf32>) -> tensor<4x4xf32>
  %4 = linalg.generic {indexing_maps = [affine_map<(d0, d1) -> (d0, d1)>, affine_map<(d0, d1) -> (d0, d1)>], iterator_types = ["parallel", "parallel"]} ins(%3 : tensor<4x4xf32>) outs(%2 : tensor<4x4xf32>) {
  ^bb0(%in: f32, %out: f32):
    %6 = arith.maximumf %in, %cst : f32
    linalg.yield %6 : f32
  } -> tensor<4x4xf32>
  %5 = hal.tensor.export %4 "output0" : tensor<4x4xf32> -> !hal.buffer_view
  util.return %5 : !hal.buffer_view
}

// -----// IR Dump After DetachElementwiseFromNamedOpsPass (iree-global-opt-detach-elementwise-from-named-ops) //----- //
util.func public @matmul(%arg0: !hal.buffer_view, %arg1: !hal.buffer_view) -> !hal.buffer_view attributes {iree.abi.stub, iree.reflection = {iree.abi.declaration = "sync func @matmul(%input0: tensor<4x4xf32>, %input1: tensor<4x4xf32>) -> (%output0: tensor<4x4xf32>)"}} {
  %cst = arith.constant 0.000000e+00 : f32
  %0 = hal.tensor.import %arg0 "input0" : !hal.buffer_view -> tensor<4x4xf32>
  %1 = hal.tensor.import %arg1 "input1" : !hal.buffer_view -> tensor<4x4xf32>
  %2 = tensor.empty() : tensor<4x4xf32>
  %3 = linalg.matmul ins(%0, %1 : tensor<4x4xf32>, tensor<4x4xf32>) outs(%2 : tensor<4x4xf32>) -> tensor<4x4xf32>
  %4 = linalg.generic {indexing_maps = [affine_map<(d0, d1) -> (d0, d1)>, affine_map<(d0, d1) -> (d0, d1)>], iterator_types = ["parallel", "parallel"]} ins(%3 : tensor<4x4xf32>) outs(%2 : tensor<4x4xf32>) {
  ^bb0(%in: f32, %out: f32):
    %6 = arith.maximumf %in, %cst : f32
    linalg.yield %6 : f32
  } -> tensor<4x4xf32>
  %5 = hal.tensor.export %4 "output0" : tensor<4x4xf32> -> !hal.buffer_view
  util.return %5 : !hal.buffer_view
}

// -----// IR Dump After SimplifyDepthwiseConvPass (simplify-depthwise-conv) //----- //
util.func public @matmul(%arg0: !hal.buffer_view, %arg1: !hal.buffer_view) -> !hal.buffer_view attributes {iree.abi.stub, iree.reflection = {iree.abi.declaration = "sync func @matmul(%input0: tensor<4x4xf32>, %input1: tensor<4x4xf32>) -> (%output0: tensor<4x4xf32>)"}} {
  %cst = arith.constant 0.000000e+00 : f32
  %0 = hal.tensor.import %arg0 "input0" : !hal.buffer_view -> tensor<4x4xf32>
  %1 = hal.tensor.import %arg1 "input1" : !hal.buffer_view -> tensor<4x4xf32>
  %2 = tensor.empty() : tensor<4x4xf32>
  %3 = linalg.matmul ins(%0, %1 : tensor<4x4xf32>, tensor<4x4xf32>) outs(%2 : tensor<4x4xf32>) -> tensor<4x4xf32>
  %4 = linalg.generic {indexing_maps = [affine_map<(d0, d1) -> (d0, d1)>, affine_map<(d0, d1) -> (d0, d1)>], iterator_types = ["parallel", "parallel"]} ins(%3 : tensor<4x4xf32>) outs(%2 : tensor<4x4xf32>) {
  ^bb0(%in: f32, %out: f32):
    %6 = arith.maximumf %in, %cst : f32
    linalg.yield %6 : f32
  } -> tensor<4x4xf32>
  %5 = hal.tensor.export %4 "output0" : tensor<4x4xf32> -> !hal.buffer_view
  util.return %5 : !hal.buffer_view
}

// -----// IR Dump After EraseUnusedLinalgOperandsPass (iree-global-opt-erase-unused-linalg-operands) //----- //
#executable_target_embedded_elf_arm_64 = #hal.executable.target<"llvm-cpu", "embedded-elf-arm_64", {cpu = "", cpu_features = "+reserve-x18", data_layout = "e-m:e-p270:32:32-p271:32:32-p272:64:64-i8:8:32-i16:16:32-i64:64-i128:128-n32:64-S128-Fn32", iree.encoding.resolver = #iree_cpu.cpu_encoding_resolver<>, max_stack_allocation_size = 32768 : i64, native_vector_size = 16 : i64, target_triple = "arm64-unknown-unknown-eabi-elf"}>
#map = affine_map<(d0, d1) -> (d0, d1)>
#device_target_local = #hal.device.target<"local", [#executable_target_embedded_elf_arm_64]> : !hal.device
module attributes {stream.affinity.default = #hal.device.affinity<@__device_0>} {
  util.global private @__device_0 = #device_target_local
  util.func public @matmul(%arg0: !hal.buffer_view, %arg1: !hal.buffer_view) -> !hal.buffer_view attributes {iree.abi.stub, iree.reflection = {iree.abi.declaration = "sync func @matmul(%input0: tensor<4x4xf32>, %input1: tensor<4x4xf32>) -> (%output0: tensor<4x4xf32>)"}} {
    %cst = arith.constant 0.000000e+00 : f32
    %0 = hal.tensor.import %arg0 "input0" : !hal.buffer_view -> tensor<4x4xf32>
    %1 = hal.tensor.import %arg1 "input1" : !hal.buffer_view -> tensor<4x4xf32>
    %2 = tensor.empty() : tensor<4x4xf32>
    %3 = linalg.matmul ins(%0, %1 : tensor<4x4xf32>, tensor<4x4xf32>) outs(%2 : tensor<4x4xf32>) -> tensor<4x4xf32>
    %4 = linalg.generic {indexing_maps = [#map, #map], iterator_types = ["parallel", "parallel"]} ins(%3 : tensor<4x4xf32>) outs(%2 : tensor<4x4xf32>) {
    ^bb0(%in: f32, %out: f32):
      %6 = arith.maximumf %in, %cst : f32
      linalg.yield %6 : f32
    } -> tensor<4x4xf32>
    %5 = hal.tensor.export %4 "output0" : tensor<4x4xf32> -> !hal.buffer_view
    util.return %5 : !hal.buffer_view
  }
}


// -----// IR Dump After ExpandTensorShapesPass (iree-global-opt-expand-tensor-shapes) //----- //
#executable_target_embedded_elf_arm_64 = #hal.executable.target<"llvm-cpu", "embedded-elf-arm_64", {cpu = "", cpu_features = "+reserve-x18", data_layout = "e-m:e-p270:32:32-p271:32:32-p272:64:64-i8:8:32-i16:16:32-i64:64-i128:128-n32:64-S128-Fn32", iree.encoding.resolver = #iree_cpu.cpu_encoding_resolver<>, max_stack_allocation_size = 32768 : i64, native_vector_size = 16 : i64, target_triple = "arm64-unknown-unknown-eabi-elf"}>
#map = affine_map<(d0, d1) -> (d0, d1)>
#device_target_local = #hal.device.target<"local", [#executable_target_embedded_elf_arm_64]> : !hal.device
module attributes {stream.affinity.default = #hal.device.affinity<@__device_0>} {
  util.global private @__device_0 = #device_target_local
  util.func public @matmul(%arg0: !hal.buffer_view, %arg1: !hal.buffer_view) -> !hal.buffer_view attributes {iree.abi.stub, iree.reflection = {iree.abi.declaration = "sync func @matmul(%input0: tensor<4x4xf32>, %input1: tensor<4x4xf32>) -> (%output0: tensor<4x4xf32>)"}} {
    %cst = arith.constant 0.000000e+00 : f32
    %0 = hal.tensor.import %arg0 "input0" : !hal.buffer_view -> tensor<4x4xf32>
    %1 = hal.tensor.import %arg1 "input1" : !hal.buffer_view -> tensor<4x4xf32>
    %2 = tensor.empty() : tensor<4x4xf32>
    %3 = linalg.matmul ins(%0, %1 : tensor<4x4xf32>, tensor<4x4xf32>) outs(%2 : tensor<4x4xf32>) -> tensor<4x4xf32>
    %4 = linalg.generic {indexing_maps = [#map, #map], iterator_types = ["parallel", "parallel"]} ins(%3 : tensor<4x4xf32>) outs(%2 : tensor<4x4xf32>) {
    ^bb0(%in: f32, %out: f32):
      %6 = arith.maximumf %in, %cst : f32
      linalg.yield %6 : f32
    } -> tensor<4x4xf32>
    %5 = hal.tensor.export %4 "output0" : tensor<4x4xf32> -> !hal.buffer_view
    util.return %5 : !hal.buffer_view
  }
}


// -----// IR Dump After ConvertElementwiseToLinalgPass (convert-elementwise-to-linalg) //----- //
util.func public @matmul(%arg0: !hal.buffer_view, %arg1: !hal.buffer_view) -> !hal.buffer_view attributes {iree.abi.stub, iree.reflection = {iree.abi.declaration = "sync func @matmul(%input0: tensor<4x4xf32>, %input1: tensor<4x4xf32>) -> (%output0: tensor<4x4xf32>)"}} {
  %cst = arith.constant 0.000000e+00 : f32
  %0 = hal.tensor.import %arg0 "input0" : !hal.buffer_view -> tensor<4x4xf32>
  %1 = hal.tensor.import %arg1 "input1" : !hal.buffer_view -> tensor<4x4xf32>
  %2 = tensor.empty() : tensor<4x4xf32>
  %3 = linalg.matmul ins(%0, %1 : tensor<4x4xf32>, tensor<4x4xf32>) outs(%2 : tensor<4x4xf32>) -> tensor<4x4xf32>
  %4 = linalg.generic {indexing_maps = [affine_map<(d0, d1) -> (d0, d1)>, affine_map<(d0, d1) -> (d0, d1)>], iterator_types = ["parallel", "parallel"]} ins(%3 : tensor<4x4xf32>) outs(%2 : tensor<4x4xf32>) {
  ^bb0(%in: f32, %out: f32):
    %6 = arith.maximumf %in, %cst : f32
    linalg.yield %6 : f32
  } -> tensor<4x4xf32>
  %5 = hal.tensor.export %4 "output0" : tensor<4x4xf32> -> !hal.buffer_view
  util.return %5 : !hal.buffer_view
}

// -----// IR Dump After RaiseSpecialOpsPass (iree-global-opt-raise-special-ops) //----- //
util.func public @matmul(%arg0: !hal.buffer_view, %arg1: !hal.buffer_view) -> !hal.buffer_view attributes {iree.abi.stub, iree.reflection = {iree.abi.declaration = "sync func @matmul(%input0: tensor<4x4xf32>, %input1: tensor<4x4xf32>) -> (%output0: tensor<4x4xf32>)"}} {
  %cst = arith.constant 0.000000e+00 : f32
  %0 = hal.tensor.import %arg0 "input0" : !hal.buffer_view -> tensor<4x4xf32>
  %1 = hal.tensor.import %arg1 "input1" : !hal.buffer_view -> tensor<4x4xf32>
  %2 = tensor.empty() : tensor<4x4xf32>
  %3 = linalg.matmul ins(%0, %1 : tensor<4x4xf32>, tensor<4x4xf32>) outs(%2 : tensor<4x4xf32>) -> tensor<4x4xf32>
  %4 = linalg.generic {indexing_maps = [affine_map<(d0, d1) -> (d0, d1)>, affine_map<(d0, d1) -> (d0, d1)>], iterator_types = ["parallel", "parallel"]} ins(%3 : tensor<4x4xf32>) outs(%2 : tensor<4x4xf32>) {
  ^bb0(%in: f32, %out: f32):
    %6 = arith.maximumf %in, %cst : f32
    linalg.yield %6 : f32
  } -> tensor<4x4xf32>
  %5 = hal.tensor.export %4 "output0" : tensor<4x4xf32> -> !hal.buffer_view
  util.return %5 : !hal.buffer_view
}

// -----// IR Dump After DecomposeConcatPass (iree-global-opt-decompose-concat) //----- //
util.func public @matmul(%arg0: !hal.buffer_view, %arg1: !hal.buffer_view) -> !hal.buffer_view attributes {iree.abi.stub, iree.reflection = {iree.abi.declaration = "sync func @matmul(%input0: tensor<4x4xf32>, %input1: tensor<4x4xf32>) -> (%output0: tensor<4x4xf32>)"}} {
  %cst = arith.constant 0.000000e+00 : f32
  %0 = hal.tensor.import %arg0 "input0" : !hal.buffer_view -> tensor<4x4xf32>
  %1 = hal.tensor.import %arg1 "input1" : !hal.buffer_view -> tensor<4x4xf32>
  %2 = tensor.empty() : tensor<4x4xf32>
  %3 = linalg.matmul ins(%0, %1 : tensor<4x4xf32>, tensor<4x4xf32>) outs(%2 : tensor<4x4xf32>) -> tensor<4x4xf32>
  %4 = linalg.generic {indexing_maps = [affine_map<(d0, d1) -> (d0, d1)>, affine_map<(d0, d1) -> (d0, d1)>], iterator_types = ["parallel", "parallel"]} ins(%3 : tensor<4x4xf32>) outs(%2 : tensor<4x4xf32>) {
  ^bb0(%in: f32, %out: f32):
    %6 = arith.maximumf %in, %cst : f32
    linalg.yield %6 : f32
  } -> tensor<4x4xf32>
  %5 = hal.tensor.export %4 "output0" : tensor<4x4xf32> -> !hal.buffer_view
  util.return %5 : !hal.buffer_view
}

// -----// IR Dump After GeneralizeLinalgNamedOpsPass (iree-global-opt-generalize-linalg-named-ops) //----- //
util.func public @matmul(%arg0: !hal.buffer_view, %arg1: !hal.buffer_view) -> !hal.buffer_view attributes {iree.abi.stub, iree.reflection = {iree.abi.declaration = "sync func @matmul(%input0: tensor<4x4xf32>, %input1: tensor<4x4xf32>) -> (%output0: tensor<4x4xf32>)"}} {
  %cst = arith.constant 0.000000e+00 : f32
  %0 = hal.tensor.import %arg0 "input0" : !hal.buffer_view -> tensor<4x4xf32>
  %1 = hal.tensor.import %arg1 "input1" : !hal.buffer_view -> tensor<4x4xf32>
  %2 = tensor.empty() : tensor<4x4xf32>
  %3 = linalg.matmul ins(%0, %1 : tensor<4x4xf32>, tensor<4x4xf32>) outs(%2 : tensor<4x4xf32>) -> tensor<4x4xf32>
  %4 = linalg.generic {indexing_maps = [affine_map<(d0, d1) -> (d0, d1)>, affine_map<(d0, d1) -> (d0, d1)>], iterator_types = ["parallel", "parallel"]} ins(%3 : tensor<4x4xf32>) outs(%2 : tensor<4x4xf32>) {
  ^bb0(%in: f32, %out: f32):
    %6 = arith.maximumf %in, %cst : f32
    linalg.yield %6 : f32
  } -> tensor<4x4xf32>
  %5 = hal.tensor.export %4 "output0" : tensor<4x4xf32> -> !hal.buffer_view
  util.return %5 : !hal.buffer_view
}

// -----// IR Dump After InsertTensorBarriersPass (iree-dispatch-creation-insert-tensor-barriers) //----- //
util.func public @matmul(%arg0: !hal.buffer_view, %arg1: !hal.buffer_view) -> !hal.buffer_view attributes {iree.abi.stub, iree.reflection = {iree.abi.declaration = "sync func @matmul(%input0: tensor<4x4xf32>, %input1: tensor<4x4xf32>) -> (%output0: tensor<4x4xf32>)"}} {
  %cst = arith.constant 0.000000e+00 : f32
  %0 = hal.tensor.import %arg0 "input0" : !hal.buffer_view -> tensor<4x4xf32>
  %1 = iree_tensor_ext.compute_barrier.start %0 : tensor<4x4xf32> -> tensor<4x4xf32>
  %2 = hal.tensor.import %arg1 "input1" : !hal.buffer_view -> tensor<4x4xf32>
  %3 = iree_tensor_ext.compute_barrier.start %2 : tensor<4x4xf32> -> tensor<4x4xf32>
  %4 = tensor.empty() : tensor<4x4xf32>
  %5 = linalg.matmul ins(%1, %3 : tensor<4x4xf32>, tensor<4x4xf32>) outs(%4 : tensor<4x4xf32>) -> tensor<4x4xf32>
  %6 = linalg.generic {indexing_maps = [affine_map<(d0, d1) -> (d0, d1)>, affine_map<(d0, d1) -> (d0, d1)>], iterator_types = ["parallel", "parallel"]} ins(%5 : tensor<4x4xf32>) outs(%4 : tensor<4x4xf32>) {
  ^bb0(%in: f32, %out: f32):
    %9 = arith.maximumf %in, %cst : f32
    linalg.yield %9 : f32
  } -> tensor<4x4xf32>
  %7 = iree_tensor_ext.compute_barrier.end %6 : tensor<4x4xf32> -> tensor<4x4xf32>
  %8 = hal.tensor.export %7 "output0" : tensor<4x4xf32> -> !hal.buffer_view
  util.return %8 : !hal.buffer_view
}

// -----// IR Dump After FoldUnitExtentDimsPass (iree-dispatch-creation-fold-unit-extent-dims) //----- //
#executable_target_embedded_elf_arm_64 = #hal.executable.target<"llvm-cpu", "embedded-elf-arm_64", {cpu = "", cpu_features = "+reserve-x18", data_layout = "e-m:e-p270:32:32-p271:32:32-p272:64:64-i8:8:32-i16:16:32-i64:64-i128:128-n32:64-S128-Fn32", iree.encoding.resolver = #iree_cpu.cpu_encoding_resolver<>, max_stack_allocation_size = 32768 : i64, native_vector_size = 16 : i64, target_triple = "arm64-unknown-unknown-eabi-elf"}>
#map = affine_map<(d0, d1) -> (d0, d1)>
#device_target_local = #hal.device.target<"local", [#executable_target_embedded_elf_arm_64]> : !hal.device
module attributes {stream.affinity.default = #hal.device.affinity<@__device_0>} {
  util.global private @__device_0 = #device_target_local
  util.func public @matmul(%arg0: !hal.buffer_view, %arg1: !hal.buffer_view) -> !hal.buffer_view attributes {iree.abi.stub, iree.reflection = {iree.abi.declaration = "sync func @matmul(%input0: tensor<4x4xf32>, %input1: tensor<4x4xf32>) -> (%output0: tensor<4x4xf32>)"}} {
    %cst = arith.constant 0.000000e+00 : f32
    %0 = hal.tensor.import %arg0 "input0" : !hal.buffer_view -> tensor<4x4xf32>
    %1 = iree_tensor_ext.compute_barrier.start %0 : tensor<4x4xf32> -> tensor<4x4xf32>
    %2 = hal.tensor.import %arg1 "input1" : !hal.buffer_view -> tensor<4x4xf32>
    %3 = iree_tensor_ext.compute_barrier.start %2 : tensor<4x4xf32> -> tensor<4x4xf32>
    %4 = tensor.empty() : tensor<4x4xf32>
    %5 = linalg.matmul ins(%1, %3 : tensor<4x4xf32>, tensor<4x4xf32>) outs(%4 : tensor<4x4xf32>) -> tensor<4x4xf32>
    %6 = linalg.generic {indexing_maps = [#map, #map], iterator_types = ["parallel", "parallel"]} ins(%5 : tensor<4x4xf32>) outs(%4 : tensor<4x4xf32>) {
    ^bb0(%in: f32, %out: f32):
      %9 = arith.maximumf %in, %cst : f32
      linalg.yield %9 : f32
    } -> tensor<4x4xf32>
    %7 = iree_tensor_ext.compute_barrier.end %6 : tensor<4x4xf32> -> tensor<4x4xf32>
    %8 = hal.tensor.export %7 "output0" : tensor<4x4xf32> -> !hal.buffer_view
    util.return %8 : !hal.buffer_view
  }
}


// -----// IR Dump After FoldReshapesIntoTensorBarriersPass (iree-dispatch-creation-fold-reshapes-into-tensor-barriers) //----- //
util.func public @matmul(%arg0: !hal.buffer_view, %arg1: !hal.buffer_view) -> !hal.buffer_view attributes {iree.abi.stub, iree.reflection = {iree.abi.declaration = "sync func @matmul(%input0: tensor<4x4xf32>, %input1: tensor<4x4xf32>) -> (%output0: tensor<4x4xf32>)"}} {
  %cst = arith.constant 0.000000e+00 : f32
  %0 = hal.tensor.import %arg0 "input0" : !hal.buffer_view -> tensor<4x4xf32>
  %1 = iree_tensor_ext.compute_barrier.start %0 : tensor<4x4xf32> -> tensor<4x4xf32>
  %2 = hal.tensor.import %arg1 "input1" : !hal.buffer_view -> tensor<4x4xf32>
  %3 = iree_tensor_ext.compute_barrier.start %2 : tensor<4x4xf32> -> tensor<4x4xf32>
  %4 = tensor.empty() : tensor<4x4xf32>
  %5 = linalg.matmul ins(%1, %3 : tensor<4x4xf32>, tensor<4x4xf32>) outs(%4 : tensor<4x4xf32>) -> tensor<4x4xf32>
  %6 = linalg.generic {indexing_maps = [affine_map<(d0, d1) -> (d0, d1)>, affine_map<(d0, d1) -> (d0, d1)>], iterator_types = ["parallel", "parallel"]} ins(%5 : tensor<4x4xf32>) outs(%4 : tensor<4x4xf32>) {
  ^bb0(%in: f32, %out: f32):
    %9 = arith.maximumf %in, %cst : f32
    linalg.yield %9 : f32
  } -> tensor<4x4xf32>
  %7 = iree_tensor_ext.compute_barrier.end %6 : tensor<4x4xf32> -> tensor<4x4xf32>
  %8 = hal.tensor.export %7 "output0" : tensor<4x4xf32> -> !hal.buffer_view
  util.return %8 : !hal.buffer_view
}

// -----// IR Dump After DemoteContractionInputsToBF16Pass (iree-global-opt-demote-contraction-inputs-to-bf16) //----- //
util.func public @matmul(%arg0: !hal.buffer_view, %arg1: !hal.buffer_view) -> !hal.buffer_view attributes {iree.abi.stub, iree.reflection = {iree.abi.declaration = "sync func @matmul(%input0: tensor<4x4xf32>, %input1: tensor<4x4xf32>) -> (%output0: tensor<4x4xf32>)"}} {
  %cst = arith.constant 0.000000e+00 : f32
  %0 = hal.tensor.import %arg0 "input0" : !hal.buffer_view -> tensor<4x4xf32>
  %1 = iree_tensor_ext.compute_barrier.start %0 : tensor<4x4xf32> -> tensor<4x4xf32>
  %2 = hal.tensor.import %arg1 "input1" : !hal.buffer_view -> tensor<4x4xf32>
  %3 = iree_tensor_ext.compute_barrier.start %2 : tensor<4x4xf32> -> tensor<4x4xf32>
  %4 = tensor.empty() : tensor<4x4xf32>
  %5 = linalg.matmul ins(%1, %3 : tensor<4x4xf32>, tensor<4x4xf32>) outs(%4 : tensor<4x4xf32>) -> tensor<4x4xf32>
  %6 = linalg.generic {indexing_maps = [affine_map<(d0, d1) -> (d0, d1)>, affine_map<(d0, d1) -> (d0, d1)>], iterator_types = ["parallel", "parallel"]} ins(%5 : tensor<4x4xf32>) outs(%4 : tensor<4x4xf32>) {
  ^bb0(%in: f32, %out: f32):
    %9 = arith.maximumf %in, %cst : f32
    linalg.yield %9 : f32
  } -> tensor<4x4xf32>
  %7 = iree_tensor_ext.compute_barrier.end %6 : tensor<4x4xf32> -> tensor<4x4xf32>
  %8 = hal.tensor.export %7 "output0" : tensor<4x4xf32> -> !hal.buffer_view
  util.return %8 : !hal.buffer_view
}

// -----// IR Dump After CanonicalizePass (iree-flow-canonicalize) //----- //
util.func public @matmul(%arg0: !hal.buffer_view, %arg1: !hal.buffer_view) -> !hal.buffer_view attributes {iree.abi.stub, iree.reflection = {iree.abi.declaration = "sync func @matmul(%input0: tensor<4x4xf32>, %input1: tensor<4x4xf32>) -> (%output0: tensor<4x4xf32>)"}} {
  %cst = arith.constant 0.000000e+00 : f32
  %0 = hal.tensor.import %arg0 "input0" : !hal.buffer_view -> tensor<4x4xf32>
  %1 = iree_tensor_ext.compute_barrier.start %0 : tensor<4x4xf32> -> tensor<4x4xf32>
  %2 = hal.tensor.import %arg1 "input1" : !hal.buffer_view -> tensor<4x4xf32>
  %3 = iree_tensor_ext.compute_barrier.start %2 : tensor<4x4xf32> -> tensor<4x4xf32>
  %4 = tensor.empty() : tensor<4x4xf32>
  %5 = linalg.matmul ins(%1, %3 : tensor<4x4xf32>, tensor<4x4xf32>) outs(%4 : tensor<4x4xf32>) -> tensor<4x4xf32>
  %6 = linalg.generic {indexing_maps = [affine_map<(d0, d1) -> (d0, d1)>, affine_map<(d0, d1) -> (d0, d1)>], iterator_types = ["parallel", "parallel"]} ins(%5 : tensor<4x4xf32>) outs(%4 : tensor<4x4xf32>) {
  ^bb0(%in: f32, %out: f32):
    %9 = arith.maximumf %in, %cst : f32
    linalg.yield %9 : f32
  } -> tensor<4x4xf32>
  %7 = iree_tensor_ext.compute_barrier.end %6 : tensor<4x4xf32> -> tensor<4x4xf32>
  %8 = hal.tensor.export %7 "output0" : tensor<4x4xf32> -> !hal.buffer_view
  util.return %8 : !hal.buffer_view
}

// -----// IR Dump After CSE (cse) //----- //
util.func public @matmul(%arg0: !hal.buffer_view, %arg1: !hal.buffer_view) -> !hal.buffer_view attributes {iree.abi.stub, iree.reflection = {iree.abi.declaration = "sync func @matmul(%input0: tensor<4x4xf32>, %input1: tensor<4x4xf32>) -> (%output0: tensor<4x4xf32>)"}} {
  %cst = arith.constant 0.000000e+00 : f32
  %0 = hal.tensor.import %arg0 "input0" : !hal.buffer_view -> tensor<4x4xf32>
  %1 = iree_tensor_ext.compute_barrier.start %0 : tensor<4x4xf32> -> tensor<4x4xf32>
  %2 = hal.tensor.import %arg1 "input1" : !hal.buffer_view -> tensor<4x4xf32>
  %3 = iree_tensor_ext.compute_barrier.start %2 : tensor<4x4xf32> -> tensor<4x4xf32>
  %4 = tensor.empty() : tensor<4x4xf32>
  %5 = linalg.matmul ins(%1, %3 : tensor<4x4xf32>, tensor<4x4xf32>) outs(%4 : tensor<4x4xf32>) -> tensor<4x4xf32>
  %6 = linalg.generic {indexing_maps = [affine_map<(d0, d1) -> (d0, d1)>, affine_map<(d0, d1) -> (d0, d1)>], iterator_types = ["parallel", "parallel"]} ins(%5 : tensor<4x4xf32>) outs(%4 : tensor<4x4xf32>) {
  ^bb0(%in: f32, %out: f32):
    %9 = arith.maximumf %in, %cst : f32
    linalg.yield %9 : f32
  } -> tensor<4x4xf32>
  %7 = iree_tensor_ext.compute_barrier.end %6 : tensor<4x4xf32> -> tensor<4x4xf32>
  %8 = hal.tensor.export %7 "output0" : tensor<4x4xf32> -> !hal.buffer_view
  util.return %8 : !hal.buffer_view
}

// -----// IR Dump After PropagateLinalgTransposePass (iree-global-opt-propagate-linalg-transpose) //----- //
util.func public @matmul(%arg0: !hal.buffer_view, %arg1: !hal.buffer_view) -> !hal.buffer_view attributes {iree.abi.stub, iree.reflection = {iree.abi.declaration = "sync func @matmul(%input0: tensor<4x4xf32>, %input1: tensor<4x4xf32>) -> (%output0: tensor<4x4xf32>)"}} {
  %cst = arith.constant 0.000000e+00 : f32
  %0 = hal.tensor.import %arg0 "input0" : !hal.buffer_view -> tensor<4x4xf32>
  %1 = iree_tensor_ext.compute_barrier.start %0 : tensor<4x4xf32> -> tensor<4x4xf32>
  %2 = hal.tensor.import %arg1 "input1" : !hal.buffer_view -> tensor<4x4xf32>
  %3 = iree_tensor_ext.compute_barrier.start %2 : tensor<4x4xf32> -> tensor<4x4xf32>
  %4 = tensor.empty() : tensor<4x4xf32>
  %5 = linalg.matmul ins(%1, %3 : tensor<4x4xf32>, tensor<4x4xf32>) outs(%4 : tensor<4x4xf32>) -> tensor<4x4xf32>
  %6 = linalg.generic {indexing_maps = [affine_map<(d0, d1) -> (d0, d1)>, affine_map<(d0, d1) -> (d0, d1)>], iterator_types = ["parallel", "parallel"]} ins(%5 : tensor<4x4xf32>) outs(%4 : tensor<4x4xf32>) {
  ^bb0(%in: f32, %out: f32):
    %9 = arith.maximumf %in, %cst : f32
    linalg.yield %9 : f32
  } -> tensor<4x4xf32>
  %7 = iree_tensor_ext.compute_barrier.end %6 : tensor<4x4xf32> -> tensor<4x4xf32>
  %8 = hal.tensor.export %7 "output0" : tensor<4x4xf32> -> !hal.buffer_view
  util.return %8 : !hal.buffer_view
}

// -----// IR Dump After CanonicalizePass (iree-flow-canonicalize) //----- //
util.func public @matmul(%arg0: !hal.buffer_view, %arg1: !hal.buffer_view) -> !hal.buffer_view attributes {iree.abi.stub, iree.reflection = {iree.abi.declaration = "sync func @matmul(%input0: tensor<4x4xf32>, %input1: tensor<4x4xf32>) -> (%output0: tensor<4x4xf32>)"}} {
  %cst = arith.constant 0.000000e+00 : f32
  %0 = hal.tensor.import %arg0 "input0" : !hal.buffer_view -> tensor<4x4xf32>
  %1 = iree_tensor_ext.compute_barrier.start %0 : tensor<4x4xf32> -> tensor<4x4xf32>
  %2 = hal.tensor.import %arg1 "input1" : !hal.buffer_view -> tensor<4x4xf32>
  %3 = iree_tensor_ext.compute_barrier.start %2 : tensor<4x4xf32> -> tensor<4x4xf32>
  %4 = tensor.empty() : tensor<4x4xf32>
  %5 = linalg.matmul ins(%1, %3 : tensor<4x4xf32>, tensor<4x4xf32>) outs(%4 : tensor<4x4xf32>) -> tensor<4x4xf32>
  %6 = linalg.generic {indexing_maps = [affine_map<(d0, d1) -> (d0, d1)>, affine_map<(d0, d1) -> (d0, d1)>], iterator_types = ["parallel", "parallel"]} ins(%5 : tensor<4x4xf32>) outs(%4 : tensor<4x4xf32>) {
  ^bb0(%in: f32, %out: f32):
    %9 = arith.maximumf %in, %cst : f32
    linalg.yield %9 : f32
  } -> tensor<4x4xf32>
  %7 = iree_tensor_ext.compute_barrier.end %6 : tensor<4x4xf32> -> tensor<4x4xf32>
  %8 = hal.tensor.export %7 "output0" : tensor<4x4xf32> -> !hal.buffer_view
  util.return %8 : !hal.buffer_view
}

// -----// IR Dump After CSE (cse) //----- //
util.func public @matmul(%arg0: !hal.buffer_view, %arg1: !hal.buffer_view) -> !hal.buffer_view attributes {iree.abi.stub, iree.reflection = {iree.abi.declaration = "sync func @matmul(%input0: tensor<4x4xf32>, %input1: tensor<4x4xf32>) -> (%output0: tensor<4x4xf32>)"}} {
  %cst = arith.constant 0.000000e+00 : f32
  %0 = hal.tensor.import %arg0 "input0" : !hal.buffer_view -> tensor<4x4xf32>
  %1 = iree_tensor_ext.compute_barrier.start %0 : tensor<4x4xf32> -> tensor<4x4xf32>
  %2 = hal.tensor.import %arg1 "input1" : !hal.buffer_view -> tensor<4x4xf32>
  %3 = iree_tensor_ext.compute_barrier.start %2 : tensor<4x4xf32> -> tensor<4x4xf32>
  %4 = tensor.empty() : tensor<4x4xf32>
  %5 = linalg.matmul ins(%1, %3 : tensor<4x4xf32>, tensor<4x4xf32>) outs(%4 : tensor<4x4xf32>) -> tensor<4x4xf32>
  %6 = linalg.generic {indexing_maps = [affine_map<(d0, d1) -> (d0, d1)>, affine_map<(d0, d1) -> (d0, d1)>], iterator_types = ["parallel", "parallel"]} ins(%5 : tensor<4x4xf32>) outs(%4 : tensor<4x4xf32>) {
  ^bb0(%in: f32, %out: f32):
    %9 = arith.maximumf %in, %cst : f32
    linalg.yield %9 : f32
  } -> tensor<4x4xf32>
  %7 = iree_tensor_ext.compute_barrier.end %6 : tensor<4x4xf32> -> tensor<4x4xf32>
  %8 = hal.tensor.export %7 "output0" : tensor<4x4xf32> -> !hal.buffer_view
  util.return %8 : !hal.buffer_view
}

// -----// IR Dump After ConvertStridedContractionToContractionPass (iree-global-opt-convert-strided-contraction-to-contraction) //----- //
#executable_target_embedded_elf_arm_64 = #hal.executable.target<"llvm-cpu", "embedded-elf-arm_64", {cpu = "", cpu_features = "+reserve-x18", data_layout = "e-m:e-p270:32:32-p271:32:32-p272:64:64-i8:8:32-i16:16:32-i64:64-i128:128-n32:64-S128-Fn32", iree.encoding.resolver = #iree_cpu.cpu_encoding_resolver<>, max_stack_allocation_size = 32768 : i64, native_vector_size = 16 : i64, target_triple = "arm64-unknown-unknown-eabi-elf"}>
#map = affine_map<(d0, d1) -> (d0, d1)>
#device_target_local = #hal.device.target<"local", [#executable_target_embedded_elf_arm_64]> : !hal.device
module attributes {stream.affinity.default = #hal.device.affinity<@__device_0>} {
  util.global private @__device_0 = #device_target_local
  util.func public @matmul(%arg0: !hal.buffer_view, %arg1: !hal.buffer_view) -> !hal.buffer_view attributes {iree.abi.stub, iree.reflection = {iree.abi.declaration = "sync func @matmul(%input0: tensor<4x4xf32>, %input1: tensor<4x4xf32>) -> (%output0: tensor<4x4xf32>)"}} {
    %cst = arith.constant 0.000000e+00 : f32
    %0 = hal.tensor.import %arg0 "input0" : !hal.buffer_view -> tensor<4x4xf32>
    %1 = iree_tensor_ext.compute_barrier.start %0 : tensor<4x4xf32> -> tensor<4x4xf32>
    %2 = hal.tensor.import %arg1 "input1" : !hal.buffer_view -> tensor<4x4xf32>
    %3 = iree_tensor_ext.compute_barrier.start %2 : tensor<4x4xf32> -> tensor<4x4xf32>
    %4 = tensor.empty() : tensor<4x4xf32>
    %5 = linalg.matmul ins(%1, %3 : tensor<4x4xf32>, tensor<4x4xf32>) outs(%4 : tensor<4x4xf32>) -> tensor<4x4xf32>
    %6 = linalg.generic {indexing_maps = [#map, #map], iterator_types = ["parallel", "parallel"]} ins(%5 : tensor<4x4xf32>) outs(%4 : tensor<4x4xf32>) {
    ^bb0(%in: f32, %out: f32):
      %9 = arith.maximumf %in, %cst : f32
      linalg.yield %9 : f32
    } -> tensor<4x4xf32>
    %7 = iree_tensor_ext.compute_barrier.end %6 : tensor<4x4xf32> -> tensor<4x4xf32>
    %8 = hal.tensor.export %7 "output0" : tensor<4x4xf32> -> !hal.buffer_view
    util.return %8 : !hal.buffer_view
  }
}


// -----// IR Dump After GeneralizeLinalgNamedOpsPass (iree-global-opt-generalize-linalg-named-ops) //----- //
util.func public @matmul(%arg0: !hal.buffer_view, %arg1: !hal.buffer_view) -> !hal.buffer_view attributes {iree.abi.stub, iree.reflection = {iree.abi.declaration = "sync func @matmul(%input0: tensor<4x4xf32>, %input1: tensor<4x4xf32>) -> (%output0: tensor<4x4xf32>)"}} {
  %cst = arith.constant 0.000000e+00 : f32
  %0 = hal.tensor.import %arg0 "input0" : !hal.buffer_view -> tensor<4x4xf32>
  %1 = iree_tensor_ext.compute_barrier.start %0 : tensor<4x4xf32> -> tensor<4x4xf32>
  %2 = hal.tensor.import %arg1 "input1" : !hal.buffer_view -> tensor<4x4xf32>
  %3 = iree_tensor_ext.compute_barrier.start %2 : tensor<4x4xf32> -> tensor<4x4xf32>
  %4 = tensor.empty() : tensor<4x4xf32>
  %5 = linalg.matmul ins(%1, %3 : tensor<4x4xf32>, tensor<4x4xf32>) outs(%4 : tensor<4x4xf32>) -> tensor<4x4xf32>
  %6 = linalg.generic {indexing_maps = [affine_map<(d0, d1) -> (d0, d1)>, affine_map<(d0, d1) -> (d0, d1)>], iterator_types = ["parallel", "parallel"]} ins(%5 : tensor<4x4xf32>) outs(%4 : tensor<4x4xf32>) {
  ^bb0(%in: f32, %out: f32):
    %9 = arith.maximumf %in, %cst : f32
    linalg.yield %9 : f32
  } -> tensor<4x4xf32>
  %7 = iree_tensor_ext.compute_barrier.end %6 : tensor<4x4xf32> -> tensor<4x4xf32>
  %8 = hal.tensor.export %7 "output0" : tensor<4x4xf32> -> !hal.buffer_view
  util.return %8 : !hal.buffer_view
}

// -----// IR Dump After GlobalLoopInvariantCodeMotionPass (iree-global-opt-loop-invariant-code-motion) //----- //
util.func public @matmul(%arg0: !hal.buffer_view, %arg1: !hal.buffer_view) -> !hal.buffer_view attributes {iree.abi.stub, iree.reflection = {iree.abi.declaration = "sync func @matmul(%input0: tensor<4x4xf32>, %input1: tensor<4x4xf32>) -> (%output0: tensor<4x4xf32>)"}} {
  %cst = arith.constant 0.000000e+00 : f32
  %0 = hal.tensor.import %arg0 "input0" : !hal.buffer_view -> tensor<4x4xf32>
  %1 = iree_tensor_ext.compute_barrier.start %0 : tensor<4x4xf32> -> tensor<4x4xf32>
  %2 = hal.tensor.import %arg1 "input1" : !hal.buffer_view -> tensor<4x4xf32>
  %3 = iree_tensor_ext.compute_barrier.start %2 : tensor<4x4xf32> -> tensor<4x4xf32>
  %4 = tensor.empty() : tensor<4x4xf32>
  %5 = linalg.matmul ins(%1, %3 : tensor<4x4xf32>, tensor<4x4xf32>) outs(%4 : tensor<4x4xf32>) -> tensor<4x4xf32>
  %6 = linalg.generic {indexing_maps = [affine_map<(d0, d1) -> (d0, d1)>, affine_map<(d0, d1) -> (d0, d1)>], iterator_types = ["parallel", "parallel"]} ins(%5 : tensor<4x4xf32>) outs(%4 : tensor<4x4xf32>) {
  ^bb0(%in: f32, %out: f32):
    %9 = arith.maximumf %in, %cst : f32
    linalg.yield %9 : f32
  } -> tensor<4x4xf32>
  %7 = iree_tensor_ext.compute_barrier.end %6 : tensor<4x4xf32> -> tensor<4x4xf32>
  %8 = hal.tensor.export %7 "output0" : tensor<4x4xf32> -> !hal.buffer_view
  util.return %8 : !hal.buffer_view
}

// -----// IR Dump After CanonicalizePass (iree-flow-canonicalize) //----- //
util.func public @matmul(%arg0: !hal.buffer_view, %arg1: !hal.buffer_view) -> !hal.buffer_view attributes {iree.abi.stub, iree.reflection = {iree.abi.declaration = "sync func @matmul(%input0: tensor<4x4xf32>, %input1: tensor<4x4xf32>) -> (%output0: tensor<4x4xf32>)"}} {
  %cst = arith.constant 0.000000e+00 : f32
  %0 = hal.tensor.import %arg0 "input0" : !hal.buffer_view -> tensor<4x4xf32>
  %1 = iree_tensor_ext.compute_barrier.start %0 : tensor<4x4xf32> -> tensor<4x4xf32>
  %2 = hal.tensor.import %arg1 "input1" : !hal.buffer_view -> tensor<4x4xf32>
  %3 = iree_tensor_ext.compute_barrier.start %2 : tensor<4x4xf32> -> tensor<4x4xf32>
  %4 = tensor.empty() : tensor<4x4xf32>
  %5 = linalg.matmul ins(%1, %3 : tensor<4x4xf32>, tensor<4x4xf32>) outs(%4 : tensor<4x4xf32>) -> tensor<4x4xf32>
  %6 = linalg.generic {indexing_maps = [affine_map<(d0, d1) -> (d0, d1)>, affine_map<(d0, d1) -> (d0, d1)>], iterator_types = ["parallel", "parallel"]} ins(%5 : tensor<4x4xf32>) outs(%4 : tensor<4x4xf32>) {
  ^bb0(%in: f32, %out: f32):
    %9 = arith.maximumf %in, %cst : f32
    linalg.yield %9 : f32
  } -> tensor<4x4xf32>
  %7 = iree_tensor_ext.compute_barrier.end %6 : tensor<4x4xf32> -> tensor<4x4xf32>
  %8 = hal.tensor.export %7 "output0" : tensor<4x4xf32> -> !hal.buffer_view
  util.return %8 : !hal.buffer_view
}

// -----// IR Dump After CSE (cse) //----- //
util.func public @matmul(%arg0: !hal.buffer_view, %arg1: !hal.buffer_view) -> !hal.buffer_view attributes {iree.abi.stub, iree.reflection = {iree.abi.declaration = "sync func @matmul(%input0: tensor<4x4xf32>, %input1: tensor<4x4xf32>) -> (%output0: tensor<4x4xf32>)"}} {
  %cst = arith.constant 0.000000e+00 : f32
  %0 = hal.tensor.import %arg0 "input0" : !hal.buffer_view -> tensor<4x4xf32>
  %1 = iree_tensor_ext.compute_barrier.start %0 : tensor<4x4xf32> -> tensor<4x4xf32>
  %2 = hal.tensor.import %arg1 "input1" : !hal.buffer_view -> tensor<4x4xf32>
  %3 = iree_tensor_ext.compute_barrier.start %2 : tensor<4x4xf32> -> tensor<4x4xf32>
  %4 = tensor.empty() : tensor<4x4xf32>
  %5 = linalg.matmul ins(%1, %3 : tensor<4x4xf32>, tensor<4x4xf32>) outs(%4 : tensor<4x4xf32>) -> tensor<4x4xf32>
  %6 = linalg.generic {indexing_maps = [affine_map<(d0, d1) -> (d0, d1)>, affine_map<(d0, d1) -> (d0, d1)>], iterator_types = ["parallel", "parallel"]} ins(%5 : tensor<4x4xf32>) outs(%4 : tensor<4x4xf32>) {
  ^bb0(%in: f32, %out: f32):
    %9 = arith.maximumf %in, %cst : f32
    linalg.yield %9 : f32
  } -> tensor<4x4xf32>
  %7 = iree_tensor_ext.compute_barrier.end %6 : tensor<4x4xf32> -> tensor<4x4xf32>
  %8 = hal.tensor.export %7 "output0" : tensor<4x4xf32> -> !hal.buffer_view
  util.return %8 : !hal.buffer_view
}

// -----// IR Dump After SimplifyGlobalAccessesPass (iree-util-simplify-global-accesses) //----- //
util.func public @matmul(%arg0: !hal.buffer_view, %arg1: !hal.buffer_view) -> !hal.buffer_view attributes {iree.abi.stub, iree.reflection = {iree.abi.declaration = "sync func @matmul(%input0: tensor<4x4xf32>, %input1: tensor<4x4xf32>) -> (%output0: tensor<4x4xf32>)"}} {
  %cst = arith.constant 0.000000e+00 : f32
  %0 = hal.tensor.import %arg0 "input0" : !hal.buffer_view -> tensor<4x4xf32>
  %1 = iree_tensor_ext.compute_barrier.start %0 : tensor<4x4xf32> -> tensor<4x4xf32>
  %2 = hal.tensor.import %arg1 "input1" : !hal.buffer_view -> tensor<4x4xf32>
  %3 = iree_tensor_ext.compute_barrier.start %2 : tensor<4x4xf32> -> tensor<4x4xf32>
  %4 = tensor.empty() : tensor<4x4xf32>
  %5 = linalg.matmul ins(%1, %3 : tensor<4x4xf32>, tensor<4x4xf32>) outs(%4 : tensor<4x4xf32>) -> tensor<4x4xf32>
  %6 = linalg.generic {indexing_maps = [affine_map<(d0, d1) -> (d0, d1)>, affine_map<(d0, d1) -> (d0, d1)>], iterator_types = ["parallel", "parallel"]} ins(%5 : tensor<4x4xf32>) outs(%4 : tensor<4x4xf32>) {
  ^bb0(%in: f32, %out: f32):
    %9 = arith.maximumf %in, %cst : f32
    linalg.yield %9 : f32
  } -> tensor<4x4xf32>
  %7 = iree_tensor_ext.compute_barrier.end %6 : tensor<4x4xf32> -> tensor<4x4xf32>
  %8 = hal.tensor.export %7 "output0" : tensor<4x4xf32> -> !hal.buffer_view
  util.return %8 : !hal.buffer_view
}

// -----// IR Dump After ApplyPatternsPass (iree-util-apply-patterns) //----- //
util.func public @matmul(%arg0: !hal.buffer_view, %arg1: !hal.buffer_view) -> !hal.buffer_view attributes {iree.abi.stub, iree.reflection = {iree.abi.declaration = "sync func @matmul(%input0: tensor<4x4xf32>, %input1: tensor<4x4xf32>) -> (%output0: tensor<4x4xf32>)"}} {
  %cst = arith.constant 0.000000e+00 : f32
  %0 = hal.tensor.import %arg0 "input0" : !hal.buffer_view -> tensor<4x4xf32>
  %1 = iree_tensor_ext.compute_barrier.start %0 : tensor<4x4xf32> -> tensor<4x4xf32>
  %2 = hal.tensor.import %arg1 "input1" : !hal.buffer_view -> tensor<4x4xf32>
  %3 = iree_tensor_ext.compute_barrier.start %2 : tensor<4x4xf32> -> tensor<4x4xf32>
  %4 = tensor.empty() : tensor<4x4xf32>
  %5 = linalg.matmul ins(%1, %3 : tensor<4x4xf32>, tensor<4x4xf32>) outs(%4 : tensor<4x4xf32>) -> tensor<4x4xf32>
  %6 = linalg.generic {indexing_maps = [affine_map<(d0, d1) -> (d0, d1)>, affine_map<(d0, d1) -> (d0, d1)>], iterator_types = ["parallel", "parallel"]} ins(%5 : tensor<4x4xf32>) outs(%4 : tensor<4x4xf32>) {
  ^bb0(%in: f32, %out: f32):
    %9 = arith.maximumf %in, %cst : f32
    linalg.yield %9 : f32
  } -> tensor<4x4xf32>
  %7 = iree_tensor_ext.compute_barrier.end %6 : tensor<4x4xf32> -> tensor<4x4xf32>
  %8 = hal.tensor.export %7 "output0" : tensor<4x4xf32> -> !hal.buffer_view
  util.return %8 : !hal.buffer_view
}

// -----// IR Dump After FoldGlobalsPass (iree-util-fold-globals) //----- //
#executable_target_embedded_elf_arm_64 = #hal.executable.target<"llvm-cpu", "embedded-elf-arm_64", {cpu = "", cpu_features = "+reserve-x18", data_layout = "e-m:e-p270:32:32-p271:32:32-p272:64:64-i8:8:32-i16:16:32-i64:64-i128:128-n32:64-S128-Fn32", iree.encoding.resolver = #iree_cpu.cpu_encoding_resolver<>, max_stack_allocation_size = 32768 : i64, native_vector_size = 16 : i64, target_triple = "arm64-unknown-unknown-eabi-elf"}>
#map = affine_map<(d0, d1) -> (d0, d1)>
#device_target_local = #hal.device.target<"local", [#executable_target_embedded_elf_arm_64]> : !hal.device
module attributes {stream.affinity.default = #hal.device.affinity<@__device_0>} {
  util.global private @__device_0 = #device_target_local
  util.func public @matmul(%arg0: !hal.buffer_view, %arg1: !hal.buffer_view) -> !hal.buffer_view attributes {iree.abi.stub, iree.reflection = {iree.abi.declaration = "sync func @matmul(%input0: tensor<4x4xf32>, %input1: tensor<4x4xf32>) -> (%output0: tensor<4x4xf32>)"}} {
    %cst = arith.constant 0.000000e+00 : f32
    %0 = hal.tensor.import %arg0 "input0" : !hal.buffer_view -> tensor<4x4xf32>
    %1 = iree_tensor_ext.compute_barrier.start %0 : tensor<4x4xf32> -> tensor<4x4xf32>
    %2 = hal.tensor.import %arg1 "input1" : !hal.buffer_view -> tensor<4x4xf32>
    %3 = iree_tensor_ext.compute_barrier.start %2 : tensor<4x4xf32> -> tensor<4x4xf32>
    %4 = tensor.empty() : tensor<4x4xf32>
    %5 = linalg.matmul ins(%1, %3 : tensor<4x4xf32>, tensor<4x4xf32>) outs(%4 : tensor<4x4xf32>) -> tensor<4x4xf32>
    %6 = linalg.generic {indexing_maps = [#map, #map], iterator_types = ["parallel", "parallel"]} ins(%5 : tensor<4x4xf32>) outs(%4 : tensor<4x4xf32>) {
    ^bb0(%in: f32, %out: f32):
      %9 = arith.maximumf %in, %cst : f32
      linalg.yield %9 : f32
    } -> tensor<4x4xf32>
    %7 = iree_tensor_ext.compute_barrier.end %6 : tensor<4x4xf32> -> tensor<4x4xf32>
    %8 = hal.tensor.export %7 "output0" : tensor<4x4xf32> -> !hal.buffer_view
    util.return %8 : !hal.buffer_view
  }
}


// -----// IR Dump After IPOPass (iree-util-ipo) //----- //
#executable_target_embedded_elf_arm_64 = #hal.executable.target<"llvm-cpu", "embedded-elf-arm_64", {cpu = "", cpu_features = "+reserve-x18", data_layout = "e-m:e-p270:32:32-p271:32:32-p272:64:64-i8:8:32-i16:16:32-i64:64-i128:128-n32:64-S128-Fn32", iree.encoding.resolver = #iree_cpu.cpu_encoding_resolver<>, max_stack_allocation_size = 32768 : i64, native_vector_size = 16 : i64, target_triple = "arm64-unknown-unknown-eabi-elf"}>
#map = affine_map<(d0, d1) -> (d0, d1)>
#device_target_local = #hal.device.target<"local", [#executable_target_embedded_elf_arm_64]> : !hal.device
module attributes {stream.affinity.default = #hal.device.affinity<@__device_0>} {
  util.global private @__device_0 = #device_target_local
  util.func public @matmul(%arg0: !hal.buffer_view, %arg1: !hal.buffer_view) -> !hal.buffer_view attributes {iree.abi.stub, iree.reflection = {iree.abi.declaration = "sync func @matmul(%input0: tensor<4x4xf32>, %input1: tensor<4x4xf32>) -> (%output0: tensor<4x4xf32>)"}} {
    %cst = arith.constant 0.000000e+00 : f32
    %0 = hal.tensor.import %arg0 "input0" : !hal.buffer_view -> tensor<4x4xf32>
    %1 = iree_tensor_ext.compute_barrier.start %0 : tensor<4x4xf32> -> tensor<4x4xf32>
    %2 = hal.tensor.import %arg1 "input1" : !hal.buffer_view -> tensor<4x4xf32>
    %3 = iree_tensor_ext.compute_barrier.start %2 : tensor<4x4xf32> -> tensor<4x4xf32>
    %4 = tensor.empty() : tensor<4x4xf32>
    %5 = linalg.matmul ins(%1, %3 : tensor<4x4xf32>, tensor<4x4xf32>) outs(%4 : tensor<4x4xf32>) -> tensor<4x4xf32>
    %6 = linalg.generic {indexing_maps = [#map, #map], iterator_types = ["parallel", "parallel"]} ins(%5 : tensor<4x4xf32>) outs(%4 : tensor<4x4xf32>) {
    ^bb0(%in: f32, %out: f32):
      %9 = arith.maximumf %in, %cst : f32
      linalg.yield %9 : f32
    } -> tensor<4x4xf32>
    %7 = iree_tensor_ext.compute_barrier.end %6 : tensor<4x4xf32> -> tensor<4x4xf32>
    %8 = hal.tensor.export %7 "output0" : tensor<4x4xf32> -> !hal.buffer_view
    util.return %8 : !hal.buffer_view
  }
}


// -----// IR Dump After OptimizeIntArithmeticPass (iree-util-optimize-int-arithmetic) //----- //
util.func public @matmul(%arg0: !hal.buffer_view, %arg1: !hal.buffer_view) -> !hal.buffer_view attributes {iree.abi.stub, iree.reflection = {iree.abi.declaration = "sync func @matmul(%input0: tensor<4x4xf32>, %input1: tensor<4x4xf32>) -> (%output0: tensor<4x4xf32>)"}} {
  %cst = arith.constant 0.000000e+00 : f32
  %0 = hal.tensor.import %arg0 "input0" : !hal.buffer_view -> tensor<4x4xf32>
  %1 = iree_tensor_ext.compute_barrier.start %0 : tensor<4x4xf32> -> tensor<4x4xf32>
  %2 = hal.tensor.import %arg1 "input1" : !hal.buffer_view -> tensor<4x4xf32>
  %3 = iree_tensor_ext.compute_barrier.start %2 : tensor<4x4xf32> -> tensor<4x4xf32>
  %4 = tensor.empty() : tensor<4x4xf32>
  %5 = linalg.matmul ins(%1, %3 : tensor<4x4xf32>, tensor<4x4xf32>) outs(%4 : tensor<4x4xf32>) -> tensor<4x4xf32>
  %6 = linalg.generic {indexing_maps = [affine_map<(d0, d1) -> (d0, d1)>, affine_map<(d0, d1) -> (d0, d1)>], iterator_types = ["parallel", "parallel"]} ins(%5 : tensor<4x4xf32>) outs(%4 : tensor<4x4xf32>) {
  ^bb0(%in: f32, %out: f32):
    %9 = arith.maximumf %in, %cst : f32
    linalg.yield %9 : f32
  } -> tensor<4x4xf32>
  %7 = iree_tensor_ext.compute_barrier.end %6 : tensor<4x4xf32> -> tensor<4x4xf32>
  %8 = hal.tensor.export %7 "output0" : tensor<4x4xf32> -> !hal.buffer_view
  util.return %8 : !hal.buffer_view
}

// -----// IR Dump After CanonicalizePass (iree-flow-canonicalize) //----- //
util.func public @matmul(%arg0: !hal.buffer_view, %arg1: !hal.buffer_view) -> !hal.buffer_view attributes {iree.abi.stub, iree.reflection = {iree.abi.declaration = "sync func @matmul(%input0: tensor<4x4xf32>, %input1: tensor<4x4xf32>) -> (%output0: tensor<4x4xf32>)"}} {
  %cst = arith.constant 0.000000e+00 : f32
  %0 = hal.tensor.import %arg0 "input0" : !hal.buffer_view -> tensor<4x4xf32>
  %1 = iree_tensor_ext.compute_barrier.start %0 : tensor<4x4xf32> -> tensor<4x4xf32>
  %2 = hal.tensor.import %arg1 "input1" : !hal.buffer_view -> tensor<4x4xf32>
  %3 = iree_tensor_ext.compute_barrier.start %2 : tensor<4x4xf32> -> tensor<4x4xf32>
  %4 = tensor.empty() : tensor<4x4xf32>
  %5 = linalg.matmul ins(%1, %3 : tensor<4x4xf32>, tensor<4x4xf32>) outs(%4 : tensor<4x4xf32>) -> tensor<4x4xf32>
  %6 = linalg.generic {indexing_maps = [affine_map<(d0, d1) -> (d0, d1)>, affine_map<(d0, d1) -> (d0, d1)>], iterator_types = ["parallel", "parallel"]} ins(%5 : tensor<4x4xf32>) outs(%4 : tensor<4x4xf32>) {
  ^bb0(%in: f32, %out: f32):
    %9 = arith.maximumf %in, %cst : f32
    linalg.yield %9 : f32
  } -> tensor<4x4xf32>
  %7 = iree_tensor_ext.compute_barrier.end %6 : tensor<4x4xf32> -> tensor<4x4xf32>
  %8 = hal.tensor.export %7 "output0" : tensor<4x4xf32> -> !hal.buffer_view
  util.return %8 : !hal.buffer_view
}

// -----// IR Dump After CSE (cse) //----- //
util.func public @matmul(%arg0: !hal.buffer_view, %arg1: !hal.buffer_view) -> !hal.buffer_view attributes {iree.abi.stub, iree.reflection = {iree.abi.declaration = "sync func @matmul(%input0: tensor<4x4xf32>, %input1: tensor<4x4xf32>) -> (%output0: tensor<4x4xf32>)"}} {
  %cst = arith.constant 0.000000e+00 : f32
  %0 = hal.tensor.import %arg0 "input0" : !hal.buffer_view -> tensor<4x4xf32>
  %1 = iree_tensor_ext.compute_barrier.start %0 : tensor<4x4xf32> -> tensor<4x4xf32>
  %2 = hal.tensor.import %arg1 "input1" : !hal.buffer_view -> tensor<4x4xf32>
  %3 = iree_tensor_ext.compute_barrier.start %2 : tensor<4x4xf32> -> tensor<4x4xf32>
  %4 = tensor.empty() : tensor<4x4xf32>
  %5 = linalg.matmul ins(%1, %3 : tensor<4x4xf32>, tensor<4x4xf32>) outs(%4 : tensor<4x4xf32>) -> tensor<4x4xf32>
  %6 = linalg.generic {indexing_maps = [affine_map<(d0, d1) -> (d0, d1)>, affine_map<(d0, d1) -> (d0, d1)>], iterator_types = ["parallel", "parallel"]} ins(%5 : tensor<4x4xf32>) outs(%4 : tensor<4x4xf32>) {
  ^bb0(%in: f32, %out: f32):
    %9 = arith.maximumf %in, %cst : f32
    linalg.yield %9 : f32
  } -> tensor<4x4xf32>
  %7 = iree_tensor_ext.compute_barrier.end %6 : tensor<4x4xf32> -> tensor<4x4xf32>
  %8 = hal.tensor.export %7 "output0" : tensor<4x4xf32> -> !hal.buffer_view
  util.return %8 : !hal.buffer_view
}

// -----// IR Dump After HoistIntoGlobalsPass (iree-util-hoist-into-globals) //----- //
#executable_target_embedded_elf_arm_64 = #hal.executable.target<"llvm-cpu", "embedded-elf-arm_64", {cpu = "", cpu_features = "+reserve-x18", data_layout = "e-m:e-p270:32:32-p271:32:32-p272:64:64-i8:8:32-i16:16:32-i64:64-i128:128-n32:64-S128-Fn32", iree.encoding.resolver = #iree_cpu.cpu_encoding_resolver<>, max_stack_allocation_size = 32768 : i64, native_vector_size = 16 : i64, target_triple = "arm64-unknown-unknown-eabi-elf"}>
#map = affine_map<(d0, d1) -> (d0, d1)>
#device_target_local = #hal.device.target<"local", [#executable_target_embedded_elf_arm_64]> : !hal.device
module attributes {stream.affinity.default = #hal.device.affinity<@__device_0>} {
  util.global private @__device_0 = #device_target_local
  util.func public @matmul(%arg0: !hal.buffer_view, %arg1: !hal.buffer_view) -> !hal.buffer_view attributes {iree.abi.stub, iree.reflection = {iree.abi.declaration = "sync func @matmul(%input0: tensor<4x4xf32>, %input1: tensor<4x4xf32>) -> (%output0: tensor<4x4xf32>)"}} {
    %cst = arith.constant 0.000000e+00 : f32
    %0 = hal.tensor.import %arg0 "input0" : !hal.buffer_view -> tensor<4x4xf32>
    %1 = iree_tensor_ext.compute_barrier.start %0 : tensor<4x4xf32> -> tensor<4x4xf32>
    %2 = hal.tensor.import %arg1 "input1" : !hal.buffer_view -> tensor<4x4xf32>
    %3 = iree_tensor_ext.compute_barrier.start %2 : tensor<4x4xf32> -> tensor<4x4xf32>
    %4 = tensor.empty() : tensor<4x4xf32>
    %5 = linalg.matmul ins(%1, %3 : tensor<4x4xf32>, tensor<4x4xf32>) outs(%4 : tensor<4x4xf32>) -> tensor<4x4xf32>
    %6 = linalg.generic {indexing_maps = [#map, #map], iterator_types = ["parallel", "parallel"]} ins(%5 : tensor<4x4xf32>) outs(%4 : tensor<4x4xf32>) {
    ^bb0(%in: f32, %out: f32):
      %9 = arith.maximumf %in, %cst : f32
      linalg.yield %9 : f32
    } -> tensor<4x4xf32>
    %7 = iree_tensor_ext.compute_barrier.end %6 : tensor<4x4xf32> -> tensor<4x4xf32>
    %8 = hal.tensor.export %7 "output0" : tensor<4x4xf32> -> !hal.buffer_view
    util.return %8 : !hal.buffer_view
  }
}


// -----// IR Dump After JitGlobalsPass (iree-consteval-jit-globals) //----- //
#executable_target_embedded_elf_arm_64 = #hal.executable.target<"llvm-cpu", "embedded-elf-arm_64", {cpu = "", cpu_features = "+reserve-x18", data_layout = "e-m:e-p270:32:32-p271:32:32-p272:64:64-i8:8:32-i16:16:32-i64:64-i128:128-n32:64-S128-Fn32", iree.encoding.resolver = #iree_cpu.cpu_encoding_resolver<>, max_stack_allocation_size = 32768 : i64, native_vector_size = 16 : i64, target_triple = "arm64-unknown-unknown-eabi-elf"}>
#map = affine_map<(d0, d1) -> (d0, d1)>
#device_target_local = #hal.device.target<"local", [#executable_target_embedded_elf_arm_64]> : !hal.device
module attributes {stream.affinity.default = #hal.device.affinity<@__device_0>} {
  util.global private @__device_0 = #device_target_local
  util.func public @matmul(%arg0: !hal.buffer_view, %arg1: !hal.buffer_view) -> !hal.buffer_view attributes {iree.abi.stub, iree.reflection = {iree.abi.declaration = "sync func @matmul(%input0: tensor<4x4xf32>, %input1: tensor<4x4xf32>) -> (%output0: tensor<4x4xf32>)"}} {
    %cst = arith.constant 0.000000e+00 : f32
    %0 = hal.tensor.import %arg0 "input0" : !hal.buffer_view -> tensor<4x4xf32>
    %1 = iree_tensor_ext.compute_barrier.start %0 : tensor<4x4xf32> -> tensor<4x4xf32>
    %2 = hal.tensor.import %arg1 "input1" : !hal.buffer_view -> tensor<4x4xf32>
    %3 = iree_tensor_ext.compute_barrier.start %2 : tensor<4x4xf32> -> tensor<4x4xf32>
    %4 = tensor.empty() : tensor<4x4xf32>
    %5 = linalg.matmul ins(%1, %3 : tensor<4x4xf32>, tensor<4x4xf32>) outs(%4 : tensor<4x4xf32>) -> tensor<4x4xf32>
    %6 = linalg.generic {indexing_maps = [#map, #map], iterator_types = ["parallel", "parallel"]} ins(%5 : tensor<4x4xf32>) outs(%4 : tensor<4x4xf32>) {
    ^bb0(%in: f32, %out: f32):
      %9 = arith.maximumf %in, %cst : f32
      linalg.yield %9 : f32
    } -> tensor<4x4xf32>
    %7 = iree_tensor_ext.compute_barrier.end %6 : tensor<4x4xf32> -> tensor<4x4xf32>
    %8 = hal.tensor.export %7 "output0" : tensor<4x4xf32> -> !hal.buffer_view
    util.return %8 : !hal.buffer_view
  }
}


// -----// IR Dump After CanonicalizePass (iree-flow-canonicalize) //----- //
util.func public @matmul(%arg0: !hal.buffer_view, %arg1: !hal.buffer_view) -> !hal.buffer_view attributes {iree.abi.stub, iree.reflection = {iree.abi.declaration = "sync func @matmul(%input0: tensor<4x4xf32>, %input1: tensor<4x4xf32>) -> (%output0: tensor<4x4xf32>)"}} {
  %cst = arith.constant 0.000000e+00 : f32
  %0 = hal.tensor.import %arg0 "input0" : !hal.buffer_view -> tensor<4x4xf32>
  %1 = iree_tensor_ext.compute_barrier.start %0 : tensor<4x4xf32> -> tensor<4x4xf32>
  %2 = hal.tensor.import %arg1 "input1" : !hal.buffer_view -> tensor<4x4xf32>
  %3 = iree_tensor_ext.compute_barrier.start %2 : tensor<4x4xf32> -> tensor<4x4xf32>
  %4 = tensor.empty() : tensor<4x4xf32>
  %5 = linalg.matmul ins(%1, %3 : tensor<4x4xf32>, tensor<4x4xf32>) outs(%4 : tensor<4x4xf32>) -> tensor<4x4xf32>
  %6 = linalg.generic {indexing_maps = [affine_map<(d0, d1) -> (d0, d1)>, affine_map<(d0, d1) -> (d0, d1)>], iterator_types = ["parallel", "parallel"]} ins(%5 : tensor<4x4xf32>) outs(%4 : tensor<4x4xf32>) {
  ^bb0(%in: f32, %out: f32):
    %9 = arith.maximumf %in, %cst : f32
    linalg.yield %9 : f32
  } -> tensor<4x4xf32>
  %7 = iree_tensor_ext.compute_barrier.end %6 : tensor<4x4xf32> -> tensor<4x4xf32>
  %8 = hal.tensor.export %7 "output0" : tensor<4x4xf32> -> !hal.buffer_view
  util.return %8 : !hal.buffer_view
}

// -----// IR Dump After CSE (cse) //----- //
util.func public @matmul(%arg0: !hal.buffer_view, %arg1: !hal.buffer_view) -> !hal.buffer_view attributes {iree.abi.stub, iree.reflection = {iree.abi.declaration = "sync func @matmul(%input0: tensor<4x4xf32>, %input1: tensor<4x4xf32>) -> (%output0: tensor<4x4xf32>)"}} {
  %cst = arith.constant 0.000000e+00 : f32
  %0 = hal.tensor.import %arg0 "input0" : !hal.buffer_view -> tensor<4x4xf32>
  %1 = iree_tensor_ext.compute_barrier.start %0 : tensor<4x4xf32> -> tensor<4x4xf32>
  %2 = hal.tensor.import %arg1 "input1" : !hal.buffer_view -> tensor<4x4xf32>
  %3 = iree_tensor_ext.compute_barrier.start %2 : tensor<4x4xf32> -> tensor<4x4xf32>
  %4 = tensor.empty() : tensor<4x4xf32>
  %5 = linalg.matmul ins(%1, %3 : tensor<4x4xf32>, tensor<4x4xf32>) outs(%4 : tensor<4x4xf32>) -> tensor<4x4xf32>
  %6 = linalg.generic {indexing_maps = [affine_map<(d0, d1) -> (d0, d1)>, affine_map<(d0, d1) -> (d0, d1)>], iterator_types = ["parallel", "parallel"]} ins(%5 : tensor<4x4xf32>) outs(%4 : tensor<4x4xf32>) {
  ^bb0(%in: f32, %out: f32):
    %9 = arith.maximumf %in, %cst : f32
    linalg.yield %9 : f32
  } -> tensor<4x4xf32>
  %7 = iree_tensor_ext.compute_barrier.end %6 : tensor<4x4xf32> -> tensor<4x4xf32>
  %8 = hal.tensor.export %7 "output0" : tensor<4x4xf32> -> !hal.buffer_view
  util.return %8 : !hal.buffer_view
}

// -----// IR Dump After RaiseSpecialOpsPass (iree-global-opt-raise-special-ops) //----- //
util.func public @matmul(%arg0: !hal.buffer_view, %arg1: !hal.buffer_view) -> !hal.buffer_view attributes {iree.abi.stub, iree.reflection = {iree.abi.declaration = "sync func @matmul(%input0: tensor<4x4xf32>, %input1: tensor<4x4xf32>) -> (%output0: tensor<4x4xf32>)"}} {
  %cst = arith.constant 0.000000e+00 : f32
  %0 = hal.tensor.import %arg0 "input0" : !hal.buffer_view -> tensor<4x4xf32>
  %1 = iree_tensor_ext.compute_barrier.start %0 : tensor<4x4xf32> -> tensor<4x4xf32>
  %2 = hal.tensor.import %arg1 "input1" : !hal.buffer_view -> tensor<4x4xf32>
  %3 = iree_tensor_ext.compute_barrier.start %2 : tensor<4x4xf32> -> tensor<4x4xf32>
  %4 = tensor.empty() : tensor<4x4xf32>
  %5 = linalg.matmul ins(%1, %3 : tensor<4x4xf32>, tensor<4x4xf32>) outs(%4 : tensor<4x4xf32>) -> tensor<4x4xf32>
  %6 = linalg.generic {indexing_maps = [affine_map<(d0, d1) -> (d0, d1)>, affine_map<(d0, d1) -> (d0, d1)>], iterator_types = ["parallel", "parallel"]} ins(%5 : tensor<4x4xf32>) outs(%4 : tensor<4x4xf32>) {
  ^bb0(%in: f32, %out: f32):
    %9 = arith.maximumf %in, %cst : f32
    linalg.yield %9 : f32
  } -> tensor<4x4xf32>
  %7 = iree_tensor_ext.compute_barrier.end %6 : tensor<4x4xf32> -> tensor<4x4xf32>
  %8 = hal.tensor.export %7 "output0" : tensor<4x4xf32> -> !hal.buffer_view
  util.return %8 : !hal.buffer_view
}

// -----// IR Dump After InjectTensorTracingPass (iree-flow-inject-tensor-tracing) //----- //
util.func public @matmul(%arg0: !hal.buffer_view, %arg1: !hal.buffer_view) -> !hal.buffer_view attributes {iree.abi.stub, iree.reflection = {iree.abi.declaration = "sync func @matmul(%input0: tensor<4x4xf32>, %input1: tensor<4x4xf32>) -> (%output0: tensor<4x4xf32>)"}} {
  %cst = arith.constant 0.000000e+00 : f32
  %0 = hal.tensor.import %arg0 "input0" : !hal.buffer_view -> tensor<4x4xf32>
  %1 = iree_tensor_ext.compute_barrier.start %0 : tensor<4x4xf32> -> tensor<4x4xf32>
  %2 = hal.tensor.import %arg1 "input1" : !hal.buffer_view -> tensor<4x4xf32>
  %3 = iree_tensor_ext.compute_barrier.start %2 : tensor<4x4xf32> -> tensor<4x4xf32>
  %4 = tensor.empty() : tensor<4x4xf32>
  %5 = linalg.matmul ins(%1, %3 : tensor<4x4xf32>, tensor<4x4xf32>) outs(%4 : tensor<4x4xf32>) -> tensor<4x4xf32>
  %6 = linalg.generic {indexing_maps = [affine_map<(d0, d1) -> (d0, d1)>, affine_map<(d0, d1) -> (d0, d1)>], iterator_types = ["parallel", "parallel"]} ins(%5 : tensor<4x4xf32>) outs(%4 : tensor<4x4xf32>) {
  ^bb0(%in: f32, %out: f32):
    %9 = arith.maximumf %in, %cst : f32
    linalg.yield %9 : f32
  } -> tensor<4x4xf32>
  %7 = iree_tensor_ext.compute_barrier.end %6 : tensor<4x4xf32> -> tensor<4x4xf32>
  %8 = hal.tensor.export %7 "output0" : tensor<4x4xf32> -> !hal.buffer_view
  util.return %8 : !hal.buffer_view
}

// -----// IR Dump After TensorPadToTensorInsertSlicePass (iree-dispatch-creation-tensor-pad-to-tensor-insert-slice) //----- //
#executable_target_embedded_elf_arm_64 = #hal.executable.target<"llvm-cpu", "embedded-elf-arm_64", {cpu = "", cpu_features = "+reserve-x18", data_layout = "e-m:e-p270:32:32-p271:32:32-p272:64:64-i8:8:32-i16:16:32-i64:64-i128:128-n32:64-S128-Fn32", iree.encoding.resolver = #iree_cpu.cpu_encoding_resolver<>, max_stack_allocation_size = 32768 : i64, native_vector_size = 16 : i64, target_triple = "arm64-unknown-unknown-eabi-elf"}>
#map = affine_map<(d0, d1) -> (d0, d1)>
#device_target_local = #hal.device.target<"local", [#executable_target_embedded_elf_arm_64]> : !hal.device
module attributes {stream.affinity.default = #hal.device.affinity<@__device_0>} {
  util.global private @__device_0 = #device_target_local
  util.func public @matmul(%arg0: !hal.buffer_view, %arg1: !hal.buffer_view) -> !hal.buffer_view attributes {iree.abi.stub, iree.reflection = {iree.abi.declaration = "sync func @matmul(%input0: tensor<4x4xf32>, %input1: tensor<4x4xf32>) -> (%output0: tensor<4x4xf32>)"}} {
    %cst = arith.constant 0.000000e+00 : f32
    %0 = hal.tensor.import %arg0 "input0" : !hal.buffer_view -> tensor<4x4xf32>
    %1 = iree_tensor_ext.compute_barrier.start %0 : tensor<4x4xf32> -> tensor<4x4xf32>
    %2 = hal.tensor.import %arg1 "input1" : !hal.buffer_view -> tensor<4x4xf32>
    %3 = iree_tensor_ext.compute_barrier.start %2 : tensor<4x4xf32> -> tensor<4x4xf32>
    %4 = tensor.empty() : tensor<4x4xf32>
    %5 = linalg.matmul ins(%1, %3 : tensor<4x4xf32>, tensor<4x4xf32>) outs(%4 : tensor<4x4xf32>) -> tensor<4x4xf32>
    %6 = linalg.generic {indexing_maps = [#map, #map], iterator_types = ["parallel", "parallel"]} ins(%5 : tensor<4x4xf32>) outs(%4 : tensor<4x4xf32>) {
    ^bb0(%in: f32, %out: f32):
      %9 = arith.maximumf %in, %cst : f32
      linalg.yield %9 : f32
    } -> tensor<4x4xf32>
    %7 = iree_tensor_ext.compute_barrier.end %6 : tensor<4x4xf32> -> tensor<4x4xf32>
    %8 = hal.tensor.export %7 "output0" : tensor<4x4xf32> -> !hal.buffer_view
    util.return %8 : !hal.buffer_view
  }
}


// -----// IR Dump After CanonicalizePass (iree-flow-canonicalize) //----- //
util.func public @matmul(%arg0: !hal.buffer_view, %arg1: !hal.buffer_view) -> !hal.buffer_view attributes {iree.abi.stub, iree.reflection = {iree.abi.declaration = "sync func @matmul(%input0: tensor<4x4xf32>, %input1: tensor<4x4xf32>) -> (%output0: tensor<4x4xf32>)"}} {
  %cst = arith.constant 0.000000e+00 : f32
  %0 = hal.tensor.import %arg0 "input0" : !hal.buffer_view -> tensor<4x4xf32>
  %1 = iree_tensor_ext.compute_barrier.start %0 : tensor<4x4xf32> -> tensor<4x4xf32>
  %2 = hal.tensor.import %arg1 "input1" : !hal.buffer_view -> tensor<4x4xf32>
  %3 = iree_tensor_ext.compute_barrier.start %2 : tensor<4x4xf32> -> tensor<4x4xf32>
  %4 = tensor.empty() : tensor<4x4xf32>
  %5 = linalg.matmul ins(%1, %3 : tensor<4x4xf32>, tensor<4x4xf32>) outs(%4 : tensor<4x4xf32>) -> tensor<4x4xf32>
  %6 = linalg.generic {indexing_maps = [affine_map<(d0, d1) -> (d0, d1)>, affine_map<(d0, d1) -> (d0, d1)>], iterator_types = ["parallel", "parallel"]} ins(%5 : tensor<4x4xf32>) outs(%4 : tensor<4x4xf32>) {
  ^bb0(%in: f32, %out: f32):
    %9 = arith.maximumf %in, %cst : f32
    linalg.yield %9 : f32
  } -> tensor<4x4xf32>
  %7 = iree_tensor_ext.compute_barrier.end %6 : tensor<4x4xf32> -> tensor<4x4xf32>
  %8 = hal.tensor.export %7 "output0" : tensor<4x4xf32> -> !hal.buffer_view
  util.return %8 : !hal.buffer_view
}

// -----// IR Dump After CSE (cse) //----- //
util.func public @matmul(%arg0: !hal.buffer_view, %arg1: !hal.buffer_view) -> !hal.buffer_view attributes {iree.abi.stub, iree.reflection = {iree.abi.declaration = "sync func @matmul(%input0: tensor<4x4xf32>, %input1: tensor<4x4xf32>) -> (%output0: tensor<4x4xf32>)"}} {
  %cst = arith.constant 0.000000e+00 : f32
  %0 = hal.tensor.import %arg0 "input0" : !hal.buffer_view -> tensor<4x4xf32>
  %1 = iree_tensor_ext.compute_barrier.start %0 : tensor<4x4xf32> -> tensor<4x4xf32>
  %2 = hal.tensor.import %arg1 "input1" : !hal.buffer_view -> tensor<4x4xf32>
  %3 = iree_tensor_ext.compute_barrier.start %2 : tensor<4x4xf32> -> tensor<4x4xf32>
  %4 = tensor.empty() : tensor<4x4xf32>
  %5 = linalg.matmul ins(%1, %3 : tensor<4x4xf32>, tensor<4x4xf32>) outs(%4 : tensor<4x4xf32>) -> tensor<4x4xf32>
  %6 = linalg.generic {indexing_maps = [affine_map<(d0, d1) -> (d0, d1)>, affine_map<(d0, d1) -> (d0, d1)>], iterator_types = ["parallel", "parallel"]} ins(%5 : tensor<4x4xf32>) outs(%4 : tensor<4x4xf32>) {
  ^bb0(%in: f32, %out: f32):
    %9 = arith.maximumf %in, %cst : f32
    linalg.yield %9 : f32
  } -> tensor<4x4xf32>
  %7 = iree_tensor_ext.compute_barrier.end %6 : tensor<4x4xf32> -> tensor<4x4xf32>
  %8 = hal.tensor.export %7 "output0" : tensor<4x4xf32> -> !hal.buffer_view
  util.return %8 : !hal.buffer_view
}

// -----// IR Dump After SimplifyGlobalAccessesPass (iree-util-simplify-global-accesses) //----- //
util.func public @matmul(%arg0: !hal.buffer_view, %arg1: !hal.buffer_view) -> !hal.buffer_view attributes {iree.abi.stub, iree.reflection = {iree.abi.declaration = "sync func @matmul(%input0: tensor<4x4xf32>, %input1: tensor<4x4xf32>) -> (%output0: tensor<4x4xf32>)"}} {
  %cst = arith.constant 0.000000e+00 : f32
  %0 = hal.tensor.import %arg0 "input0" : !hal.buffer_view -> tensor<4x4xf32>
  %1 = iree_tensor_ext.compute_barrier.start %0 : tensor<4x4xf32> -> tensor<4x4xf32>
  %2 = hal.tensor.import %arg1 "input1" : !hal.buffer_view -> tensor<4x4xf32>
  %3 = iree_tensor_ext.compute_barrier.start %2 : tensor<4x4xf32> -> tensor<4x4xf32>
  %4 = tensor.empty() : tensor<4x4xf32>
  %5 = linalg.matmul ins(%1, %3 : tensor<4x4xf32>, tensor<4x4xf32>) outs(%4 : tensor<4x4xf32>) -> tensor<4x4xf32>
  %6 = linalg.generic {indexing_maps = [affine_map<(d0, d1) -> (d0, d1)>, affine_map<(d0, d1) -> (d0, d1)>], iterator_types = ["parallel", "parallel"]} ins(%5 : tensor<4x4xf32>) outs(%4 : tensor<4x4xf32>) {
  ^bb0(%in: f32, %out: f32):
    %9 = arith.maximumf %in, %cst : f32
    linalg.yield %9 : f32
  } -> tensor<4x4xf32>
  %7 = iree_tensor_ext.compute_barrier.end %6 : tensor<4x4xf32> -> tensor<4x4xf32>
  %8 = hal.tensor.export %7 "output0" : tensor<4x4xf32> -> !hal.buffer_view
  util.return %8 : !hal.buffer_view
}

// -----// IR Dump After ApplyPatternsPass (iree-util-apply-patterns) //----- //
util.func public @matmul(%arg0: !hal.buffer_view, %arg1: !hal.buffer_view) -> !hal.buffer_view attributes {iree.abi.stub, iree.reflection = {iree.abi.declaration = "sync func @matmul(%input0: tensor<4x4xf32>, %input1: tensor<4x4xf32>) -> (%output0: tensor<4x4xf32>)"}} {
  %cst = arith.constant 0.000000e+00 : f32
  %0 = hal.tensor.import %arg0 "input0" : !hal.buffer_view -> tensor<4x4xf32>
  %1 = iree_tensor_ext.compute_barrier.start %0 : tensor<4x4xf32> -> tensor<4x4xf32>
  %2 = hal.tensor.import %arg1 "input1" : !hal.buffer_view -> tensor<4x4xf32>
  %3 = iree_tensor_ext.compute_barrier.start %2 : tensor<4x4xf32> -> tensor<4x4xf32>
  %4 = tensor.empty() : tensor<4x4xf32>
  %5 = linalg.matmul ins(%1, %3 : tensor<4x4xf32>, tensor<4x4xf32>) outs(%4 : tensor<4x4xf32>) -> tensor<4x4xf32>
  %6 = linalg.generic {indexing_maps = [affine_map<(d0, d1) -> (d0, d1)>, affine_map<(d0, d1) -> (d0, d1)>], iterator_types = ["parallel", "parallel"]} ins(%5 : tensor<4x4xf32>) outs(%4 : tensor<4x4xf32>) {
  ^bb0(%in: f32, %out: f32):
    %9 = arith.maximumf %in, %cst : f32
    linalg.yield %9 : f32
  } -> tensor<4x4xf32>
  %7 = iree_tensor_ext.compute_barrier.end %6 : tensor<4x4xf32> -> tensor<4x4xf32>
  %8 = hal.tensor.export %7 "output0" : tensor<4x4xf32> -> !hal.buffer_view
  util.return %8 : !hal.buffer_view
}

// -----// IR Dump After FoldGlobalsPass (iree-util-fold-globals) //----- //
#executable_target_embedded_elf_arm_64 = #hal.executable.target<"llvm-cpu", "embedded-elf-arm_64", {cpu = "", cpu_features = "+reserve-x18", data_layout = "e-m:e-p270:32:32-p271:32:32-p272:64:64-i8:8:32-i16:16:32-i64:64-i128:128-n32:64-S128-Fn32", iree.encoding.resolver = #iree_cpu.cpu_encoding_resolver<>, max_stack_allocation_size = 32768 : i64, native_vector_size = 16 : i64, target_triple = "arm64-unknown-unknown-eabi-elf"}>
#map = affine_map<(d0, d1) -> (d0, d1)>
#device_target_local = #hal.device.target<"local", [#executable_target_embedded_elf_arm_64]> : !hal.device
module attributes {iree.fixedpoint.iteration = 0 : index, stream.affinity.default = #hal.device.affinity<@__device_0>} {
  util.global private @__device_0 = #device_target_local
  util.func public @matmul(%arg0: !hal.buffer_view, %arg1: !hal.buffer_view) -> !hal.buffer_view attributes {iree.abi.stub, iree.reflection = {iree.abi.declaration = "sync func @matmul(%input0: tensor<4x4xf32>, %input1: tensor<4x4xf32>) -> (%output0: tensor<4x4xf32>)"}} {
    %cst = arith.constant 0.000000e+00 : f32
    %0 = hal.tensor.import %arg0 "input0" : !hal.buffer_view -> tensor<4x4xf32>
    %1 = iree_tensor_ext.compute_barrier.start %0 : tensor<4x4xf32> -> tensor<4x4xf32>
    %2 = hal.tensor.import %arg1 "input1" : !hal.buffer_view -> tensor<4x4xf32>
    %3 = iree_tensor_ext.compute_barrier.start %2 : tensor<4x4xf32> -> tensor<4x4xf32>
    %4 = tensor.empty() : tensor<4x4xf32>
    %5 = linalg.matmul ins(%1, %3 : tensor<4x4xf32>, tensor<4x4xf32>) outs(%4 : tensor<4x4xf32>) -> tensor<4x4xf32>
    %6 = linalg.generic {indexing_maps = [#map, #map], iterator_types = ["parallel", "parallel"]} ins(%5 : tensor<4x4xf32>) outs(%4 : tensor<4x4xf32>) {
    ^bb0(%in: f32, %out: f32):
      %9 = arith.maximumf %in, %cst : f32
      linalg.yield %9 : f32
    } -> tensor<4x4xf32>
    %7 = iree_tensor_ext.compute_barrier.end %6 : tensor<4x4xf32> -> tensor<4x4xf32>
    %8 = hal.tensor.export %7 "output0" : tensor<4x4xf32> -> !hal.buffer_view
    util.return %8 : !hal.buffer_view
  }
}


// -----// IR Dump After FuseGlobalsPass (iree-util-fuse-globals) //----- //
#executable_target_embedded_elf_arm_64 = #hal.executable.target<"llvm-cpu", "embedded-elf-arm_64", {cpu = "", cpu_features = "+reserve-x18", data_layout = "e-m:e-p270:32:32-p271:32:32-p272:64:64-i8:8:32-i16:16:32-i64:64-i128:128-n32:64-S128-Fn32", iree.encoding.resolver = #iree_cpu.cpu_encoding_resolver<>, max_stack_allocation_size = 32768 : i64, native_vector_size = 16 : i64, target_triple = "arm64-unknown-unknown-eabi-elf"}>
#map = affine_map<(d0, d1) -> (d0, d1)>
#device_target_local = #hal.device.target<"local", [#executable_target_embedded_elf_arm_64]> : !hal.device
module attributes {iree.fixedpoint.iteration = 0 : index, stream.affinity.default = #hal.device.affinity<@__device_0>} {
  util.global private @__device_0 = #device_target_local
  util.func public @matmul(%arg0: !hal.buffer_view, %arg1: !hal.buffer_view) -> !hal.buffer_view attributes {iree.abi.stub, iree.reflection = {iree.abi.declaration = "sync func @matmul(%input0: tensor<4x4xf32>, %input1: tensor<4x4xf32>) -> (%output0: tensor<4x4xf32>)"}} {
    %cst = arith.constant 0.000000e+00 : f32
    %0 = hal.tensor.import %arg0 "input0" : !hal.buffer_view -> tensor<4x4xf32>
    %1 = iree_tensor_ext.compute_barrier.start %0 : tensor<4x4xf32> -> tensor<4x4xf32>
    %2 = hal.tensor.import %arg1 "input1" : !hal.buffer_view -> tensor<4x4xf32>
    %3 = iree_tensor_ext.compute_barrier.start %2 : tensor<4x4xf32> -> tensor<4x4xf32>
    %4 = tensor.empty() : tensor<4x4xf32>
    %5 = linalg.matmul ins(%1, %3 : tensor<4x4xf32>, tensor<4x4xf32>) outs(%4 : tensor<4x4xf32>) -> tensor<4x4xf32>
    %6 = linalg.generic {indexing_maps = [#map, #map], iterator_types = ["parallel", "parallel"]} ins(%5 : tensor<4x4xf32>) outs(%4 : tensor<4x4xf32>) {
    ^bb0(%in: f32, %out: f32):
      %9 = arith.maximumf %in, %cst : f32
      linalg.yield %9 : f32
    } -> tensor<4x4xf32>
    %7 = iree_tensor_ext.compute_barrier.end %6 : tensor<4x4xf32> -> tensor<4x4xf32>
    %8 = hal.tensor.export %7 "output0" : tensor<4x4xf32> -> !hal.buffer_view
    util.return %8 : !hal.buffer_view
  }
}


// -----// IR Dump After IPOPass (iree-util-ipo) //----- //
#executable_target_embedded_elf_arm_64 = #hal.executable.target<"llvm-cpu", "embedded-elf-arm_64", {cpu = "", cpu_features = "+reserve-x18", data_layout = "e-m:e-p270:32:32-p271:32:32-p272:64:64-i8:8:32-i16:16:32-i64:64-i128:128-n32:64-S128-Fn32", iree.encoding.resolver = #iree_cpu.cpu_encoding_resolver<>, max_stack_allocation_size = 32768 : i64, native_vector_size = 16 : i64, target_triple = "arm64-unknown-unknown-eabi-elf"}>
#map = affine_map<(d0, d1) -> (d0, d1)>
#device_target_local = #hal.device.target<"local", [#executable_target_embedded_elf_arm_64]> : !hal.device
module attributes {iree.fixedpoint.iteration = 0 : index, stream.affinity.default = #hal.device.affinity<@__device_0>} {
  util.global private @__device_0 = #device_target_local
  util.func public @matmul(%arg0: !hal.buffer_view, %arg1: !hal.buffer_view) -> !hal.buffer_view attributes {iree.abi.stub, iree.reflection = {iree.abi.declaration = "sync func @matmul(%input0: tensor<4x4xf32>, %input1: tensor<4x4xf32>) -> (%output0: tensor<4x4xf32>)"}} {
    %cst = arith.constant 0.000000e+00 : f32
    %0 = hal.tensor.import %arg0 "input0" : !hal.buffer_view -> tensor<4x4xf32>
    %1 = iree_tensor_ext.compute_barrier.start %0 : tensor<4x4xf32> -> tensor<4x4xf32>
    %2 = hal.tensor.import %arg1 "input1" : !hal.buffer_view -> tensor<4x4xf32>
    %3 = iree_tensor_ext.compute_barrier.start %2 : tensor<4x4xf32> -> tensor<4x4xf32>
    %4 = tensor.empty() : tensor<4x4xf32>
    %5 = linalg.matmul ins(%1, %3 : tensor<4x4xf32>, tensor<4x4xf32>) outs(%4 : tensor<4x4xf32>) -> tensor<4x4xf32>
    %6 = linalg.generic {indexing_maps = [#map, #map], iterator_types = ["parallel", "parallel"]} ins(%5 : tensor<4x4xf32>) outs(%4 : tensor<4x4xf32>) {
    ^bb0(%in: f32, %out: f32):
      %9 = arith.maximumf %in, %cst : f32
      linalg.yield %9 : f32
    } -> tensor<4x4xf32>
    %7 = iree_tensor_ext.compute_barrier.end %6 : tensor<4x4xf32> -> tensor<4x4xf32>
    %8 = hal.tensor.export %7 "output0" : tensor<4x4xf32> -> !hal.buffer_view
    util.return %8 : !hal.buffer_view
  }
}


// -----// IR Dump After FixedPointIteratorPass (iree-util-fixed-point-iterator) //----- //
#executable_target_embedded_elf_arm_64 = #hal.executable.target<"llvm-cpu", "embedded-elf-arm_64", {cpu = "", cpu_features = "+reserve-x18", data_layout = "e-m:e-p270:32:32-p271:32:32-p272:64:64-i8:8:32-i16:16:32-i64:64-i128:128-n32:64-S128-Fn32", iree.encoding.resolver = #iree_cpu.cpu_encoding_resolver<>, max_stack_allocation_size = 32768 : i64, native_vector_size = 16 : i64, target_triple = "arm64-unknown-unknown-eabi-elf"}>
#map = affine_map<(d0, d1) -> (d0, d1)>
#device_target_local = #hal.device.target<"local", [#executable_target_embedded_elf_arm_64]> : !hal.device
module attributes {stream.affinity.default = #hal.device.affinity<@__device_0>} {
  util.global private @__device_0 = #device_target_local
  util.func public @matmul(%arg0: !hal.buffer_view, %arg1: !hal.buffer_view) -> !hal.buffer_view attributes {iree.abi.stub, iree.reflection = {iree.abi.declaration = "sync func @matmul(%input0: tensor<4x4xf32>, %input1: tensor<4x4xf32>) -> (%output0: tensor<4x4xf32>)"}} {
    %cst = arith.constant 0.000000e+00 : f32
    %0 = hal.tensor.import %arg0 "input0" : !hal.buffer_view -> tensor<4x4xf32>
    %1 = iree_tensor_ext.compute_barrier.start %0 : tensor<4x4xf32> -> tensor<4x4xf32>
    %2 = hal.tensor.import %arg1 "input1" : !hal.buffer_view -> tensor<4x4xf32>
    %3 = iree_tensor_ext.compute_barrier.start %2 : tensor<4x4xf32> -> tensor<4x4xf32>
    %4 = tensor.empty() : tensor<4x4xf32>
    %5 = linalg.matmul ins(%1, %3 : tensor<4x4xf32>, tensor<4x4xf32>) outs(%4 : tensor<4x4xf32>) -> tensor<4x4xf32>
    %6 = linalg.generic {indexing_maps = [#map, #map], iterator_types = ["parallel", "parallel"]} ins(%5 : tensor<4x4xf32>) outs(%4 : tensor<4x4xf32>) {
    ^bb0(%in: f32, %out: f32):
      %9 = arith.maximumf %in, %cst : f32
      linalg.yield %9 : f32
    } -> tensor<4x4xf32>
    %7 = iree_tensor_ext.compute_barrier.end %6 : tensor<4x4xf32> -> tensor<4x4xf32>
    %8 = hal.tensor.export %7 "output0" : tensor<4x4xf32> -> !hal.buffer_view
    util.return %8 : !hal.buffer_view
  }
}


// -----// IR Dump After FusionPreprocessingPass (iree-dispatch-creation-fusion-preprocessing) //----- //
util.func public @matmul(%arg0: !hal.buffer_view, %arg1: !hal.buffer_view) -> !hal.buffer_view attributes {iree.abi.stub, iree.reflection = {iree.abi.declaration = "sync func @matmul(%input0: tensor<4x4xf32>, %input1: tensor<4x4xf32>) -> (%output0: tensor<4x4xf32>)"}} {
  %cst = arith.constant 0.000000e+00 : f32
  %0 = hal.tensor.import %arg0 "input0" : !hal.buffer_view -> tensor<4x4xf32>
  %1 = iree_tensor_ext.compute_barrier.start %0 : tensor<4x4xf32> -> tensor<4x4xf32>
  %2 = hal.tensor.import %arg1 "input1" : !hal.buffer_view -> tensor<4x4xf32>
  %3 = iree_tensor_ext.compute_barrier.start %2 : tensor<4x4xf32> -> tensor<4x4xf32>
  %4 = tensor.empty() : tensor<4x4xf32>
  %5 = linalg.matmul ins(%1, %3 : tensor<4x4xf32>, tensor<4x4xf32>) outs(%4 : tensor<4x4xf32>) -> tensor<4x4xf32>
  %6 = linalg.generic {indexing_maps = [affine_map<(d0, d1) -> (d0, d1)>, affine_map<(d0, d1) -> (d0, d1)>], iterator_types = ["parallel", "parallel"]} ins(%5 : tensor<4x4xf32>) outs(%4 : tensor<4x4xf32>) {
  ^bb0(%in: f32, %out: f32):
    %9 = arith.maximumf %in, %cst : f32
    linalg.yield %9 : f32
  } -> tensor<4x4xf32>
  %7 = iree_tensor_ext.compute_barrier.end %6 : tensor<4x4xf32> -> tensor<4x4xf32>
  %8 = hal.tensor.export %7 "output0" : tensor<4x4xf32> -> !hal.buffer_view
  util.return %8 : !hal.buffer_view
}

// -----// IR Dump After CanonicalizePass (iree-flow-canonicalize) //----- //
util.func public @matmul(%arg0: !hal.buffer_view, %arg1: !hal.buffer_view) -> !hal.buffer_view attributes {iree.abi.stub, iree.reflection = {iree.abi.declaration = "sync func @matmul(%input0: tensor<4x4xf32>, %input1: tensor<4x4xf32>) -> (%output0: tensor<4x4xf32>)"}} {
  %cst = arith.constant 0.000000e+00 : f32
  %0 = hal.tensor.import %arg0 "input0" : !hal.buffer_view -> tensor<4x4xf32>
  %1 = iree_tensor_ext.compute_barrier.start %0 : tensor<4x4xf32> -> tensor<4x4xf32>
  %2 = hal.tensor.import %arg1 "input1" : !hal.buffer_view -> tensor<4x4xf32>
  %3 = iree_tensor_ext.compute_barrier.start %2 : tensor<4x4xf32> -> tensor<4x4xf32>
  %4 = tensor.empty() : tensor<4x4xf32>
  %5 = linalg.matmul ins(%1, %3 : tensor<4x4xf32>, tensor<4x4xf32>) outs(%4 : tensor<4x4xf32>) -> tensor<4x4xf32>
  %6 = linalg.generic {indexing_maps = [affine_map<(d0, d1) -> (d0, d1)>, affine_map<(d0, d1) -> (d0, d1)>], iterator_types = ["parallel", "parallel"]} ins(%5 : tensor<4x4xf32>) outs(%4 : tensor<4x4xf32>) {
  ^bb0(%in: f32, %out: f32):
    %9 = arith.maximumf %in, %cst : f32
    linalg.yield %9 : f32
  } -> tensor<4x4xf32>
  %7 = iree_tensor_ext.compute_barrier.end %6 : tensor<4x4xf32> -> tensor<4x4xf32>
  %8 = hal.tensor.export %7 "output0" : tensor<4x4xf32> -> !hal.buffer_view
  util.return %8 : !hal.buffer_view
}

// -----// IR Dump After CSE (cse) //----- //
util.func public @matmul(%arg0: !hal.buffer_view, %arg1: !hal.buffer_view) -> !hal.buffer_view attributes {iree.abi.stub, iree.reflection = {iree.abi.declaration = "sync func @matmul(%input0: tensor<4x4xf32>, %input1: tensor<4x4xf32>) -> (%output0: tensor<4x4xf32>)"}} {
  %cst = arith.constant 0.000000e+00 : f32
  %0 = hal.tensor.import %arg0 "input0" : !hal.buffer_view -> tensor<4x4xf32>
  %1 = iree_tensor_ext.compute_barrier.start %0 : tensor<4x4xf32> -> tensor<4x4xf32>
  %2 = hal.tensor.import %arg1 "input1" : !hal.buffer_view -> tensor<4x4xf32>
  %3 = iree_tensor_ext.compute_barrier.start %2 : tensor<4x4xf32> -> tensor<4x4xf32>
  %4 = tensor.empty() : tensor<4x4xf32>
  %5 = linalg.matmul ins(%1, %3 : tensor<4x4xf32>, tensor<4x4xf32>) outs(%4 : tensor<4x4xf32>) -> tensor<4x4xf32>
  %6 = linalg.generic {indexing_maps = [affine_map<(d0, d1) -> (d0, d1)>, affine_map<(d0, d1) -> (d0, d1)>], iterator_types = ["parallel", "parallel"]} ins(%5 : tensor<4x4xf32>) outs(%4 : tensor<4x4xf32>) {
  ^bb0(%in: f32, %out: f32):
    %9 = arith.maximumf %in, %cst : f32
    linalg.yield %9 : f32
  } -> tensor<4x4xf32>
  %7 = iree_tensor_ext.compute_barrier.end %6 : tensor<4x4xf32> -> tensor<4x4xf32>
  %8 = hal.tensor.export %7 "output0" : tensor<4x4xf32> -> !hal.buffer_view
  util.return %8 : !hal.buffer_view
}

// -----// IR Dump After ElementwiseOpFusionPass (iree-dispatch-creation-elementwise-op-fusion) //----- //
util.func public @matmul(%arg0: !hal.buffer_view, %arg1: !hal.buffer_view) -> !hal.buffer_view attributes {iree.abi.stub, iree.reflection = {iree.abi.declaration = "sync func @matmul(%input0: tensor<4x4xf32>, %input1: tensor<4x4xf32>) -> (%output0: tensor<4x4xf32>)"}} {
  %cst = arith.constant 0.000000e+00 : f32
  %0 = hal.tensor.import %arg0 "input0" : !hal.buffer_view -> tensor<4x4xf32>
  %1 = iree_tensor_ext.compute_barrier.start %0 : tensor<4x4xf32> -> tensor<4x4xf32>
  %2 = hal.tensor.import %arg1 "input1" : !hal.buffer_view -> tensor<4x4xf32>
  %3 = iree_tensor_ext.compute_barrier.start %2 : tensor<4x4xf32> -> tensor<4x4xf32>
  %4 = tensor.empty() : tensor<4x4xf32>
  %5 = linalg.matmul ins(%1, %3 : tensor<4x4xf32>, tensor<4x4xf32>) outs(%4 : tensor<4x4xf32>) -> tensor<4x4xf32>
  %6 = linalg.generic {indexing_maps = [affine_map<(d0, d1) -> (d0, d1)>, affine_map<(d0, d1) -> (d0, d1)>], iterator_types = ["parallel", "parallel"]} ins(%5 : tensor<4x4xf32>) outs(%4 : tensor<4x4xf32>) {
  ^bb0(%in: f32, %out: f32):
    %9 = arith.maximumf %in, %cst : f32
    linalg.yield %9 : f32
  } -> tensor<4x4xf32>
  %7 = iree_tensor_ext.compute_barrier.end %6 : tensor<4x4xf32> -> tensor<4x4xf32>
  %8 = hal.tensor.export %7 "output0" : tensor<4x4xf32> -> !hal.buffer_view
  util.return %8 : !hal.buffer_view
}

// -----// IR Dump After CanonicalizePass (iree-flow-canonicalize) //----- //
util.func public @matmul(%arg0: !hal.buffer_view, %arg1: !hal.buffer_view) -> !hal.buffer_view attributes {iree.abi.stub, iree.reflection = {iree.abi.declaration = "sync func @matmul(%input0: tensor<4x4xf32>, %input1: tensor<4x4xf32>) -> (%output0: tensor<4x4xf32>)"}} {
  %cst = arith.constant 0.000000e+00 : f32
  %0 = hal.tensor.import %arg0 "input0" : !hal.buffer_view -> tensor<4x4xf32>
  %1 = iree_tensor_ext.compute_barrier.start %0 : tensor<4x4xf32> -> tensor<4x4xf32>
  %2 = hal.tensor.import %arg1 "input1" : !hal.buffer_view -> tensor<4x4xf32>
  %3 = iree_tensor_ext.compute_barrier.start %2 : tensor<4x4xf32> -> tensor<4x4xf32>
  %4 = tensor.empty() : tensor<4x4xf32>
  %5 = linalg.matmul ins(%1, %3 : tensor<4x4xf32>, tensor<4x4xf32>) outs(%4 : tensor<4x4xf32>) -> tensor<4x4xf32>
  %6 = linalg.generic {indexing_maps = [affine_map<(d0, d1) -> (d0, d1)>, affine_map<(d0, d1) -> (d0, d1)>], iterator_types = ["parallel", "parallel"]} ins(%5 : tensor<4x4xf32>) outs(%4 : tensor<4x4xf32>) {
  ^bb0(%in: f32, %out: f32):
    %9 = arith.maximumf %in, %cst : f32
    linalg.yield %9 : f32
  } -> tensor<4x4xf32>
  %7 = iree_tensor_ext.compute_barrier.end %6 : tensor<4x4xf32> -> tensor<4x4xf32>
  %8 = hal.tensor.export %7 "output0" : tensor<4x4xf32> -> !hal.buffer_view
  util.return %8 : !hal.buffer_view
}

// -----// IR Dump After CSE (cse) //----- //
util.func public @matmul(%arg0: !hal.buffer_view, %arg1: !hal.buffer_view) -> !hal.buffer_view attributes {iree.abi.stub, iree.reflection = {iree.abi.declaration = "sync func @matmul(%input0: tensor<4x4xf32>, %input1: tensor<4x4xf32>) -> (%output0: tensor<4x4xf32>)"}} {
  %cst = arith.constant 0.000000e+00 : f32
  %0 = hal.tensor.import %arg0 "input0" : !hal.buffer_view -> tensor<4x4xf32>
  %1 = iree_tensor_ext.compute_barrier.start %0 : tensor<4x4xf32> -> tensor<4x4xf32>
  %2 = hal.tensor.import %arg1 "input1" : !hal.buffer_view -> tensor<4x4xf32>
  %3 = iree_tensor_ext.compute_barrier.start %2 : tensor<4x4xf32> -> tensor<4x4xf32>
  %4 = tensor.empty() : tensor<4x4xf32>
  %5 = linalg.matmul ins(%1, %3 : tensor<4x4xf32>, tensor<4x4xf32>) outs(%4 : tensor<4x4xf32>) -> tensor<4x4xf32>
  %6 = linalg.generic {indexing_maps = [affine_map<(d0, d1) -> (d0, d1)>, affine_map<(d0, d1) -> (d0, d1)>], iterator_types = ["parallel", "parallel"]} ins(%5 : tensor<4x4xf32>) outs(%4 : tensor<4x4xf32>) {
  ^bb0(%in: f32, %out: f32):
    %9 = arith.maximumf %in, %cst : f32
    linalg.yield %9 : f32
  } -> tensor<4x4xf32>
  %7 = iree_tensor_ext.compute_barrier.end %6 : tensor<4x4xf32> -> tensor<4x4xf32>
  %8 = hal.tensor.export %7 "output0" : tensor<4x4xf32> -> !hal.buffer_view
  util.return %8 : !hal.buffer_view
}

// -----// IR Dump After FoldReshapesIntoTensorBarriersPass (iree-dispatch-creation-fold-reshapes-into-tensor-barriers) //----- //
util.func public @matmul(%arg0: !hal.buffer_view, %arg1: !hal.buffer_view) -> !hal.buffer_view attributes {iree.abi.stub, iree.reflection = {iree.abi.declaration = "sync func @matmul(%input0: tensor<4x4xf32>, %input1: tensor<4x4xf32>) -> (%output0: tensor<4x4xf32>)"}} {
  %cst = arith.constant 0.000000e+00 : f32
  %0 = hal.tensor.import %arg0 "input0" : !hal.buffer_view -> tensor<4x4xf32>
  %1 = iree_tensor_ext.compute_barrier.start %0 : tensor<4x4xf32> -> tensor<4x4xf32>
  %2 = hal.tensor.import %arg1 "input1" : !hal.buffer_view -> tensor<4x4xf32>
  %3 = iree_tensor_ext.compute_barrier.start %2 : tensor<4x4xf32> -> tensor<4x4xf32>
  %4 = tensor.empty() : tensor<4x4xf32>
  %5 = linalg.matmul ins(%1, %3 : tensor<4x4xf32>, tensor<4x4xf32>) outs(%4 : tensor<4x4xf32>) -> tensor<4x4xf32>
  %6 = linalg.generic {indexing_maps = [affine_map<(d0, d1) -> (d0, d1)>, affine_map<(d0, d1) -> (d0, d1)>], iterator_types = ["parallel", "parallel"]} ins(%5 : tensor<4x4xf32>) outs(%4 : tensor<4x4xf32>) {
  ^bb0(%in: f32, %out: f32):
    %9 = arith.maximumf %in, %cst : f32
    linalg.yield %9 : f32
  } -> tensor<4x4xf32>
  %7 = iree_tensor_ext.compute_barrier.end %6 : tensor<4x4xf32> -> tensor<4x4xf32>
  %8 = hal.tensor.export %7 "output0" : tensor<4x4xf32> -> !hal.buffer_view
  util.return %8 : !hal.buffer_view
}

// -----// IR Dump After BubbleUpExpandShapesPass (iree-dispatch-creation-bubble-up-expand-shapes) //----- //
util.func public @matmul(%arg0: !hal.buffer_view, %arg1: !hal.buffer_view) -> !hal.buffer_view attributes {iree.abi.stub, iree.reflection = {iree.abi.declaration = "sync func @matmul(%input0: tensor<4x4xf32>, %input1: tensor<4x4xf32>) -> (%output0: tensor<4x4xf32>)"}} {
  %cst = arith.constant 0.000000e+00 : f32
  %0 = hal.tensor.import %arg0 "input0" : !hal.buffer_view -> tensor<4x4xf32>
  %1 = iree_tensor_ext.compute_barrier.start %0 : tensor<4x4xf32> -> tensor<4x4xf32>
  %2 = hal.tensor.import %arg1 "input1" : !hal.buffer_view -> tensor<4x4xf32>
  %3 = iree_tensor_ext.compute_barrier.start %2 : tensor<4x4xf32> -> tensor<4x4xf32>
  %4 = tensor.empty() : tensor<4x4xf32>
  %5 = linalg.matmul ins(%1, %3 : tensor<4x4xf32>, tensor<4x4xf32>) outs(%4 : tensor<4x4xf32>) -> tensor<4x4xf32>
  %6 = linalg.generic {indexing_maps = [affine_map<(d0, d1) -> (d0, d1)>, affine_map<(d0, d1) -> (d0, d1)>], iterator_types = ["parallel", "parallel"]} ins(%5 : tensor<4x4xf32>) outs(%4 : tensor<4x4xf32>) {
  ^bb0(%in: f32, %out: f32):
    %9 = arith.maximumf %in, %cst : f32
    linalg.yield %9 : f32
  } -> tensor<4x4xf32>
  %7 = iree_tensor_ext.compute_barrier.end %6 : tensor<4x4xf32> -> tensor<4x4xf32>
  %8 = hal.tensor.export %7 "output0" : tensor<4x4xf32> -> !hal.buffer_view
  util.return %8 : !hal.buffer_view
}

// -----// IR Dump After CanonicalizePass (iree-flow-canonicalize) //----- //
util.func public @matmul(%arg0: !hal.buffer_view, %arg1: !hal.buffer_view) -> !hal.buffer_view attributes {iree.abi.stub, iree.reflection = {iree.abi.declaration = "sync func @matmul(%input0: tensor<4x4xf32>, %input1: tensor<4x4xf32>) -> (%output0: tensor<4x4xf32>)"}} {
  %cst = arith.constant 0.000000e+00 : f32
  %0 = hal.tensor.import %arg0 "input0" : !hal.buffer_view -> tensor<4x4xf32>
  %1 = iree_tensor_ext.compute_barrier.start %0 : tensor<4x4xf32> -> tensor<4x4xf32>
  %2 = hal.tensor.import %arg1 "input1" : !hal.buffer_view -> tensor<4x4xf32>
  %3 = iree_tensor_ext.compute_barrier.start %2 : tensor<4x4xf32> -> tensor<4x4xf32>
  %4 = tensor.empty() : tensor<4x4xf32>
  %5 = linalg.matmul ins(%1, %3 : tensor<4x4xf32>, tensor<4x4xf32>) outs(%4 : tensor<4x4xf32>) -> tensor<4x4xf32>
  %6 = linalg.generic {indexing_maps = [affine_map<(d0, d1) -> (d0, d1)>, affine_map<(d0, d1) -> (d0, d1)>], iterator_types = ["parallel", "parallel"]} ins(%5 : tensor<4x4xf32>) outs(%4 : tensor<4x4xf32>) {
  ^bb0(%in: f32, %out: f32):
    %9 = arith.maximumf %in, %cst : f32
    linalg.yield %9 : f32
  } -> tensor<4x4xf32>
  %7 = iree_tensor_ext.compute_barrier.end %6 : tensor<4x4xf32> -> tensor<4x4xf32>
  %8 = hal.tensor.export %7 "output0" : tensor<4x4xf32> -> !hal.buffer_view
  util.return %8 : !hal.buffer_view
}

// -----// IR Dump After CSE (cse) //----- //
util.func public @matmul(%arg0: !hal.buffer_view, %arg1: !hal.buffer_view) -> !hal.buffer_view attributes {iree.abi.stub, iree.reflection = {iree.abi.declaration = "sync func @matmul(%input0: tensor<4x4xf32>, %input1: tensor<4x4xf32>) -> (%output0: tensor<4x4xf32>)"}} {
  %cst = arith.constant 0.000000e+00 : f32
  %0 = hal.tensor.import %arg0 "input0" : !hal.buffer_view -> tensor<4x4xf32>
  %1 = iree_tensor_ext.compute_barrier.start %0 : tensor<4x4xf32> -> tensor<4x4xf32>
  %2 = hal.tensor.import %arg1 "input1" : !hal.buffer_view -> tensor<4x4xf32>
  %3 = iree_tensor_ext.compute_barrier.start %2 : tensor<4x4xf32> -> tensor<4x4xf32>
  %4 = tensor.empty() : tensor<4x4xf32>
  %5 = linalg.matmul ins(%1, %3 : tensor<4x4xf32>, tensor<4x4xf32>) outs(%4 : tensor<4x4xf32>) -> tensor<4x4xf32>
  %6 = linalg.generic {indexing_maps = [affine_map<(d0, d1) -> (d0, d1)>, affine_map<(d0, d1) -> (d0, d1)>], iterator_types = ["parallel", "parallel"]} ins(%5 : tensor<4x4xf32>) outs(%4 : tensor<4x4xf32>) {
  ^bb0(%in: f32, %out: f32):
    %9 = arith.maximumf %in, %cst : f32
    linalg.yield %9 : f32
  } -> tensor<4x4xf32>
  %7 = iree_tensor_ext.compute_barrier.end %6 : tensor<4x4xf32> -> tensor<4x4xf32>
  %8 = hal.tensor.export %7 "output0" : tensor<4x4xf32> -> !hal.buffer_view
  util.return %8 : !hal.buffer_view
}

// -----// IR Dump After ElementwiseOpFusionPass (iree-dispatch-creation-elementwise-op-fusion) //----- //
util.func public @matmul(%arg0: !hal.buffer_view, %arg1: !hal.buffer_view) -> !hal.buffer_view attributes {iree.abi.stub, iree.reflection = {iree.abi.declaration = "sync func @matmul(%input0: tensor<4x4xf32>, %input1: tensor<4x4xf32>) -> (%output0: tensor<4x4xf32>)"}} {
  %cst = arith.constant 0.000000e+00 : f32
  %0 = hal.tensor.import %arg0 "input0" : !hal.buffer_view -> tensor<4x4xf32>
  %1 = iree_tensor_ext.compute_barrier.start %0 : tensor<4x4xf32> -> tensor<4x4xf32>
  %2 = hal.tensor.import %arg1 "input1" : !hal.buffer_view -> tensor<4x4xf32>
  %3 = iree_tensor_ext.compute_barrier.start %2 : tensor<4x4xf32> -> tensor<4x4xf32>
  %4 = tensor.empty() : tensor<4x4xf32>
  %5 = linalg.matmul ins(%1, %3 : tensor<4x4xf32>, tensor<4x4xf32>) outs(%4 : tensor<4x4xf32>) -> tensor<4x4xf32>
  %6 = linalg.generic {indexing_maps = [affine_map<(d0, d1) -> (d0, d1)>, affine_map<(d0, d1) -> (d0, d1)>], iterator_types = ["parallel", "parallel"]} ins(%5 : tensor<4x4xf32>) outs(%4 : tensor<4x4xf32>) {
  ^bb0(%in: f32, %out: f32):
    %9 = arith.maximumf %in, %cst : f32
    linalg.yield %9 : f32
  } -> tensor<4x4xf32>
  %7 = iree_tensor_ext.compute_barrier.end %6 : tensor<4x4xf32> -> tensor<4x4xf32>
  %8 = hal.tensor.export %7 "output0" : tensor<4x4xf32> -> !hal.buffer_view
  util.return %8 : !hal.buffer_view
}

// -----// IR Dump After CanonicalizePass (iree-flow-canonicalize) //----- //
util.func public @matmul(%arg0: !hal.buffer_view, %arg1: !hal.buffer_view) -> !hal.buffer_view attributes {iree.abi.stub, iree.reflection = {iree.abi.declaration = "sync func @matmul(%input0: tensor<4x4xf32>, %input1: tensor<4x4xf32>) -> (%output0: tensor<4x4xf32>)"}} {
  %cst = arith.constant 0.000000e+00 : f32
  %0 = hal.tensor.import %arg0 "input0" : !hal.buffer_view -> tensor<4x4xf32>
  %1 = iree_tensor_ext.compute_barrier.start %0 : tensor<4x4xf32> -> tensor<4x4xf32>
  %2 = hal.tensor.import %arg1 "input1" : !hal.buffer_view -> tensor<4x4xf32>
  %3 = iree_tensor_ext.compute_barrier.start %2 : tensor<4x4xf32> -> tensor<4x4xf32>
  %4 = tensor.empty() : tensor<4x4xf32>
  %5 = linalg.matmul ins(%1, %3 : tensor<4x4xf32>, tensor<4x4xf32>) outs(%4 : tensor<4x4xf32>) -> tensor<4x4xf32>
  %6 = linalg.generic {indexing_maps = [affine_map<(d0, d1) -> (d0, d1)>, affine_map<(d0, d1) -> (d0, d1)>], iterator_types = ["parallel", "parallel"]} ins(%5 : tensor<4x4xf32>) outs(%4 : tensor<4x4xf32>) {
  ^bb0(%in: f32, %out: f32):
    %9 = arith.maximumf %in, %cst : f32
    linalg.yield %9 : f32
  } -> tensor<4x4xf32>
  %7 = iree_tensor_ext.compute_barrier.end %6 : tensor<4x4xf32> -> tensor<4x4xf32>
  %8 = hal.tensor.export %7 "output0" : tensor<4x4xf32> -> !hal.buffer_view
  util.return %8 : !hal.buffer_view
}

// -----// IR Dump After CSE (cse) //----- //
util.func public @matmul(%arg0: !hal.buffer_view, %arg1: !hal.buffer_view) -> !hal.buffer_view attributes {iree.abi.stub, iree.reflection = {iree.abi.declaration = "sync func @matmul(%input0: tensor<4x4xf32>, %input1: tensor<4x4xf32>) -> (%output0: tensor<4x4xf32>)"}} {
  %cst = arith.constant 0.000000e+00 : f32
  %0 = hal.tensor.import %arg0 "input0" : !hal.buffer_view -> tensor<4x4xf32>
  %1 = iree_tensor_ext.compute_barrier.start %0 : tensor<4x4xf32> -> tensor<4x4xf32>
  %2 = hal.tensor.import %arg1 "input1" : !hal.buffer_view -> tensor<4x4xf32>
  %3 = iree_tensor_ext.compute_barrier.start %2 : tensor<4x4xf32> -> tensor<4x4xf32>
  %4 = tensor.empty() : tensor<4x4xf32>
  %5 = linalg.matmul ins(%1, %3 : tensor<4x4xf32>, tensor<4x4xf32>) outs(%4 : tensor<4x4xf32>) -> tensor<4x4xf32>
  %6 = linalg.generic {indexing_maps = [affine_map<(d0, d1) -> (d0, d1)>, affine_map<(d0, d1) -> (d0, d1)>], iterator_types = ["parallel", "parallel"]} ins(%5 : tensor<4x4xf32>) outs(%4 : tensor<4x4xf32>) {
  ^bb0(%in: f32, %out: f32):
    %9 = arith.maximumf %in, %cst : f32
    linalg.yield %9 : f32
  } -> tensor<4x4xf32>
  %7 = iree_tensor_ext.compute_barrier.end %6 : tensor<4x4xf32> -> tensor<4x4xf32>
  %8 = hal.tensor.export %7 "output0" : tensor<4x4xf32> -> !hal.buffer_view
  util.return %8 : !hal.buffer_view
}

// -----// IR Dump After SinkReshapesPass (iree-dispatch-creation-sink-reshapes) //----- //
util.func public @matmul(%arg0: !hal.buffer_view, %arg1: !hal.buffer_view) -> !hal.buffer_view attributes {iree.abi.stub, iree.reflection = {iree.abi.declaration = "sync func @matmul(%input0: tensor<4x4xf32>, %input1: tensor<4x4xf32>) -> (%output0: tensor<4x4xf32>)"}} {
  %cst = arith.constant 0.000000e+00 : f32
  %0 = hal.tensor.import %arg0 "input0" : !hal.buffer_view -> tensor<4x4xf32>
  %1 = iree_tensor_ext.compute_barrier.start %0 : tensor<4x4xf32> -> tensor<4x4xf32>
  %2 = hal.tensor.import %arg1 "input1" : !hal.buffer_view -> tensor<4x4xf32>
  %3 = iree_tensor_ext.compute_barrier.start %2 : tensor<4x4xf32> -> tensor<4x4xf32>
  %4 = tensor.empty() : tensor<4x4xf32>
  %5 = linalg.matmul ins(%1, %3 : tensor<4x4xf32>, tensor<4x4xf32>) outs(%4 : tensor<4x4xf32>) -> tensor<4x4xf32>
  %6 = linalg.generic {indexing_maps = [affine_map<(d0, d1) -> (d0, d1)>, affine_map<(d0, d1) -> (d0, d1)>], iterator_types = ["parallel", "parallel"]} ins(%5 : tensor<4x4xf32>) outs(%4 : tensor<4x4xf32>) {
  ^bb0(%in: f32, %out: f32):
    %9 = arith.maximumf %in, %cst : f32
    linalg.yield %9 : f32
  } -> tensor<4x4xf32>
  %7 = iree_tensor_ext.compute_barrier.end %6 : tensor<4x4xf32> -> tensor<4x4xf32>
  %8 = hal.tensor.export %7 "output0" : tensor<4x4xf32> -> !hal.buffer_view
  util.return %8 : !hal.buffer_view
}

// -----// IR Dump After CanonicalizePass (iree-flow-canonicalize) //----- //
util.func public @matmul(%arg0: !hal.buffer_view, %arg1: !hal.buffer_view) -> !hal.buffer_view attributes {iree.abi.stub, iree.reflection = {iree.abi.declaration = "sync func @matmul(%input0: tensor<4x4xf32>, %input1: tensor<4x4xf32>) -> (%output0: tensor<4x4xf32>)"}} {
  %cst = arith.constant 0.000000e+00 : f32
  %0 = hal.tensor.import %arg0 "input0" : !hal.buffer_view -> tensor<4x4xf32>
  %1 = iree_tensor_ext.compute_barrier.start %0 : tensor<4x4xf32> -> tensor<4x4xf32>
  %2 = hal.tensor.import %arg1 "input1" : !hal.buffer_view -> tensor<4x4xf32>
  %3 = iree_tensor_ext.compute_barrier.start %2 : tensor<4x4xf32> -> tensor<4x4xf32>
  %4 = tensor.empty() : tensor<4x4xf32>
  %5 = linalg.matmul ins(%1, %3 : tensor<4x4xf32>, tensor<4x4xf32>) outs(%4 : tensor<4x4xf32>) -> tensor<4x4xf32>
  %6 = linalg.generic {indexing_maps = [affine_map<(d0, d1) -> (d0, d1)>, affine_map<(d0, d1) -> (d0, d1)>], iterator_types = ["parallel", "parallel"]} ins(%5 : tensor<4x4xf32>) outs(%4 : tensor<4x4xf32>) {
  ^bb0(%in: f32, %out: f32):
    %9 = arith.maximumf %in, %cst : f32
    linalg.yield %9 : f32
  } -> tensor<4x4xf32>
  %7 = iree_tensor_ext.compute_barrier.end %6 : tensor<4x4xf32> -> tensor<4x4xf32>
  %8 = hal.tensor.export %7 "output0" : tensor<4x4xf32> -> !hal.buffer_view
  util.return %8 : !hal.buffer_view
}

// -----// IR Dump After CSE (cse) //----- //
util.func public @matmul(%arg0: !hal.buffer_view, %arg1: !hal.buffer_view) -> !hal.buffer_view attributes {iree.abi.stub, iree.reflection = {iree.abi.declaration = "sync func @matmul(%input0: tensor<4x4xf32>, %input1: tensor<4x4xf32>) -> (%output0: tensor<4x4xf32>)"}} {
  %cst = arith.constant 0.000000e+00 : f32
  %0 = hal.tensor.import %arg0 "input0" : !hal.buffer_view -> tensor<4x4xf32>
  %1 = iree_tensor_ext.compute_barrier.start %0 : tensor<4x4xf32> -> tensor<4x4xf32>
  %2 = hal.tensor.import %arg1 "input1" : !hal.buffer_view -> tensor<4x4xf32>
  %3 = iree_tensor_ext.compute_barrier.start %2 : tensor<4x4xf32> -> tensor<4x4xf32>
  %4 = tensor.empty() : tensor<4x4xf32>
  %5 = linalg.matmul ins(%1, %3 : tensor<4x4xf32>, tensor<4x4xf32>) outs(%4 : tensor<4x4xf32>) -> tensor<4x4xf32>
  %6 = linalg.generic {indexing_maps = [affine_map<(d0, d1) -> (d0, d1)>, affine_map<(d0, d1) -> (d0, d1)>], iterator_types = ["parallel", "parallel"]} ins(%5 : tensor<4x4xf32>) outs(%4 : tensor<4x4xf32>) {
  ^bb0(%in: f32, %out: f32):
    %9 = arith.maximumf %in, %cst : f32
    linalg.yield %9 : f32
  } -> tensor<4x4xf32>
  %7 = iree_tensor_ext.compute_barrier.end %6 : tensor<4x4xf32> -> tensor<4x4xf32>
  %8 = hal.tensor.export %7 "output0" : tensor<4x4xf32> -> !hal.buffer_view
  util.return %8 : !hal.buffer_view
}

// -----// IR Dump After FuseMultiUseElementwiseProducerPass (iree-dispatch-creation-fuse-multi-use-elementwise-producer) //----- //
util.func public @matmul(%arg0: !hal.buffer_view, %arg1: !hal.buffer_view) -> !hal.buffer_view attributes {iree.abi.stub, iree.reflection = {iree.abi.declaration = "sync func @matmul(%input0: tensor<4x4xf32>, %input1: tensor<4x4xf32>) -> (%output0: tensor<4x4xf32>)"}} {
  %cst = arith.constant 0.000000e+00 : f32
  %0 = hal.tensor.import %arg0 "input0" : !hal.buffer_view -> tensor<4x4xf32>
  %1 = iree_tensor_ext.compute_barrier.start %0 : tensor<4x4xf32> -> tensor<4x4xf32>
  %2 = hal.tensor.import %arg1 "input1" : !hal.buffer_view -> tensor<4x4xf32>
  %3 = iree_tensor_ext.compute_barrier.start %2 : tensor<4x4xf32> -> tensor<4x4xf32>
  %4 = tensor.empty() : tensor<4x4xf32>
  %5 = linalg.matmul ins(%1, %3 : tensor<4x4xf32>, tensor<4x4xf32>) outs(%4 : tensor<4x4xf32>) -> tensor<4x4xf32>
  %6 = linalg.generic {indexing_maps = [affine_map<(d0, d1) -> (d0, d1)>, affine_map<(d0, d1) -> (d0, d1)>], iterator_types = ["parallel", "parallel"]} ins(%5 : tensor<4x4xf32>) outs(%4 : tensor<4x4xf32>) {
  ^bb0(%in: f32, %out: f32):
    %9 = arith.maximumf %in, %cst : f32
    linalg.yield %9 : f32
  } -> tensor<4x4xf32>
  %7 = iree_tensor_ext.compute_barrier.end %6 : tensor<4x4xf32> -> tensor<4x4xf32>
  %8 = hal.tensor.export %7 "output0" : tensor<4x4xf32> -> !hal.buffer_view
  util.return %8 : !hal.buffer_view
}

// -----// IR Dump After CanonicalizePass (iree-flow-canonicalize) //----- //
util.func public @matmul(%arg0: !hal.buffer_view, %arg1: !hal.buffer_view) -> !hal.buffer_view attributes {iree.abi.stub, iree.reflection = {iree.abi.declaration = "sync func @matmul(%input0: tensor<4x4xf32>, %input1: tensor<4x4xf32>) -> (%output0: tensor<4x4xf32>)"}} {
  %cst = arith.constant 0.000000e+00 : f32
  %0 = hal.tensor.import %arg0 "input0" : !hal.buffer_view -> tensor<4x4xf32>
  %1 = iree_tensor_ext.compute_barrier.start %0 : tensor<4x4xf32> -> tensor<4x4xf32>
  %2 = hal.tensor.import %arg1 "input1" : !hal.buffer_view -> tensor<4x4xf32>
  %3 = iree_tensor_ext.compute_barrier.start %2 : tensor<4x4xf32> -> tensor<4x4xf32>
  %4 = tensor.empty() : tensor<4x4xf32>
  %5 = linalg.matmul ins(%1, %3 : tensor<4x4xf32>, tensor<4x4xf32>) outs(%4 : tensor<4x4xf32>) -> tensor<4x4xf32>
  %6 = linalg.generic {indexing_maps = [affine_map<(d0, d1) -> (d0, d1)>, affine_map<(d0, d1) -> (d0, d1)>], iterator_types = ["parallel", "parallel"]} ins(%5 : tensor<4x4xf32>) outs(%4 : tensor<4x4xf32>) {
  ^bb0(%in: f32, %out: f32):
    %9 = arith.maximumf %in, %cst : f32
    linalg.yield %9 : f32
  } -> tensor<4x4xf32>
  %7 = iree_tensor_ext.compute_barrier.end %6 : tensor<4x4xf32> -> tensor<4x4xf32>
  %8 = hal.tensor.export %7 "output0" : tensor<4x4xf32> -> !hal.buffer_view
  util.return %8 : !hal.buffer_view
}

// -----// IR Dump After CSE (cse) //----- //
util.func public @matmul(%arg0: !hal.buffer_view, %arg1: !hal.buffer_view) -> !hal.buffer_view attributes {iree.abi.stub, iree.reflection = {iree.abi.declaration = "sync func @matmul(%input0: tensor<4x4xf32>, %input1: tensor<4x4xf32>) -> (%output0: tensor<4x4xf32>)"}} {
  %cst = arith.constant 0.000000e+00 : f32
  %0 = hal.tensor.import %arg0 "input0" : !hal.buffer_view -> tensor<4x4xf32>
  %1 = iree_tensor_ext.compute_barrier.start %0 : tensor<4x4xf32> -> tensor<4x4xf32>
  %2 = hal.tensor.import %arg1 "input1" : !hal.buffer_view -> tensor<4x4xf32>
  %3 = iree_tensor_ext.compute_barrier.start %2 : tensor<4x4xf32> -> tensor<4x4xf32>
  %4 = tensor.empty() : tensor<4x4xf32>
  %5 = linalg.matmul ins(%1, %3 : tensor<4x4xf32>, tensor<4x4xf32>) outs(%4 : tensor<4x4xf32>) -> tensor<4x4xf32>
  %6 = linalg.generic {indexing_maps = [affine_map<(d0, d1) -> (d0, d1)>, affine_map<(d0, d1) -> (d0, d1)>], iterator_types = ["parallel", "parallel"]} ins(%5 : tensor<4x4xf32>) outs(%4 : tensor<4x4xf32>) {
  ^bb0(%in: f32, %out: f32):
    %9 = arith.maximumf %in, %cst : f32
    linalg.yield %9 : f32
  } -> tensor<4x4xf32>
  %7 = iree_tensor_ext.compute_barrier.end %6 : tensor<4x4xf32> -> tensor<4x4xf32>
  %8 = hal.tensor.export %7 "output0" : tensor<4x4xf32> -> !hal.buffer_view
  util.return %8 : !hal.buffer_view
}

// -----// IR Dump After SplitReductionPass (iree-dispatch-creation-split-reduction-ops) //----- //
util.func public @matmul(%arg0: !hal.buffer_view, %arg1: !hal.buffer_view) -> !hal.buffer_view attributes {iree.abi.stub, iree.reflection = {iree.abi.declaration = "sync func @matmul(%input0: tensor<4x4xf32>, %input1: tensor<4x4xf32>) -> (%output0: tensor<4x4xf32>)"}} {
  %cst = arith.constant 0.000000e+00 : f32
  %0 = hal.tensor.import %arg0 "input0" : !hal.buffer_view -> tensor<4x4xf32>
  %1 = iree_tensor_ext.compute_barrier.start %0 : tensor<4x4xf32> -> tensor<4x4xf32>
  %2 = hal.tensor.import %arg1 "input1" : !hal.buffer_view -> tensor<4x4xf32>
  %3 = iree_tensor_ext.compute_barrier.start %2 : tensor<4x4xf32> -> tensor<4x4xf32>
  %4 = tensor.empty() : tensor<4x4xf32>
  %5 = linalg.matmul ins(%1, %3 : tensor<4x4xf32>, tensor<4x4xf32>) outs(%4 : tensor<4x4xf32>) -> tensor<4x4xf32>
  %6 = linalg.generic {indexing_maps = [affine_map<(d0, d1) -> (d0, d1)>, affine_map<(d0, d1) -> (d0, d1)>], iterator_types = ["parallel", "parallel"]} ins(%5 : tensor<4x4xf32>) outs(%4 : tensor<4x4xf32>) {
  ^bb0(%in: f32, %out: f32):
    %9 = arith.maximumf %in, %cst : f32
    linalg.yield %9 : f32
  } -> tensor<4x4xf32>
  %7 = iree_tensor_ext.compute_barrier.end %6 : tensor<4x4xf32> -> tensor<4x4xf32>
  %8 = hal.tensor.export %7 "output0" : tensor<4x4xf32> -> !hal.buffer_view
  util.return %8 : !hal.buffer_view
}

// -----// IR Dump After FormSplitReductionDispatchesPass (iree-dispatch-creation-form-split-reduction-dispatches) //----- //
util.func public @matmul(%arg0: !hal.buffer_view, %arg1: !hal.buffer_view) -> !hal.buffer_view attributes {iree.abi.stub, iree.reflection = {iree.abi.declaration = "sync func @matmul(%input0: tensor<4x4xf32>, %input1: tensor<4x4xf32>) -> (%output0: tensor<4x4xf32>)"}} {
  %cst = arith.constant 0.000000e+00 : f32
  %0 = hal.tensor.import %arg0 "input0" : !hal.buffer_view -> tensor<4x4xf32>
  %1 = iree_tensor_ext.compute_barrier.start %0 : tensor<4x4xf32> -> tensor<4x4xf32>
  %2 = hal.tensor.import %arg1 "input1" : !hal.buffer_view -> tensor<4x4xf32>
  %3 = iree_tensor_ext.compute_barrier.start %2 : tensor<4x4xf32> -> tensor<4x4xf32>
  %4 = tensor.empty() : tensor<4x4xf32>
  %5 = linalg.matmul ins(%1, %3 : tensor<4x4xf32>, tensor<4x4xf32>) outs(%4 : tensor<4x4xf32>) -> tensor<4x4xf32>
  %6 = linalg.generic {indexing_maps = [affine_map<(d0, d1) -> (d0, d1)>, affine_map<(d0, d1) -> (d0, d1)>], iterator_types = ["parallel", "parallel"]} ins(%5 : tensor<4x4xf32>) outs(%4 : tensor<4x4xf32>) {
  ^bb0(%in: f32, %out: f32):
    %9 = arith.maximumf %in, %cst : f32
    linalg.yield %9 : f32
  } -> tensor<4x4xf32>
  %7 = iree_tensor_ext.compute_barrier.end %6 : tensor<4x4xf32> -> tensor<4x4xf32>
  %8 = hal.tensor.export %7 "output0" : tensor<4x4xf32> -> !hal.buffer_view
  util.return %8 : !hal.buffer_view
}

// -----// IR Dump After TransposeGenericOpsPass (iree-dispatch-creation-transpose-generic-ops) //----- //
util.func public @matmul(%arg0: !hal.buffer_view, %arg1: !hal.buffer_view) -> !hal.buffer_view attributes {iree.abi.stub, iree.reflection = {iree.abi.declaration = "sync func @matmul(%input0: tensor<4x4xf32>, %input1: tensor<4x4xf32>) -> (%output0: tensor<4x4xf32>)"}} {
  %cst = arith.constant 0.000000e+00 : f32
  %0 = hal.tensor.import %arg0 "input0" : !hal.buffer_view -> tensor<4x4xf32>
  %1 = iree_tensor_ext.compute_barrier.start %0 : tensor<4x4xf32> -> tensor<4x4xf32>
  %2 = hal.tensor.import %arg1 "input1" : !hal.buffer_view -> tensor<4x4xf32>
  %3 = iree_tensor_ext.compute_barrier.start %2 : tensor<4x4xf32> -> tensor<4x4xf32>
  %4 = tensor.empty() : tensor<4x4xf32>
  %5 = linalg.matmul ins(%1, %3 : tensor<4x4xf32>, tensor<4x4xf32>) outs(%4 : tensor<4x4xf32>) -> tensor<4x4xf32>
  %6 = linalg.generic {indexing_maps = [affine_map<(d0, d1) -> (d0, d1)>, affine_map<(d0, d1) -> (d0, d1)>], iterator_types = ["parallel", "parallel"]} ins(%5 : tensor<4x4xf32>) outs(%4 : tensor<4x4xf32>) {
  ^bb0(%in: f32, %out: f32):
    %9 = arith.maximumf %in, %cst : f32
    linalg.yield %9 : f32
  } -> tensor<4x4xf32>
  %7 = iree_tensor_ext.compute_barrier.end %6 : tensor<4x4xf32> -> tensor<4x4xf32>
  %8 = hal.tensor.export %7 "output0" : tensor<4x4xf32> -> !hal.buffer_view
  util.return %8 : !hal.buffer_view
}

// -----// IR Dump After PropagateEncodingsPass (iree-dispatch-creation-propagate-encodings) //----- //
util.func public @matmul(%arg0: !hal.buffer_view, %arg1: !hal.buffer_view) -> !hal.buffer_view attributes {iree.abi.stub, iree.reflection = {iree.abi.declaration = "sync func @matmul(%input0: tensor<4x4xf32>, %input1: tensor<4x4xf32>) -> (%output0: tensor<4x4xf32>)"}} {
  %cst = arith.constant 0.000000e+00 : f32
  %0 = hal.tensor.import %arg0 "input0" : !hal.buffer_view -> tensor<4x4xf32>
  %1 = iree_tensor_ext.compute_barrier.start %0 : tensor<4x4xf32> -> tensor<4x4xf32>
  %2 = hal.tensor.import %arg1 "input1" : !hal.buffer_view -> tensor<4x4xf32>
  %3 = iree_tensor_ext.compute_barrier.start %2 : tensor<4x4xf32> -> tensor<4x4xf32>
  %4 = tensor.empty() : tensor<4x4xf32>
  %5 = linalg.matmul ins(%1, %3 : tensor<4x4xf32>, tensor<4x4xf32>) outs(%4 : tensor<4x4xf32>) -> tensor<4x4xf32>
  %6 = linalg.generic {indexing_maps = [affine_map<(d0, d1) -> (d0, d1)>, affine_map<(d0, d1) -> (d0, d1)>], iterator_types = ["parallel", "parallel"]} ins(%5 : tensor<4x4xf32>) outs(%4 : tensor<4x4xf32>) {
  ^bb0(%in: f32, %out: f32):
    %9 = arith.maximumf %in, %cst : f32
    linalg.yield %9 : f32
  } -> tensor<4x4xf32>
  %7 = iree_tensor_ext.compute_barrier.end %6 : tensor<4x4xf32> -> tensor<4x4xf32>
  %8 = hal.tensor.export %7 "output0" : tensor<4x4xf32> -> !hal.buffer_view
  util.return %8 : !hal.buffer_view
}

// -----// IR Dump After HoistIntoGlobalsPass (iree-util-hoist-into-globals) //----- //
#executable_target_embedded_elf_arm_64 = #hal.executable.target<"llvm-cpu", "embedded-elf-arm_64", {cpu = "", cpu_features = "+reserve-x18", data_layout = "e-m:e-p270:32:32-p271:32:32-p272:64:64-i8:8:32-i16:16:32-i64:64-i128:128-n32:64-S128-Fn32", iree.encoding.resolver = #iree_cpu.cpu_encoding_resolver<>, max_stack_allocation_size = 32768 : i64, native_vector_size = 16 : i64, target_triple = "arm64-unknown-unknown-eabi-elf"}>
#map = affine_map<(d0, d1) -> (d0, d1)>
#device_target_local = #hal.device.target<"local", [#executable_target_embedded_elf_arm_64]> : !hal.device
module attributes {stream.affinity.default = #hal.device.affinity<@__device_0>} {
  util.global private @__device_0 = #device_target_local
  util.func public @matmul(%arg0: !hal.buffer_view, %arg1: !hal.buffer_view) -> !hal.buffer_view attributes {iree.abi.stub, iree.reflection = {iree.abi.declaration = "sync func @matmul(%input0: tensor<4x4xf32>, %input1: tensor<4x4xf32>) -> (%output0: tensor<4x4xf32>)"}} {
    %cst = arith.constant 0.000000e+00 : f32
    %0 = hal.tensor.import %arg0 "input0" : !hal.buffer_view -> tensor<4x4xf32>
    %1 = iree_tensor_ext.compute_barrier.start %0 : tensor<4x4xf32> -> tensor<4x4xf32>
    %2 = hal.tensor.import %arg1 "input1" : !hal.buffer_view -> tensor<4x4xf32>
    %3 = iree_tensor_ext.compute_barrier.start %2 : tensor<4x4xf32> -> tensor<4x4xf32>
    %4 = tensor.empty() : tensor<4x4xf32>
    %5 = linalg.matmul ins(%1, %3 : tensor<4x4xf32>, tensor<4x4xf32>) outs(%4 : tensor<4x4xf32>) -> tensor<4x4xf32>
    %6 = linalg.generic {indexing_maps = [#map, #map], iterator_types = ["parallel", "parallel"]} ins(%5 : tensor<4x4xf32>) outs(%4 : tensor<4x4xf32>) {
    ^bb0(%in: f32, %out: f32):
      %9 = arith.maximumf %in, %cst : f32
      linalg.yield %9 : f32
    } -> tensor<4x4xf32>
    %7 = iree_tensor_ext.compute_barrier.end %6 : tensor<4x4xf32> -> tensor<4x4xf32>
    %8 = hal.tensor.export %7 "output0" : tensor<4x4xf32> -> !hal.buffer_view
    util.return %8 : !hal.buffer_view
  }
}


// -----// IR Dump After CanonicalizePass (iree-flow-canonicalize) //----- //
util.func public @matmul(%arg0: !hal.buffer_view, %arg1: !hal.buffer_view) -> !hal.buffer_view attributes {iree.abi.stub, iree.reflection = {iree.abi.declaration = "sync func @matmul(%input0: tensor<4x4xf32>, %input1: tensor<4x4xf32>) -> (%output0: tensor<4x4xf32>)"}} {
  %cst = arith.constant 0.000000e+00 : f32
  %0 = hal.tensor.import %arg0 "input0" : !hal.buffer_view -> tensor<4x4xf32>
  %1 = iree_tensor_ext.compute_barrier.start %0 : tensor<4x4xf32> -> tensor<4x4xf32>
  %2 = hal.tensor.import %arg1 "input1" : !hal.buffer_view -> tensor<4x4xf32>
  %3 = iree_tensor_ext.compute_barrier.start %2 : tensor<4x4xf32> -> tensor<4x4xf32>
  %4 = tensor.empty() : tensor<4x4xf32>
  %5 = linalg.matmul ins(%1, %3 : tensor<4x4xf32>, tensor<4x4xf32>) outs(%4 : tensor<4x4xf32>) -> tensor<4x4xf32>
  %6 = linalg.generic {indexing_maps = [affine_map<(d0, d1) -> (d0, d1)>, affine_map<(d0, d1) -> (d0, d1)>], iterator_types = ["parallel", "parallel"]} ins(%5 : tensor<4x4xf32>) outs(%4 : tensor<4x4xf32>) {
  ^bb0(%in: f32, %out: f32):
    %9 = arith.maximumf %in, %cst : f32
    linalg.yield %9 : f32
  } -> tensor<4x4xf32>
  %7 = iree_tensor_ext.compute_barrier.end %6 : tensor<4x4xf32> -> tensor<4x4xf32>
  %8 = hal.tensor.export %7 "output0" : tensor<4x4xf32> -> !hal.buffer_view
  util.return %8 : !hal.buffer_view
}

// -----// IR Dump After CSE (cse) //----- //
util.func public @matmul(%arg0: !hal.buffer_view, %arg1: !hal.buffer_view) -> !hal.buffer_view attributes {iree.abi.stub, iree.reflection = {iree.abi.declaration = "sync func @matmul(%input0: tensor<4x4xf32>, %input1: tensor<4x4xf32>) -> (%output0: tensor<4x4xf32>)"}} {
  %cst = arith.constant 0.000000e+00 : f32
  %0 = hal.tensor.import %arg0 "input0" : !hal.buffer_view -> tensor<4x4xf32>
  %1 = iree_tensor_ext.compute_barrier.start %0 : tensor<4x4xf32> -> tensor<4x4xf32>
  %2 = hal.tensor.import %arg1 "input1" : !hal.buffer_view -> tensor<4x4xf32>
  %3 = iree_tensor_ext.compute_barrier.start %2 : tensor<4x4xf32> -> tensor<4x4xf32>
  %4 = tensor.empty() : tensor<4x4xf32>
  %5 = linalg.matmul ins(%1, %3 : tensor<4x4xf32>, tensor<4x4xf32>) outs(%4 : tensor<4x4xf32>) -> tensor<4x4xf32>
  %6 = linalg.generic {indexing_maps = [affine_map<(d0, d1) -> (d0, d1)>, affine_map<(d0, d1) -> (d0, d1)>], iterator_types = ["parallel", "parallel"]} ins(%5 : tensor<4x4xf32>) outs(%4 : tensor<4x4xf32>) {
  ^bb0(%in: f32, %out: f32):
    %9 = arith.maximumf %in, %cst : f32
    linalg.yield %9 : f32
  } -> tensor<4x4xf32>
  %7 = iree_tensor_ext.compute_barrier.end %6 : tensor<4x4xf32> -> tensor<4x4xf32>
  %8 = hal.tensor.export %7 "output0" : tensor<4x4xf32> -> !hal.buffer_view
  util.return %8 : !hal.buffer_view
}

// -----// IR Dump After FormScalarDispatchesPass (iree-dispatch-creation-form-scalar-dispatches) //----- //
util.func public @matmul(%arg0: !hal.buffer_view, %arg1: !hal.buffer_view) -> !hal.buffer_view attributes {iree.abi.stub, iree.reflection = {iree.abi.declaration = "sync func @matmul(%input0: tensor<4x4xf32>, %input1: tensor<4x4xf32>) -> (%output0: tensor<4x4xf32>)"}} {
  %cst = arith.constant 0.000000e+00 : f32
  %0 = hal.tensor.import %arg0 "input0" : !hal.buffer_view -> tensor<4x4xf32>
  %1 = iree_tensor_ext.compute_barrier.start %0 : tensor<4x4xf32> -> tensor<4x4xf32>
  %2 = hal.tensor.import %arg1 "input1" : !hal.buffer_view -> tensor<4x4xf32>
  %3 = iree_tensor_ext.compute_barrier.start %2 : tensor<4x4xf32> -> tensor<4x4xf32>
  %4 = tensor.empty() : tensor<4x4xf32>
  %5 = linalg.matmul ins(%1, %3 : tensor<4x4xf32>, tensor<4x4xf32>) outs(%4 : tensor<4x4xf32>) -> tensor<4x4xf32>
  %6 = linalg.generic {indexing_maps = [affine_map<(d0, d1) -> (d0, d1)>, affine_map<(d0, d1) -> (d0, d1)>], iterator_types = ["parallel", "parallel"]} ins(%5 : tensor<4x4xf32>) outs(%4 : tensor<4x4xf32>) {
  ^bb0(%in: f32, %out: f32):
    %9 = arith.maximumf %in, %cst : f32
    linalg.yield %9 : f32
  } -> tensor<4x4xf32>
  %7 = iree_tensor_ext.compute_barrier.end %6 : tensor<4x4xf32> -> tensor<4x4xf32>
  %8 = hal.tensor.export %7 "output0" : tensor<4x4xf32> -> !hal.buffer_view
  util.return %8 : !hal.buffer_view
}

// -----// IR Dump After FormDispatchRegionsPass (iree-dispatch-creation-form-dispatch-regions) //----- //
util.func public @matmul(%arg0: !hal.buffer_view, %arg1: !hal.buffer_view) -> !hal.buffer_view attributes {iree.abi.stub, iree.reflection = {iree.abi.declaration = "sync func @matmul(%input0: tensor<4x4xf32>, %input1: tensor<4x4xf32>) -> (%output0: tensor<4x4xf32>)"}} {
  %cst = arith.constant 0.000000e+00 : f32
  %0 = hal.tensor.import %arg0 "input0" : !hal.buffer_view -> tensor<4x4xf32>
  %1 = iree_tensor_ext.compute_barrier.start %0 : tensor<4x4xf32> -> tensor<4x4xf32>
  %2 = hal.tensor.import %arg1 "input1" : !hal.buffer_view -> tensor<4x4xf32>
  %3 = iree_tensor_ext.compute_barrier.start %2 : tensor<4x4xf32> -> tensor<4x4xf32>
  %4 = tensor.empty() : tensor<4x4xf32>
  %5 = flow.dispatch.region -> (tensor<4x4xf32>) {
    %8 = linalg.matmul ins(%1, %3 : tensor<4x4xf32>, tensor<4x4xf32>) outs(%4 : tensor<4x4xf32>) -> tensor<4x4xf32>
    %9 = linalg.generic {indexing_maps = [affine_map<(d0, d1) -> (d0, d1)>, affine_map<(d0, d1) -> (d0, d1)>], iterator_types = ["parallel", "parallel"]} ins(%8 : tensor<4x4xf32>) outs(%4 : tensor<4x4xf32>) {
    ^bb0(%in: f32, %out: f32):
      %10 = arith.maximumf %in, %cst : f32
      linalg.yield %10 : f32
    } -> tensor<4x4xf32>
    flow.return %9 : tensor<4x4xf32>
  }
  %6 = iree_tensor_ext.compute_barrier.end %5 : tensor<4x4xf32> -> tensor<4x4xf32>
  %7 = hal.tensor.export %6 "output0" : tensor<4x4xf32> -> !hal.buffer_view
  util.return %7 : !hal.buffer_view
}

// -----// IR Dump After ElementwiseOpFusionPass (iree-dispatch-creation-elementwise-op-fusion) //----- //
util.func public @matmul(%arg0: !hal.buffer_view, %arg1: !hal.buffer_view) -> !hal.buffer_view attributes {iree.abi.stub, iree.reflection = {iree.abi.declaration = "sync func @matmul(%input0: tensor<4x4xf32>, %input1: tensor<4x4xf32>) -> (%output0: tensor<4x4xf32>)"}} {
  %cst = arith.constant 0.000000e+00 : f32
  %0 = hal.tensor.import %arg0 "input0" : !hal.buffer_view -> tensor<4x4xf32>
  %1 = iree_tensor_ext.compute_barrier.start %0 : tensor<4x4xf32> -> tensor<4x4xf32>
  %2 = hal.tensor.import %arg1 "input1" : !hal.buffer_view -> tensor<4x4xf32>
  %3 = iree_tensor_ext.compute_barrier.start %2 : tensor<4x4xf32> -> tensor<4x4xf32>
  %4 = tensor.empty() : tensor<4x4xf32>
  %5 = flow.dispatch.region -> (tensor<4x4xf32>) {
    %8 = linalg.matmul ins(%1, %3 : tensor<4x4xf32>, tensor<4x4xf32>) outs(%4 : tensor<4x4xf32>) -> tensor<4x4xf32>
    %9 = linalg.generic {indexing_maps = [affine_map<(d0, d1) -> (d0, d1)>, affine_map<(d0, d1) -> (d0, d1)>], iterator_types = ["parallel", "parallel"]} ins(%8 : tensor<4x4xf32>) outs(%4 : tensor<4x4xf32>) {
    ^bb0(%in: f32, %out: f32):
      %10 = arith.maximumf %in, %cst : f32
      linalg.yield %10 : f32
    } -> tensor<4x4xf32>
    flow.return %9 : tensor<4x4xf32>
  }
  %6 = iree_tensor_ext.compute_barrier.end %5 : tensor<4x4xf32> -> tensor<4x4xf32>
  %7 = hal.tensor.export %6 "output0" : tensor<4x4xf32> -> !hal.buffer_view
  util.return %7 : !hal.buffer_view
}

// -----// IR Dump After FuseMultiUseElementwiseProducerPass (iree-dispatch-creation-fuse-multi-use-elementwise-producer) //----- //
util.func public @matmul(%arg0: !hal.buffer_view, %arg1: !hal.buffer_view) -> !hal.buffer_view attributes {iree.abi.stub, iree.reflection = {iree.abi.declaration = "sync func @matmul(%input0: tensor<4x4xf32>, %input1: tensor<4x4xf32>) -> (%output0: tensor<4x4xf32>)"}} {
  %cst = arith.constant 0.000000e+00 : f32
  %0 = hal.tensor.import %arg0 "input0" : !hal.buffer_view -> tensor<4x4xf32>
  %1 = iree_tensor_ext.compute_barrier.start %0 : tensor<4x4xf32> -> tensor<4x4xf32>
  %2 = hal.tensor.import %arg1 "input1" : !hal.buffer_view -> tensor<4x4xf32>
  %3 = iree_tensor_ext.compute_barrier.start %2 : tensor<4x4xf32> -> tensor<4x4xf32>
  %4 = tensor.empty() : tensor<4x4xf32>
  %5 = flow.dispatch.region -> (tensor<4x4xf32>) {
    %8 = linalg.matmul ins(%1, %3 : tensor<4x4xf32>, tensor<4x4xf32>) outs(%4 : tensor<4x4xf32>) -> tensor<4x4xf32>
    %9 = linalg.generic {indexing_maps = [affine_map<(d0, d1) -> (d0, d1)>, affine_map<(d0, d1) -> (d0, d1)>], iterator_types = ["parallel", "parallel"]} ins(%8 : tensor<4x4xf32>) outs(%4 : tensor<4x4xf32>) {
    ^bb0(%in: f32, %out: f32):
      %10 = arith.maximumf %in, %cst : f32
      linalg.yield %10 : f32
    } -> tensor<4x4xf32>
    flow.return %9 : tensor<4x4xf32>
  }
  %6 = iree_tensor_ext.compute_barrier.end %5 : tensor<4x4xf32> -> tensor<4x4xf32>
  %7 = hal.tensor.export %6 "output0" : tensor<4x4xf32> -> !hal.buffer_view
  util.return %7 : !hal.buffer_view
}

// -----// IR Dump After CloneProducersIntoDispatchRegionsPass (iree-dispatch-creation-clone-producers-into-dispatch-regions) //----- //
util.func public @matmul(%arg0: !hal.buffer_view, %arg1: !hal.buffer_view) -> !hal.buffer_view attributes {iree.abi.stub, iree.reflection = {iree.abi.declaration = "sync func @matmul(%input0: tensor<4x4xf32>, %input1: tensor<4x4xf32>) -> (%output0: tensor<4x4xf32>)"}} {
  %0 = hal.tensor.import %arg0 "input0" : !hal.buffer_view -> tensor<4x4xf32>
  %1 = iree_tensor_ext.compute_barrier.start %0 : tensor<4x4xf32> -> tensor<4x4xf32>
  %2 = hal.tensor.import %arg1 "input1" : !hal.buffer_view -> tensor<4x4xf32>
  %3 = iree_tensor_ext.compute_barrier.start %2 : tensor<4x4xf32> -> tensor<4x4xf32>
  %4 = flow.dispatch.region -> (tensor<4x4xf32>) {
    %cst = arith.constant 0.000000e+00 : f32
    %7 = tensor.empty() : tensor<4x4xf32>
    %8 = linalg.matmul ins(%1, %3 : tensor<4x4xf32>, tensor<4x4xf32>) outs(%7 : tensor<4x4xf32>) -> tensor<4x4xf32>
    %9 = linalg.generic {indexing_maps = [affine_map<(d0, d1) -> (d0, d1)>, affine_map<(d0, d1) -> (d0, d1)>], iterator_types = ["parallel", "parallel"]} ins(%8 : tensor<4x4xf32>) outs(%7 : tensor<4x4xf32>) {
    ^bb0(%in: f32, %out: f32):
      %10 = arith.maximumf %in, %cst : f32
      linalg.yield %10 : f32
    } -> tensor<4x4xf32>
    flow.return %9 : tensor<4x4xf32>
  }
  %5 = iree_tensor_ext.compute_barrier.end %4 : tensor<4x4xf32> -> tensor<4x4xf32>
  %6 = hal.tensor.export %5 "output0" : tensor<4x4xf32> -> !hal.buffer_view
  util.return %6 : !hal.buffer_view
}

// -----// IR Dump After CollapseDimensionsPass (iree-dispatch-creation-collapse-dimensions) //----- //
util.func public @matmul(%arg0: !hal.buffer_view, %arg1: !hal.buffer_view) -> !hal.buffer_view attributes {iree.abi.stub, iree.reflection = {iree.abi.declaration = "sync func @matmul(%input0: tensor<4x4xf32>, %input1: tensor<4x4xf32>) -> (%output0: tensor<4x4xf32>)"}} {
  %0 = hal.tensor.import %arg0 "input0" : !hal.buffer_view -> tensor<4x4xf32>
  %1 = iree_tensor_ext.compute_barrier.start %0 : tensor<4x4xf32> -> tensor<4x4xf32>
  %2 = hal.tensor.import %arg1 "input1" : !hal.buffer_view -> tensor<4x4xf32>
  %3 = iree_tensor_ext.compute_barrier.start %2 : tensor<4x4xf32> -> tensor<4x4xf32>
  %4 = flow.dispatch.region -> (tensor<4x4xf32>) {
    %cst = arith.constant 0.000000e+00 : f32
    %7 = tensor.empty() : tensor<4x4xf32>
    %8 = linalg.matmul ins(%1, %3 : tensor<4x4xf32>, tensor<4x4xf32>) outs(%7 : tensor<4x4xf32>) -> tensor<4x4xf32>
    %9 = linalg.generic {indexing_maps = [affine_map<(d0, d1) -> (d0, d1)>, affine_map<(d0, d1) -> (d0, d1)>], iterator_types = ["parallel", "parallel"]} ins(%8 : tensor<4x4xf32>) outs(%7 : tensor<4x4xf32>) {
    ^bb0(%in: f32, %out: f32):
      %10 = arith.maximumf %in, %cst : f32
      linalg.yield %10 : f32
    } -> tensor<4x4xf32>
    flow.return %9 : tensor<4x4xf32>
  }
  %5 = iree_tensor_ext.compute_barrier.end %4 : tensor<4x4xf32> -> tensor<4x4xf32>
  %6 = hal.tensor.export %5 "output0" : tensor<4x4xf32> -> !hal.buffer_view
  util.return %6 : !hal.buffer_view
}

// -----// IR Dump After HoistUniformScalarComputePass (iree-dispatch-creation-hoist-uniform-scalar-compute) //----- //
util.func public @matmul(%arg0: !hal.buffer_view, %arg1: !hal.buffer_view) -> !hal.buffer_view attributes {iree.abi.stub, iree.reflection = {iree.abi.declaration = "sync func @matmul(%input0: tensor<4x4xf32>, %input1: tensor<4x4xf32>) -> (%output0: tensor<4x4xf32>)"}} {
  %0 = hal.tensor.import %arg0 "input0" : !hal.buffer_view -> tensor<4x4xf32>
  %1 = iree_tensor_ext.compute_barrier.start %0 : tensor<4x4xf32> -> tensor<4x4xf32>
  %2 = hal.tensor.import %arg1 "input1" : !hal.buffer_view -> tensor<4x4xf32>
  %3 = iree_tensor_ext.compute_barrier.start %2 : tensor<4x4xf32> -> tensor<4x4xf32>
  %4 = flow.dispatch.region -> (tensor<4x4xf32>) {
    %cst = arith.constant 0.000000e+00 : f32
    %7 = tensor.empty() : tensor<4x4xf32>
    %8 = linalg.matmul ins(%1, %3 : tensor<4x4xf32>, tensor<4x4xf32>) outs(%7 : tensor<4x4xf32>) -> tensor<4x4xf32>
    %9 = linalg.generic {indexing_maps = [affine_map<(d0, d1) -> (d0, d1)>, affine_map<(d0, d1) -> (d0, d1)>], iterator_types = ["parallel", "parallel"]} ins(%8 : tensor<4x4xf32>) outs(%7 : tensor<4x4xf32>) {
    ^bb0(%in: f32, %out: f32):
      %10 = arith.maximumf %in, %cst : f32
      linalg.yield %10 : f32
    } -> tensor<4x4xf32>
    flow.return %9 : tensor<4x4xf32>
  }
  %5 = iree_tensor_ext.compute_barrier.end %4 : tensor<4x4xf32> -> tensor<4x4xf32>
  %6 = hal.tensor.export %5 "output0" : tensor<4x4xf32> -> !hal.buffer_view
  util.return %6 : !hal.buffer_view
}

// -----// IR Dump After FuseEncodingOpsIntoDispatchRegionsPass (iree-dispatch-creation-fuse-encoding-ops-into-dispatch-regions-pass) //----- //
util.func public @matmul(%arg0: !hal.buffer_view, %arg1: !hal.buffer_view) -> !hal.buffer_view attributes {iree.abi.stub, iree.reflection = {iree.abi.declaration = "sync func @matmul(%input0: tensor<4x4xf32>, %input1: tensor<4x4xf32>) -> (%output0: tensor<4x4xf32>)"}} {
  %0 = hal.tensor.import %arg0 "input0" : !hal.buffer_view -> tensor<4x4xf32>
  %1 = iree_tensor_ext.compute_barrier.start %0 : tensor<4x4xf32> -> tensor<4x4xf32>
  %2 = hal.tensor.import %arg1 "input1" : !hal.buffer_view -> tensor<4x4xf32>
  %3 = iree_tensor_ext.compute_barrier.start %2 : tensor<4x4xf32> -> tensor<4x4xf32>
  %4 = flow.dispatch.region -> (tensor<4x4xf32>) {
    %cst = arith.constant 0.000000e+00 : f32
    %7 = tensor.empty() : tensor<4x4xf32>
    %8 = linalg.matmul ins(%1, %3 : tensor<4x4xf32>, tensor<4x4xf32>) outs(%7 : tensor<4x4xf32>) -> tensor<4x4xf32>
    %9 = linalg.generic {indexing_maps = [affine_map<(d0, d1) -> (d0, d1)>, affine_map<(d0, d1) -> (d0, d1)>], iterator_types = ["parallel", "parallel"]} ins(%8 : tensor<4x4xf32>) outs(%7 : tensor<4x4xf32>) {
    ^bb0(%in: f32, %out: f32):
      %10 = arith.maximumf %in, %cst : f32
      linalg.yield %10 : f32
    } -> tensor<4x4xf32>
    flow.return %9 : tensor<4x4xf32>
  }
  %5 = iree_tensor_ext.compute_barrier.end %4 : tensor<4x4xf32> -> tensor<4x4xf32>
  %6 = hal.tensor.export %5 "output0" : tensor<4x4xf32> -> !hal.buffer_view
  util.return %6 : !hal.buffer_view
}

// -----// IR Dump After ConvertEncodingToFlowPass (iree-dispatch-creation-convert-encoding-to-flow) //----- //
…
#device_target_local = #hal.device.target<"local", [#executable_target_embedded_elf_arm_64]> : !hal.device
module attributes {stream.affinity.default = #hal.device.affinity<@__device_0>} {
  util.global private @__device_0 = #device_target_local
  stream.executable private @matmul_dispatch_0 {
    stream.executable.export public @matmul_dispatch_0_matmul_4x4x4_f32 workgroups() -> (index, index, index) {
      %x, %y, %z = iree_tensor_ext.dispatch.workgroup_count_from_slice()
      stream.return %x, %y, %z : index, index, index
    }
    builtin.module {
      func.func @matmul_dispatch_0_matmul_4x4x4_f32(%arg0: !stream.binding {stream.alignment = 64 : index}, %arg1: !stream.binding {stream.alignment = 64 : index}, %arg2: !stream.binding {stream.alignment = 64 : index}, %arg3: i32, %arg4: i32, %arg5: i32, %arg6: i32, %arg7: i32, %arg8: i32) {
        %cst = arith.constant 0.000000e+00 : f32
        %c0 = arith.constant 0 : index
        %0 = stream.binding.subspan %arg0[%c0] : !stream.binding -> !iree_tensor_ext.dispatch.tensor<readonly:tensor<4x4xf32>>
        %1 = stream.binding.subspan %arg1[%c0] : !stream.binding -> !iree_tensor_ext.dispatch.tensor<readonly:tensor<4x4xf32>>
        %2 = stream.binding.subspan %arg2[%c0] : !stream.binding -> !iree_tensor_ext.dispatch.tensor<writeonly:tensor<4x4xf32>>
        %3 = iree_tensor_ext.dispatch.tensor.load %0, offsets = [0, 0], sizes = [4, 4], strides = [1, 1] : !iree_tensor_ext.dispatch.tensor<readonly:tensor<4x4xf32>> -> tensor<4x4xf32>
        %4 = iree_tensor_ext.dispatch.tensor.load %1, offsets = [0, 0], sizes = [4, 4], strides = [1, 1] : !iree_tensor_ext.dispatch.tensor<readonly:tensor<4x4xf32>> -> tensor<4x4xf32>
        %5 = tensor.empty() : tensor<4x4xf32>
        %6 = linalg.matmul ins(%3, %4 : tensor<4x4xf32>, tensor<4x4xf32>) outs(%5 : tensor<4x4xf32>) -> tensor<4x4xf32>
        %7 = linalg.generic {indexing_maps = [#map, #map], iterator_types = ["parallel", "parallel"]} ins(%6 : tensor<4x4xf32>) outs(%5 : tensor<4x4xf32>) {
        ^bb0(%in: f32, %out: f32):
          %8 = arith.maximumf %in, %cst : f32
          linalg.yield %8 : f32
        } -> tensor<4x4xf32>
        iree_tensor_ext.dispatch.tensor.store %7, %2, offsets = [0, 0], sizes = [4, 4], strides = [1, 1] : tensor<4x4xf32> -> !iree_tensor_ext.dispatch.tensor<writeonly:tensor<4x4xf32>>
        return
      }
    }
  }
  util.func public @matmul(%arg0: !hal.buffer_view, %arg1: !hal.buffer_view) -> !hal.buffer_view attributes {iree.abi.stub, iree.reflection = {iree.abi.declaration = "sync func @matmul(%input0: tensor<4x4xf32>, %input1: tensor<4x4xf32>) -> (%output0: tensor<4x4xf32>)"}} {
    %c0_i32 = arith.constant 0 : i32
    %c0 = arith.constant 0 : index
    %c64 = arith.constant 64 : index
    %c4 = arith.constant 4 : index
    %element_type_f32 = hal.element_type<f32> : i32
    %dense_row_major = hal.encoding_type<dense_row_major> : i32
    hal.buffer_view.assert<%arg0 : !hal.buffer_view> message("input0") shape([%c4, %c4]) type(%element_type_f32) encoding(%dense_row_major)
    %0 = stream.tensor.import on(#hal.device.affinity<@__device_0>) %arg0 : !hal.buffer_view -> tensor<4x4xf32> in !stream.resource<external>{%c64}
    hal.buffer_view.assert<%arg1 : !hal.buffer_view> message("input1") shape([%c4, %c4]) type(%element_type_f32) encoding(%dense_row_major)
    %1 = stream.tensor.import on(#hal.device.affinity<@__device_0>) %arg1 : !hal.buffer_view -> tensor<4x4xf32> in !stream.resource<external>{%c64}
    %result, %result_timepoint = stream.resource.alloca uninitialized on(#hal.device.affinity<@__device_0>) : !stream.resource<external>{%c64} => !stream.timepoint
    %2 = stream.cmd.execute on(#hal.device.affinity<@__device_0>) await(%result_timepoint) => with(%0 as %arg2: !stream.resource<external>{%c64}, %1 as %arg3: !stream.resource<external>{%c64}, %result as %arg4: !stream.resource<external>{%c64}) {
      stream.cmd.dispatch @matmul_dispatch_0::@matmul_dispatch_0_matmul_4x4x4_f32(%c0_i32, %c0_i32, %c0_i32, %c0_i32, %c0_i32, %c0_i32 : i32, i32, i32, i32, i32, i32) {
        ro %arg2[%c0 for %c64] : !stream.resource<external>{%c64},
        ro %arg3[%c0 for %c64] : !stream.resource<external>{%c64},
        wo %arg4[%c0 for %c64] : !stream.resource<external>{%c64}
      }
    } => !stream.timepoint
    %3 = stream.timepoint.await %2 => %result : !stream.resource<external>{%c64}
    %4 = stream.tensor.export on(#hal.device.affinity<@__device_0>) %3 : tensor<4x4xf32> in !stream.resource<external>{%c64} -> !hal.buffer_view
    util.return %4 : !hal.buffer_view
  }
}


// -----// IR Dump After FuseGlobalsPass (iree-util-fuse-globals) //----- //
#executable_target_embedded_elf_arm_64 = #hal.executable.target<"llvm-cpu", "embedded-elf-arm_64", {cpu = "", cpu_features = "+reserve-x18", data_layout = "e-m:e-p270:32:32-p271:32:32-p272:64:64-i8:8:32-i16:16:32-i64:64-i128:128-n32:64-S128-Fn32", iree.encoding.resolver = #iree_cpu.cpu_encoding_resolver<>, max_stack_allocation_size = 32768 : i64, native_vector_size = 16 : i64, target_triple = "arm64-unknown-unknown-eabi-elf"}>
#map = affine_map<(d0, d1) -> (d0, d1)>
#device_target_local = #hal.device.target<"local", [#executable_target_embedded_elf_arm_64]> : !hal.device
module attributes {stream.affinity.default = #hal.device.affinity<@__device_0>} {
  util.global private @__device_0 = #device_target_local
  stream.executable private @matmul_dispatch_0 {
    stream.executable.export public @matmul_dispatch_0_matmul_4x4x4_f32 workgroups() -> (index, index, index) {
      %x, %y, %z = iree_tensor_ext.dispatch.workgroup_count_from_slice()
      stream.return %x, %y, %z : index, index, index
    }
    builtin.module {
      func.func @matmul_dispatch_0_matmul_4x4x4_f32(%arg0: !stream.binding {stream.alignment = 64 : index}, %arg1: !stream.binding {stream.alignment = 64 : index}, %arg2: !stream.binding {stream.alignment = 64 : index}, %arg3: i32, %arg4: i32, %arg5: i32, %arg6: i32, %arg7: i32, %arg8: i32) {
        %cst = arith.constant 0.000000e+00 : f32
        %c0 = arith.constant 0 : index
        %0 = stream.binding.subspan %arg0[%c0] : !stream.binding -> !iree_tensor_ext.dispatch.tensor<readonly:tensor<4x4xf32>>
        %1 = stream.binding.subspan %arg1[%c0] : !stream.binding -> !iree_tensor_ext.dispatch.tensor<readonly:tensor<4x4xf32>>
        %2 = stream.binding.subspan %arg2[%c0] : !stream.binding -> !iree_tensor_ext.dispatch.tensor<writeonly:tensor<4x4xf32>>
        %3 = iree_tensor_ext.dispatch.tensor.load %0, offsets = [0, 0], sizes = [4, 4], strides = [1, 1] : !iree_tensor_ext.dispatch.tensor<readonly:tensor<4x4xf32>> -> tensor<4x4xf32>
        %4 = iree_tensor_ext.dispatch.tensor.load %1, offsets = [0, 0], sizes = [4, 4], strides = [1, 1] : !iree_tensor_ext.dispatch.tensor<readonly:tensor<4x4xf32>> -> tensor<4x4xf32>
        %5 = tensor.empty() : tensor<4x4xf32>
        %6 = linalg.matmul ins(%3, %4 : tensor<4x4xf32>, tensor<4x4xf32>) outs(%5 : tensor<4x4xf32>) -> tensor<4x4xf32>
        %7 = linalg.generic {indexing_maps = [#map, #map], iterator_types = ["parallel", "parallel"]} ins(%6 : tensor<4x4xf32>) outs(%5 : tensor<4x4xf32>) {
        ^bb0(%in: f32, %out: f32):
          %8 = arith.maximumf %in, %cst : f32
          linalg.yield %8 : f32
        } -> tensor<4x4xf32>
        iree_tensor_ext.dispatch.tensor.store %7, %2, offsets = [0, 0], sizes = [4, 4], strides = [1, 1] : tensor<4x4xf32> -> !iree_tensor_ext.dispatch.tensor<writeonly:tensor<4x4xf32>>
        return
      }
    }
  }
  util.func public @matmul(%arg0: !hal.buffer_view, %arg1: !hal.buffer_view) -> !hal.buffer_view attributes {iree.abi.stub, iree.reflection = {iree.abi.declaration = "sync func @matmul(%input0: tensor<4x4xf32>, %input1: tensor<4x4xf32>) -> (%output0: tensor<4x4xf32>)"}} {
    %c0_i32 = arith.constant 0 : i32
    %c0 = arith.constant 0 : index
    %c64 = arith.constant 64 : index
    %c4 = arith.constant 4 : index
    %element_type_f32 = hal.element_type<f32> : i32
    %dense_row_major = hal.encoding_type<dense_row_major> : i32
    hal.buffer_view.assert<%arg0 : !hal.buffer_view> message("input0") shape([%c4, %c4]) type(%element_type_f32) encoding(%dense_row_major)
    %0 = stream.tensor.import on(#hal.device.affinity<@__device_0>) %arg0 : !hal.buffer_view -> tensor<4x4xf32> in !stream.resource<external>{%c64}
    hal.buffer_view.assert<%arg1 : !hal.buffer_view> message("input1") shape([%c4, %c4]) type(%element_type_f32) encoding(%dense_row_major)
    %1 = stream.tensor.import on(#hal.device.affinity<@__device_0>) %arg1 : !hal.buffer_view -> tensor<4x4xf32> in !stream.resource<external>{%c64}
    %result, %result_timepoint = stream.resource.alloca uninitialized on(#hal.device.affinity<@__device_0>) : !stream.resource<external>{%c64} => !stream.timepoint
    %2 = stream.cmd.execute on(#hal.device.affinity<@__device_0>) await(%result_timepoint) => with(%0 as %arg2: !stream.resource<external>{%c64}, %1 as %arg3: !stream.resource<external>{%c64}, %result as %arg4: !stream.resource<external>{%c64}) {
      stream.cmd.dispatch @matmul_dispatch_0::@matmul_dispatch_0_matmul_4x4x4_f32(%c0_i32, %c0_i32, %c0_i32, %c0_i32, %c0_i32, %c0_i32 : i32, i32, i32, i32, i32, i32) {
        ro %arg2[%c0 for %c64] : !stream.resource<external>{%c64},
        ro %arg3[%c0 for %c64] : !stream.resource<external>{%c64},
        wo %arg4[%c0 for %c64] : !stream.resource<external>{%c64}
      }
    } => !stream.timepoint
    %3 = stream.timepoint.await %2 => %result : !stream.resource<external>{%c64}
    %4 = stream.tensor.export on(#hal.device.affinity<@__device_0>) %3 : tensor<4x4xf32> in !stream.resource<external>{%c64} -> !hal.buffer_view
    util.return %4 : !hal.buffer_view
  }
}


// -----// IR Dump After IPOPass (iree-util-ipo) //----- //
#executable_target_embedded_elf_arm_64 = #hal.executable.target<"llvm-cpu", "embedded-elf-arm_64", {cpu = "", cpu_features = "+reserve-x18", data_layout = "e-m:e-p270:32:32-p271:32:32-p272:64:64-i8:8:32-i16:16:32-i64:64-i128:128-n32:64-S128-Fn32", iree.encoding.resolver = #iree_cpu.cpu_encoding_resolver<>, max_stack_allocation_size = 32768 : i64, native_vector_size = 16 : i64, target_triple = "arm64-unknown-unknown-eabi-elf"}>
#map = affine_map<(d0, d1) -> (d0, d1)>
#device_target_local = #hal.device.target<"local", [#executable_target_embedded_elf_arm_64]> : !hal.device
module attributes {stream.affinity.default = #hal.device.affinity<@__device_0>} {
  util.global private @__device_0 = #device_target_local
  stream.executable private @matmul_dispatch_0 {
    stream.executable.export public @matmul_dispatch_0_matmul_4x4x4_f32 workgroups() -> (index, index, index) {
      %x, %y, %z = iree_tensor_ext.dispatch.workgroup_count_from_slice()
      stream.return %x, %y, %z : index, index, index
    }
    builtin.module {
      func.func @matmul_dispatch_0_matmul_4x4x4_f32(%arg0: !stream.binding {stream.alignment = 64 : index}, %arg1: !stream.binding {stream.alignment = 64 : index}, %arg2: !stream.binding {stream.alignment = 64 : index}, %arg3: i32, %arg4: i32, %arg5: i32, %arg6: i32, %arg7: i32, %arg8: i32) {
        %cst = arith.constant 0.000000e+00 : f32
        %c0 = arith.constant 0 : index
        %0 = stream.binding.subspan %arg0[%c0] : !stream.binding -> !iree_tensor_ext.dispatch.tensor<readonly:tensor<4x4xf32>>
        %1 = stream.binding.subspan %arg1[%c0] : !stream.binding -> !iree_tensor_ext.dispatch.tensor<readonly:tensor<4x4xf32>>
        %2 = stream.binding.subspan %arg2[%c0] : !stream.binding -> !iree_tensor_ext.dispatch.tensor<writeonly:tensor<4x4xf32>>
        %3 = iree_tensor_ext.dispatch.tensor.load %0, offsets = [0, 0], sizes = [4, 4], strides = [1, 1] : !iree_tensor_ext.dispatch.tensor<readonly:tensor<4x4xf32>> -> tensor<4x4xf32>
        %4 = iree_tensor_ext.dispatch.tensor.load %1, offsets = [0, 0], sizes = [4, 4], strides = [1, 1] : !iree_tensor_ext.dispatch.tensor<readonly:tensor<4x4xf32>> -> tensor<4x4xf32>
        %5 = tensor.empty() : tensor<4x4xf32>
        %6 = linalg.matmul ins(%3, %4 : tensor<4x4xf32>, tensor<4x4xf32>) outs(%5 : tensor<4x4xf32>) -> tensor<4x4xf32>
        %7 = linalg.generic {indexing_maps = [#map, #map], iterator_types = ["parallel", "parallel"]} ins(%6 : tensor<4x4xf32>) outs(%5 : tensor<4x4xf32>) {
        ^bb0(%in: f32, %out: f32):
          %8 = arith.maximumf %in, %cst : f32
          linalg.yield %8 : f32
        } -> tensor<4x4xf32>
        iree_tensor_ext.dispatch.tensor.store %7, %2, offsets = [0, 0], sizes = [4, 4], strides = [1, 1] : tensor<4x4xf32> -> !iree_tensor_ext.dispatch.tensor<writeonly:tensor<4x4xf32>>
        return
      }
    }
  }
  util.func public @matmul(%arg0: !hal.buffer_view, %arg1: !hal.buffer_view) -> !hal.buffer_view attributes {iree.abi.stub, iree.reflection = {iree.abi.declaration = "sync func @matmul(%input0: tensor<4x4xf32>, %input1: tensor<4x4xf32>) -> (%output0: tensor<4x4xf32>)"}} {
    %c0_i32 = arith.constant 0 : i32
    %c0 = arith.constant 0 : index
    %c64 = arith.constant 64 : index
    %c4 = arith.constant 4 : index
    %element_type_f32 = hal.element_type<f32> : i32
    %dense_row_major = hal.encoding_type<dense_row_major> : i32
    hal.buffer_view.assert<%arg0 : !hal.buffer_view> message("input0") shape([%c4, %c4]) type(%element_type_f32) encoding(%dense_row_major)
    %0 = stream.tensor.import on(#hal.device.affinity<@__device_0>) %arg0 : !hal.buffer_view -> tensor<4x4xf32> in !stream.resource<external>{%c64}
    hal.buffer_view.assert<%arg1 : !hal.buffer_view> message("input1") shape([%c4, %c4]) type(%element_type_f32) encoding(%dense_row_major)
    %1 = stream.tensor.import on(#hal.device.affinity<@__device_0>) %arg1 : !hal.buffer_view -> tensor<4x4xf32> in !stream.resource<external>{%c64}
    %result, %result_timepoint = stream.resource.alloca uninitialized on(#hal.device.affinity<@__device_0>) : !stream.resource<external>{%c64} => !stream.timepoint
    %2 = stream.cmd.execute on(#hal.device.affinity<@__device_0>) await(%result_timepoint) => with(%0 as %arg2: !stream.resource<external>{%c64}, %1 as %arg3: !stream.resource<external>{%c64}, %result as %arg4: !stream.resource<external>{%c64}) {
      stream.cmd.dispatch @matmul_dispatch_0::@matmul_dispatch_0_matmul_4x4x4_f32(%c0_i32, %c0_i32, %c0_i32, %c0_i32, %c0_i32, %c0_i32 : i32, i32, i32, i32, i32, i32) {
        ro %arg2[%c0 for %c64] : !stream.resource<external>{%c64},
        ro %arg3[%c0 for %c64] : !stream.resource<external>{%c64},
        wo %arg4[%c0 for %c64] : !stream.resource<external>{%c64}
      }
    } => !stream.timepoint
    %3 = stream.timepoint.await %2 => %result : !stream.resource<external>{%c64}
    %4 = stream.tensor.export on(#hal.device.affinity<@__device_0>) %3 : tensor<4x4xf32> in !stream.resource<external>{%c64} -> !hal.buffer_view
    util.return %4 : !hal.buffer_view
  }
}


// -----// IR Dump After FoldUniformOperandsPass (iree-stream-fold-uniform-operands) //----- //
#executable_target_embedded_elf_arm_64 = #hal.executable.target<"llvm-cpu", "embedded-elf-arm_64", {cpu = "", cpu_features = "+reserve-x18", data_layout = "e-m:e-p270:32:32-p271:32:32-p272:64:64-i8:8:32-i16:16:32-i64:64-i128:128-n32:64-S128-Fn32", iree.encoding.resolver = #iree_cpu.cpu_encoding_resolver<>, max_stack_allocation_size = 32768 : i64, native_vector_size = 16 : i64, target_triple = "arm64-unknown-unknown-eabi-elf"}>
#map = affine_map<(d0, d1) -> (d0, d1)>
#device_target_local = #hal.device.target<"local", [#executable_target_embedded_elf_arm_64]> : !hal.device
module attributes {stream.affinity.default = #hal.device.affinity<@__device_0>} {
  util.global private @__device_0 = #device_target_local
  stream.executable private @matmul_dispatch_0 {
    stream.executable.export public @matmul_dispatch_0_matmul_4x4x4_f32 workgroups() -> (index, index, index) {
      %x, %y, %z = iree_tensor_ext.dispatch.workgroup_count_from_slice()
      stream.return %x, %y, %z : index, index, index
    }
    builtin.module {
      func.func @matmul_dispatch_0_matmul_4x4x4_f32(%arg0: !stream.binding {stream.alignment = 64 : index}, %arg1: !stream.binding {stream.alignment = 64 : index}, %arg2: !stream.binding {stream.alignment = 64 : index}) {
        %c0_i32 = arith.constant 0 : i32
        %cst = arith.constant 0.000000e+00 : f32
        %c0 = arith.constant 0 : index
        %0 = stream.binding.subspan %arg0[%c0] : !stream.binding -> !iree_tensor_ext.dispatch.tensor<readonly:tensor<4x4xf32>>
        %1 = stream.binding.subspan %arg1[%c0] : !stream.binding -> !iree_tensor_ext.dispatch.tensor<readonly:tensor<4x4xf32>>
        %2 = stream.binding.subspan %arg2[%c0] : !stream.binding -> !iree_tensor_ext.dispatch.tensor<writeonly:tensor<4x4xf32>>
        %3 = iree_tensor_ext.dispatch.tensor.load %0, offsets = [0, 0], sizes = [4, 4], strides = [1, 1] : !iree_tensor_ext.dispatch.tensor<readonly:tensor<4x4xf32>> -> tensor<4x4xf32>
        %4 = iree_tensor_ext.dispatch.tensor.load %1, offsets = [0, 0], sizes = [4, 4], strides = [1, 1] : !iree_tensor_ext.dispatch.tensor<readonly:tensor<4x4xf32>> -> tensor<4x4xf32>
        %5 = tensor.empty() : tensor<4x4xf32>
        %6 = linalg.matmul ins(%3, %4 : tensor<4x4xf32>, tensor<4x4xf32>) outs(%5 : tensor<4x4xf32>) -> tensor<4x4xf32>
        %7 = linalg.generic {indexing_maps = [#map, #map], iterator_types = ["parallel", "parallel"]} ins(%6 : tensor<4x4xf32>) outs(%5 : tensor<4x4xf32>) {
        ^bb0(%in: f32, %out: f32):
          %8 = arith.maximumf %in, %cst : f32
          linalg.yield %8 : f32
        } -> tensor<4x4xf32>
        iree_tensor_ext.dispatch.tensor.store %7, %2, offsets = [0, 0], sizes = [4, 4], strides = [1, 1] : tensor<4x4xf32> -> !iree_tensor_ext.dispatch.tensor<writeonly:tensor<4x4xf32>>
        return
      }
    }
  }
  util.func public @matmul(%arg0: !hal.buffer_view, %arg1: !hal.buffer_view) -> !hal.buffer_view attributes {iree.abi.stub, iree.reflection = {iree.abi.declaration = "sync func @matmul(%input0: tensor<4x4xf32>, %input1: tensor<4x4xf32>) -> (%output0: tensor<4x4xf32>)"}} {
    %c0_i32 = arith.constant 0 : i32
    %c0 = arith.constant 0 : index
    %c64 = arith.constant 64 : index
    %c4 = arith.constant 4 : index
    %element_type_f32 = hal.element_type<f32> : i32
    %dense_row_major = hal.encoding_type<dense_row_major> : i32
    hal.buffer_view.assert<%arg0 : !hal.buffer_view> message("input0") shape([%c4, %c4]) type(%element_type_f32) encoding(%dense_row_major)
    %0 = stream.tensor.import on(#hal.device.affinity<@__device_0>) %arg0 : !hal.buffer_view -> tensor<4x4xf32> in !stream.resource<external>{%c64}
    hal.buffer_view.assert<%arg1 : !hal.buffer_view> message("input1") shape([%c4, %c4]) type(%element_type_f32) encoding(%dense_row_major)
    %1 = stream.tensor.import on(#hal.device.affinity<@__device_0>) %arg1 : !hal.buffer_view -> tensor<4x4xf32> in !stream.resource<external>{%c64}
    %result, %result_timepoint = stream.resource.alloca uninitialized on(#hal.device.affinity<@__device_0>) : !stream.resource<external>{%c64} => !stream.timepoint
    %2 = stream.cmd.execute on(#hal.device.affinity<@__device_0>) await(%result_timepoint) => with(%0 as %arg2: !stream.resource<external>{%c64}, %1 as %arg3: !stream.resource<external>{%c64}, %result as %arg4: !stream.resource<external>{%c64}) {
      stream.cmd.dispatch @matmul_dispatch_0::@matmul_dispatch_0_matmul_4x4x4_f32 {
        ro %arg2[%c0 for %c64] : !stream.resource<external>{%c64},
        ro %arg3[%c0 for %c64] : !stream.resource<external>{%c64},
        wo %arg4[%c0 for %c64] : !stream.resource<external>{%c64}
      }
    } => !stream.timepoint
    %3 = stream.timepoint.await %2 => %result : !stream.resource<external>{%c64}
    %4 = stream.tensor.export on(#hal.device.affinity<@__device_0>) %3 : tensor<4x4xf32> in !stream.resource<external>{%c64} -> !hal.buffer_view
    util.return %4 : !hal.buffer_view
  }
}


// -----// IR Dump After Canonicalizer (canonicalize) //----- //
util.func public @matmul(%arg0: !hal.buffer_view, %arg1: !hal.buffer_view) -> !hal.buffer_view attributes {iree.abi.stub, iree.reflection = {iree.abi.declaration = "sync func @matmul(%input0: tensor<4x4xf32>, %input1: tensor<4x4xf32>) -> (%output0: tensor<4x4xf32>)"}} {
  %c0 = arith.constant 0 : index
  %c64 = arith.constant 64 : index
  %c4 = arith.constant 4 : index
  %element_type_f32 = hal.element_type<f32> : i32
  %dense_row_major = hal.encoding_type<dense_row_major> : i32
  hal.buffer_view.assert<%arg0 : !hal.buffer_view> message("input0") shape([%c4, %c4]) type(%element_type_f32) encoding(%dense_row_major)
  %0 = stream.tensor.import on(#hal.device.affinity<@__device_0>) %arg0 : !hal.buffer_view -> tensor<4x4xf32> in !stream.resource<external>{%c64}
  hal.buffer_view.assert<%arg1 : !hal.buffer_view> message("input1") shape([%c4, %c4]) type(%element_type_f32) encoding(%dense_row_major)
  %1 = stream.tensor.import on(#hal.device.affinity<@__device_0>) %arg1 : !hal.buffer_view -> tensor<4x4xf32> in !stream.resource<external>{%c64}
  %result, %result_timepoint = stream.resource.alloca uninitialized on(#hal.device.affinity<@__device_0>) : !stream.resource<external>{%c64} => !stream.timepoint
  %2 = stream.cmd.execute on(#hal.device.affinity<@__device_0>) await(%result_timepoint) => with(%0 as %arg2: !stream.resource<external>{%c64}, %1 as %arg3: !stream.resource<external>{%c64}, %result as %arg4: !stream.resource<external>{%c64}) {
    stream.cmd.dispatch @matmul_dispatch_0::@matmul_dispatch_0_matmul_4x4x4_f32 {
      ro %arg2[%c0 for %c64] : !stream.resource<external>{%c64},
      ro %arg3[%c0 for %c64] : !stream.resource<external>{%c64},
      wo %arg4[%c0 for %c64] : !stream.resource<external>{%c64}
    }
  } => !stream.timepoint
  %3 = stream.timepoint.await %2 => %result : !stream.resource<external>{%c64}
  %4 = stream.tensor.export on(#hal.device.affinity<@__device_0>) %3 : tensor<4x4xf32> in !stream.resource<external>{%c64} -> !hal.buffer_view
  util.return %4 : !hal.buffer_view
}

// -----// IR Dump After CSE (cse) //----- //
util.func public @matmul(%arg0: !hal.buffer_view, %arg1: !hal.buffer_view) -> !hal.buffer_view attributes {iree.abi.stub, iree.reflection = {iree.abi.declaration = "sync func @matmul(%input0: tensor<4x4xf32>, %input1: tensor<4x4xf32>) -> (%output0: tensor<4x4xf32>)"}} {
  %c0 = arith.constant 0 : index
  %c64 = arith.constant 64 : index
  %c4 = arith.constant 4 : index
  %element_type_f32 = hal.element_type<f32> : i32
  %dense_row_major = hal.encoding_type<dense_row_major> : i32
  hal.buffer_view.assert<%arg0 : !hal.buffer_view> message("input0") shape([%c4, %c4]) type(%element_type_f32) encoding(%dense_row_major)
  %0 = stream.tensor.import on(#hal.device.affinity<@__device_0>) %arg0 : !hal.buffer_view -> tensor<4x4xf32> in !stream.resource<external>{%c64}
  hal.buffer_view.assert<%arg1 : !hal.buffer_view> message("input1") shape([%c4, %c4]) type(%element_type_f32) encoding(%dense_row_major)
  %1 = stream.tensor.import on(#hal.device.affinity<@__device_0>) %arg1 : !hal.buffer_view -> tensor<4x4xf32> in !stream.resource<external>{%c64}
  %result, %result_timepoint = stream.resource.alloca uninitialized on(#hal.device.affinity<@__device_0>) : !stream.resource<external>{%c64} => !stream.timepoint
  %2 = stream.cmd.execute on(#hal.device.affinity<@__device_0>) await(%result_timepoint) => with(%0 as %arg2: !stream.resource<external>{%c64}, %1 as %arg3: !stream.resource<external>{%c64}, %result as %arg4: !stream.resource<external>{%c64}) {
    stream.cmd.dispatch @matmul_dispatch_0::@matmul_dispatch_0_matmul_4x4x4_f32 {
      ro %arg2[%c0 for %c64] : !stream.resource<external>{%c64},
      ro %arg3[%c0 for %c64] : !stream.resource<external>{%c64},
      wo %arg4[%c0 for %c64] : !stream.resource<external>{%c64}
    }
  } => !stream.timepoint
  %3 = stream.timepoint.await %2 => %result : !stream.resource<external>{%c64}
  %4 = stream.tensor.export on(#hal.device.affinity<@__device_0>) %3 : tensor<4x4xf32> in !stream.resource<external>{%c64} -> !hal.buffer_view
  util.return %4 : !hal.buffer_view
}

// -----// IR Dump After OptimizeIntArithmeticPass (iree-util-optimize-int-arithmetic) //----- //
util.func public @matmul(%arg0: !hal.buffer_view, %arg1: !hal.buffer_view) -> !hal.buffer_view attributes {iree.abi.stub, iree.reflection = {iree.abi.declaration = "sync func @matmul(%input0: tensor<4x4xf32>, %input1: tensor<4x4xf32>) -> (%output0: tensor<4x4xf32>)"}} {
  %c0 = arith.constant 0 : index
  %c64 = arith.constant 64 : index
  %c4 = arith.constant 4 : index
  %element_type_f32 = hal.element_type<f32> : i32
  %dense_row_major = hal.encoding_type<dense_row_major> : i32
  hal.buffer_view.assert<%arg0 : !hal.buffer_view> message("input0") shape([%c4, %c4]) type(%element_type_f32) encoding(%dense_row_major)
  %0 = stream.tensor.import on(#hal.device.affinity<@__device_0>) %arg0 : !hal.buffer_view -> tensor<4x4xf32> in !stream.resource<external>{%c64}
  hal.buffer_view.assert<%arg1 : !hal.buffer_view> message("input1") shape([%c4, %c4]) type(%element_type_f32) encoding(%dense_row_major)
  %1 = stream.tensor.import on(#hal.device.affinity<@__device_0>) %arg1 : !hal.buffer_view -> tensor<4x4xf32> in !stream.resource<external>{%c64}
  %result, %result_timepoint = stream.resource.alloca uninitialized on(#hal.device.affinity<@__device_0>) : !stream.resource<external>{%c64} => !stream.timepoint
  %2 = stream.cmd.execute on(#hal.device.affinity<@__device_0>) await(%result_timepoint) => with(%0 as %arg2: !stream.resource<external>{%c64}, %1 as %arg3: !stream.resource<external>{%c64}, %result as %arg4: !stream.resource<external>{%c64}) {
    stream.cmd.dispatch @matmul_dispatch_0::@matmul_dispatch_0_matmul_4x4x4_f32 {
      ro %arg2[%c0 for %c64] : !stream.resource<external>{%c64},
      ro %arg3[%c0 for %c64] : !stream.resource<external>{%c64},
      wo %arg4[%c0 for %c64] : !stream.resource<external>{%c64}
    }
  } => !stream.timepoint
  %3 = stream.timepoint.await %2 => %result : !stream.resource<external>{%c64}
  %4 = stream.tensor.export on(#hal.device.affinity<@__device_0>) %3 : tensor<4x4xf32> in !stream.resource<external>{%c64} -> !hal.buffer_view
  util.return %4 : !hal.buffer_view
}

// -----// IR Dump After SimplifyGlobalAccessesPass (iree-util-simplify-global-accesses) //----- //
util.func public @matmul(%arg0: !hal.buffer_view, %arg1: !hal.buffer_view) -> !hal.buffer_view attributes {iree.abi.stub, iree.reflection = {iree.abi.declaration = "sync func @matmul(%input0: tensor<4x4xf32>, %input1: tensor<4x4xf32>) -> (%output0: tensor<4x4xf32>)"}} {
  %c0 = arith.constant 0 : index
  %c64 = arith.constant 64 : index
  %c4 = arith.constant 4 : index
  %element_type_f32 = hal.element_type<f32> : i32
  %dense_row_major = hal.encoding_type<dense_row_major> : i32
  hal.buffer_view.assert<%arg0 : !hal.buffer_view> message("input0") shape([%c4, %c4]) type(%element_type_f32) encoding(%dense_row_major)
  %0 = stream.tensor.import on(#hal.device.affinity<@__device_0>) %arg0 : !hal.buffer_view -> tensor<4x4xf32> in !stream.resource<external>{%c64}
  hal.buffer_view.assert<%arg1 : !hal.buffer_view> message("input1") shape([%c4, %c4]) type(%element_type_f32) encoding(%dense_row_major)
  %1 = stream.tensor.import on(#hal.device.affinity<@__device_0>) %arg1 : !hal.buffer_view -> tensor<4x4xf32> in !stream.resource<external>{%c64}
  %result, %result_timepoint = stream.resource.alloca uninitialized on(#hal.device.affinity<@__device_0>) : !stream.resource<external>{%c64} => !stream.timepoint
  %2 = stream.cmd.execute on(#hal.device.affinity<@__device_0>) await(%result_timepoint) => with(%0 as %arg2: !stream.resource<external>{%c64}, %1 as %arg3: !stream.resource<external>{%c64}, %result as %arg4: !stream.resource<external>{%c64}) {
    stream.cmd.dispatch @matmul_dispatch_0::@matmul_dispatch_0_matmul_4x4x4_f32 {
      ro %arg2[%c0 for %c64] : !stream.resource<external>{%c64},
      ro %arg3[%c0 for %c64] : !stream.resource<external>{%c64},
      wo %arg4[%c0 for %c64] : !stream.resource<external>{%c64}
    }
  } => !stream.timepoint
  %3 = stream.timepoint.await %2 => %result : !stream.resource<external>{%c64}
  %4 = stream.tensor.export on(#hal.device.affinity<@__device_0>) %3 : tensor<4x4xf32> in !stream.resource<external>{%c64} -> !hal.buffer_view
  util.return %4 : !hal.buffer_view
}

// -----// IR Dump After ApplyPatternsPass (iree-util-apply-patterns) //----- //
util.func public @matmul(%arg0: !hal.buffer_view, %arg1: !hal.buffer_view) -> !hal.buffer_view attributes {iree.abi.stub, iree.reflection = {iree.abi.declaration = "sync func @matmul(%input0: tensor<4x4xf32>, %input1: tensor<4x4xf32>) -> (%output0: tensor<4x4xf32>)"}} {
  %c0 = arith.constant 0 : index
  %c64 = arith.constant 64 : index
  %c4 = arith.constant 4 : index
  %element_type_f32 = hal.element_type<f32> : i32
  %dense_row_major = hal.encoding_type<dense_row_major> : i32
  hal.buffer_view.assert<%arg0 : !hal.buffer_view> message("input0") shape([%c4, %c4]) type(%element_type_f32) encoding(%dense_row_major)
  %0 = stream.tensor.import on(#hal.device.affinity<@__device_0>) %arg0 : !hal.buffer_view -> tensor<4x4xf32> in !stream.resource<external>{%c64}
  hal.buffer_view.assert<%arg1 : !hal.buffer_view> message("input1") shape([%c4, %c4]) type(%element_type_f32) encoding(%dense_row_major)
  %1 = stream.tensor.import on(#hal.device.affinity<@__device_0>) %arg1 : !hal.buffer_view -> tensor<4x4xf32> in !stream.resource<external>{%c64}
  %result, %result_timepoint = stream.resource.alloca uninitialized on(#hal.device.affinity<@__device_0>) : !stream.resource<external>{%c64} => !stream.timepoint
  %2 = stream.cmd.execute on(#hal.device.affinity<@__device_0>) await(%result_timepoint) => with(%0 as %arg2: !stream.resource<external>{%c64}, %1 as %arg3: !stream.resource<external>{%c64}, %result as %arg4: !stream.resource<external>{%c64}) {
    stream.cmd.dispatch @matmul_dispatch_0::@matmul_dispatch_0_matmul_4x4x4_f32 {
      ro %arg2[%c0 for %c64] : !stream.resource<external>{%c64},
      ro %arg3[%c0 for %c64] : !stream.resource<external>{%c64},
      wo %arg4[%c0 for %c64] : !stream.resource<external>{%c64}
    }
  } => !stream.timepoint
  %3 = stream.timepoint.await %2 => %result : !stream.resource<external>{%c64}
  %4 = stream.tensor.export on(#hal.device.affinity<@__device_0>) %3 : tensor<4x4xf32> in !stream.resource<external>{%c64} -> !hal.buffer_view
  util.return %4 : !hal.buffer_view
}

// -----// IR Dump After FoldGlobalsPass (iree-util-fold-globals) //----- //
#executable_target_embedded_elf_arm_64 = #hal.executable.target<"llvm-cpu", "embedded-elf-arm_64", {cpu = "", cpu_features = "+reserve-x18", data_layout = "e-m:e-p270:32:32-p271:32:32-p272:64:64-i8:8:32-i16:16:32-i64:64-i128:128-n32:64-S128-Fn32", iree.encoding.resolver = #iree_cpu.cpu_encoding_resolver<>, max_stack_allocation_size = 32768 : i64, native_vector_size = 16 : i64, target_triple = "arm64-unknown-unknown-eabi-elf"}>
#map = affine_map<(d0, d1) -> (d0, d1)>
#device_target_local = #hal.device.target<"local", [#executable_target_embedded_elf_arm_64]> : !hal.device
module attributes {stream.affinity.default = #hal.device.affinity<@__device_0>} {
  util.global private @__device_0 = #device_target_local
  stream.executable private @matmul_dispatch_0 {
    stream.executable.export public @matmul_dispatch_0_matmul_4x4x4_f32 workgroups() -> (index, index, index) {
      %x, %y, %z = iree_tensor_ext.dispatch.workgroup_count_from_slice()
      stream.return %x, %y, %z : index, index, index
    }
    builtin.module {
      func.func @matmul_dispatch_0_matmul_4x4x4_f32(%arg0: !stream.binding {stream.alignment = 64 : index}, %arg1: !stream.binding {stream.alignment = 64 : index}, %arg2: !stream.binding {stream.alignment = 64 : index}) {
        %cst = arith.constant 0.000000e+00 : f32
        %c0 = arith.constant 0 : index
        %0 = stream.binding.subspan %arg0[%c0] : !stream.binding -> !iree_tensor_ext.dispatch.tensor<readonly:tensor<4x4xf32>>
        %1 = stream.binding.subspan %arg1[%c0] : !stream.binding -> !iree_tensor_ext.dispatch.tensor<readonly:tensor<4x4xf32>>
        %2 = stream.binding.subspan %arg2[%c0] : !stream.binding -> !iree_tensor_ext.dispatch.tensor<writeonly:tensor<4x4xf32>>
        %3 = iree_tensor_ext.dispatch.tensor.load %0, offsets = [0, 0], sizes = [4, 4], strides = [1, 1] : !iree_tensor_ext.dispatch.tensor<readonly:tensor<4x4xf32>> -> tensor<4x4xf32>
        %4 = iree_tensor_ext.dispatch.tensor.load %1, offsets = [0, 0], sizes = [4, 4], strides = [1, 1] : !iree_tensor_ext.dispatch.tensor<readonly:tensor<4x4xf32>> -> tensor<4x4xf32>
        %5 = tensor.empty() : tensor<4x4xf32>
        %6 = linalg.matmul ins(%3, %4 : tensor<4x4xf32>, tensor<4x4xf32>) outs(%5 : tensor<4x4xf32>) -> tensor<4x4xf32>
        %7 = linalg.generic {indexing_maps = [#map, #map], iterator_types = ["parallel", "parallel"]} ins(%6 : tensor<4x4xf32>) outs(%5 : tensor<4x4xf32>) {
        ^bb0(%in: f32, %out: f32):
          %8 = arith.maximumf %in, %cst : f32
          linalg.yield %8 : f32
        } -> tensor<4x4xf32>
        iree_tensor_ext.dispatch.tensor.store %7, %2, offsets = [0, 0], sizes = [4, 4], strides = [1, 1] : tensor<4x4xf32> -> !iree_tensor_ext.dispatch.tensor<writeonly:tensor<4x4xf32>>
        return
      }
    }
  }
  util.func public @matmul(%arg0: !hal.buffer_view, %arg1: !hal.buffer_view) -> !hal.buffer_view attributes {iree.abi.stub, iree.reflection = {iree.abi.declaration = "sync func @matmul(%input0: tensor<4x4xf32>, %input1: tensor<4x4xf32>) -> (%output0: tensor<4x4xf32>)"}} {
    %c0 = arith.constant 0 : index
    %c64 = arith.constant 64 : index
    %c4 = arith.constant 4 : index
    %element_type_f32 = hal.element_type<f32> : i32
    %dense_row_major = hal.encoding_type<dense_row_major> : i32
    hal.buffer_view.assert<%arg0 : !hal.buffer_view> message("input0") shape([%c4, %c4]) type(%element_type_f32) encoding(%dense_row_major)
    %0 = stream.tensor.import on(#hal.device.affinity<@__device_0>) %arg0 : !hal.buffer_view -> tensor<4x4xf32> in !stream.resource<external>{%c64}
    hal.buffer_view.assert<%arg1 : !hal.buffer_view> message("input1") shape([%c4, %c4]) type(%element_type_f32) encoding(%dense_row_major)
    %1 = stream.tensor.import on(#hal.device.affinity<@__device_0>) %arg1 : !hal.buffer_view -> tensor<4x4xf32> in !stream.resource<external>{%c64}
    %result, %result_timepoint = stream.resource.alloca uninitialized on(#hal.device.affinity<@__device_0>) : !stream.resource<external>{%c64} => !stream.timepoint
    %2 = stream.cmd.execute on(#hal.device.affinity<@__device_0>) await(%result_timepoint) => with(%0 as %arg2: !stream.resource<external>{%c64}, %1 as %arg3: !stream.resource<external>{%c64}, %result as %arg4: !stream.resource<external>{%c64}) {
      stream.cmd.dispatch @matmul_dispatch_0::@matmul_dispatch_0_matmul_4x4x4_f32 {
        ro %arg2[%c0 for %c64] : !stream.resource<external>{%c64},
        ro %arg3[%c0 for %c64] : !stream.resource<external>{%c64},
        wo %arg4[%c0 for %c64] : !stream.resource<external>{%c64}
      }
    } => !stream.timepoint
    %3 = stream.timepoint.await %2 => %result : !stream.resource<external>{%c64}
    %4 = stream.tensor.export on(#hal.device.affinity<@__device_0>) %3 : tensor<4x4xf32> in !stream.resource<external>{%c64} -> !hal.buffer_view
    util.return %4 : !hal.buffer_view
  }
}


// -----// IR Dump After FuseGlobalsPass (iree-util-fuse-globals) //----- //
#executable_target_embedded_elf_arm_64 = #hal.executable.target<"llvm-cpu", "embedded-elf-arm_64", {cpu = "", cpu_features = "+reserve-x18", data_layout = "e-m:e-p270:32:32-p271:32:32-p272:64:64-i8:8:32-i16:16:32-i64:64-i128:128-n32:64-S128-Fn32", iree.encoding.resolver = #iree_cpu.cpu_encoding_resolver<>, max_stack_allocation_size = 32768 : i64, native_vector_size = 16 : i64, target_triple = "arm64-unknown-unknown-eabi-elf"}>
#map = affine_map<(d0, d1) -> (d0, d1)>
#device_target_local = #hal.device.target<"local", [#executable_target_embedded_elf_arm_64]> : !hal.device
module attributes {stream.affinity.default = #hal.device.affinity<@__device_0>} {
  util.global private @__device_0 = #device_target_local
  stream.executable private @matmul_dispatch_0 {
    stream.executable.export public @matmul_dispatch_0_matmul_4x4x4_f32 workgroups() -> (index, index, index) {
      %x, %y, %z = iree_tensor_ext.dispatch.workgroup_count_from_slice()
      stream.return %x, %y, %z : index, index, index
    }
    builtin.module {
      func.func @matmul_dispatch_0_matmul_4x4x4_f32(%arg0: !stream.binding {stream.alignment = 64 : index}, %arg1: !stream.binding {stream.alignment = 64 : index}, %arg2: !stream.binding {stream.alignment = 64 : index}) {
        %cst = arith.constant 0.000000e+00 : f32
        %c0 = arith.constant 0 : index
        %0 = stream.binding.subspan %arg0[%c0] : !stream.binding -> !iree_tensor_ext.dispatch.tensor<readonly:tensor<4x4xf32>>
        %1 = stream.binding.subspan %arg1[%c0] : !stream.binding -> !iree_tensor_ext.dispatch.tensor<readonly:tensor<4x4xf32>>
        %2 = stream.binding.subspan %arg2[%c0] : !stream.binding -> !iree_tensor_ext.dispatch.tensor<writeonly:tensor<4x4xf32>>
        %3 = iree_tensor_ext.dispatch.tensor.load %0, offsets = [0, 0], sizes = [4, 4], strides = [1, 1] : !iree_tensor_ext.dispatch.tensor<readonly:tensor<4x4xf32>> -> tensor<4x4xf32>
        %4 = iree_tensor_ext.dispatch.tensor.load %1, offsets = [0, 0], sizes = [4, 4], strides = [1, 1] : !iree_tensor_ext.dispatch.tensor<readonly:tensor<4x4xf32>> -> tensor<4x4xf32>
        %5 = tensor.empty() : tensor<4x4xf32>
        %6 = linalg.matmul ins(%3, %4 : tensor<4x4xf32>, tensor<4x4xf32>) outs(%5 : tensor<4x4xf32>) -> tensor<4x4xf32>
        %7 = linalg.generic {indexing_maps = [#map, #map], iterator_types = ["parallel", "parallel"]} ins(%6 : tensor<4x4xf32>) outs(%5 : tensor<4x4xf32>) {
        ^bb0(%in: f32, %out: f32):
          %8 = arith.maximumf %in, %cst : f32
          linalg.yield %8 : f32
        } -> tensor<4x4xf32>
        iree_tensor_ext.dispatch.tensor.store %7, %2, offsets = [0, 0], sizes = [4, 4], strides = [1, 1] : tensor<4x4xf32> -> !iree_tensor_ext.dispatch.tensor<writeonly:tensor<4x4xf32>>
        return
      }
    }
  }
  util.func public @matmul(%arg0: !hal.buffer_view, %arg1: !hal.buffer_view) -> !hal.buffer_view attributes {iree.abi.stub, iree.reflection = {iree.abi.declaration = "sync func @matmul(%input0: tensor<4x4xf32>, %input1: tensor<4x4xf32>) -> (%output0: tensor<4x4xf32>)"}} {
    %c0 = arith.constant 0 : index
    %c64 = arith.constant 64 : index
    %c4 = arith.constant 4 : index
    %element_type_f32 = hal.element_type<f32> : i32
    %dense_row_major = hal.encoding_type<dense_row_major> : i32
    hal.buffer_view.assert<%arg0 : !hal.buffer_view> message("input0") shape([%c4, %c4]) type(%element_type_f32) encoding(%dense_row_major)
    %0 = stream.tensor.import on(#hal.device.affinity<@__device_0>) %arg0 : !hal.buffer_view -> tensor<4x4xf32> in !stream.resource<external>{%c64}
    hal.buffer_view.assert<%arg1 : !hal.buffer_view> message("input1") shape([%c4, %c4]) type(%element_type_f32) encoding(%dense_row_major)
    %1 = stream.tensor.import on(#hal.device.affinity<@__device_0>) %arg1 : !hal.buffer_view -> tensor<4x4xf32> in !stream.resource<external>{%c64}
    %result, %result_timepoint = stream.resource.alloca uninitialized on(#hal.device.affinity<@__device_0>) : !stream.resource<external>{%c64} => !stream.timepoint
    %2 = stream.cmd.execute on(#hal.device.affinity<@__device_0>) await(%result_timepoint) => with(%0 as %arg2: !stream.resource<external>{%c64}, %1 as %arg3: !stream.resource<external>{%c64}, %result as %arg4: !stream.resource<external>{%c64}) {
      stream.cmd.dispatch @matmul_dispatch_0::@matmul_dispatch_0_matmul_4x4x4_f32 {
        ro %arg2[%c0 for %c64] : !stream.resource<external>{%c64},
        ro %arg3[%c0 for %c64] : !stream.resource<external>{%c64},
        wo %arg4[%c0 for %c64] : !stream.resource<external>{%c64}
      }
    } => !stream.timepoint
    %3 = stream.timepoint.await %2 => %result : !stream.resource<external>{%c64}
    %4 = stream.tensor.export on(#hal.device.affinity<@__device_0>) %3 : tensor<4x4xf32> in !stream.resource<external>{%c64} -> !hal.buffer_view
    util.return %4 : !hal.buffer_view
  }
}


// -----// IR Dump After IPOPass (iree-util-ipo) //----- //
#executable_target_embedded_elf_arm_64 = #hal.executable.target<"llvm-cpu", "embedded-elf-arm_64", {cpu = "", cpu_features = "+reserve-x18", data_layout = "e-m:e-p270:32:32-p271:32:32-p272:64:64-i8:8:32-i16:16:32-i64:64-i128:128-n32:64-S128-Fn32", iree.encoding.resolver = #iree_cpu.cpu_encoding_resolver<>, max_stack_allocation_size = 32768 : i64, native_vector_size = 16 : i64, target_triple = "arm64-unknown-unknown-eabi-elf"}>
#map = affine_map<(d0, d1) -> (d0, d1)>
#device_target_local = #hal.device.target<"local", [#executable_target_embedded_elf_arm_64]> : !hal.device
module attributes {stream.affinity.default = #hal.device.affinity<@__device_0>} {
  util.global private @__device_0 = #device_target_local
  stream.executable private @matmul_dispatch_0 {
    stream.executable.export public @matmul_dispatch_0_matmul_4x4x4_f32 workgroups() -> (index, index, index) {
      %x, %y, %z = iree_tensor_ext.dispatch.workgroup_count_from_slice()
      stream.return %x, %y, %z : index, index, index
    }
    builtin.module {
      func.func @matmul_dispatch_0_matmul_4x4x4_f32(%arg0: !stream.binding {stream.alignment = 64 : index}, %arg1: !stream.binding {stream.alignment = 64 : index}, %arg2: !stream.binding {stream.alignment = 64 : index}) {
        %cst = arith.constant 0.000000e+00 : f32
        %c0 = arith.constant 0 : index
        %0 = stream.binding.subspan %arg0[%c0] : !stream.binding -> !iree_tensor_ext.dispatch.tensor<readonly:tensor<4x4xf32>>
        %1 = stream.binding.subspan %arg1[%c0] : !stream.binding -> !iree_tensor_ext.dispatch.tensor<readonly:tensor<4x4xf32>>
        %2 = stream.binding.subspan %arg2[%c0] : !stream.binding -> !iree_tensor_ext.dispatch.tensor<writeonly:tensor<4x4xf32>>
        %3 = iree_tensor_ext.dispatch.tensor.load %0, offsets = [0, 0], sizes = [4, 4], strides = [1, 1] : !iree_tensor_ext.dispatch.tensor<readonly:tensor<4x4xf32>> -> tensor<4x4xf32>
        %4 = iree_tensor_ext.dispatch.tensor.load %1, offsets = [0, 0], sizes = [4, 4], strides = [1, 1] : !iree_tensor_ext.dispatch.tensor<readonly:tensor<4x4xf32>> -> tensor<4x4xf32>
        %5 = tensor.empty() : tensor<4x4xf32>
        %6 = linalg.matmul ins(%3, %4 : tensor<4x4xf32>, tensor<4x4xf32>) outs(%5 : tensor<4x4xf32>) -> tensor<4x4xf32>
        %7 = linalg.generic {indexing_maps = [#map, #map], iterator_types = ["parallel", "parallel"]} ins(%6 : tensor<4x4xf32>) outs(%5 : tensor<4x4xf32>) {
        ^bb0(%in: f32, %out: f32):
          %8 = arith.maximumf %in, %cst : f32
          linalg.yield %8 : f32
        } -> tensor<4x4xf32>
        iree_tensor_ext.dispatch.tensor.store %7, %2, offsets = [0, 0], sizes = [4, 4], strides = [1, 1] : tensor<4x4xf32> -> !iree_tensor_ext.dispatch.tensor<writeonly:tensor<4x4xf32>>
        return
      }
    }
  }
  util.func public @matmul(%arg0: !hal.buffer_view, %arg1: !hal.buffer_view) -> !hal.buffer_view attributes {iree.abi.stub, iree.reflection = {iree.abi.declaration = "sync func @matmul(%input0: tensor<4x4xf32>, %input1: tensor<4x4xf32>) -> (%output0: tensor<4x4xf32>)"}} {
    %c0 = arith.constant 0 : index
    %c64 = arith.constant 64 : index
    %c4 = arith.constant 4 : index
    %element_type_f32 = hal.element_type<f32> : i32
    %dense_row_major = hal.encoding_type<dense_row_major> : i32
    hal.buffer_view.assert<%arg0 : !hal.buffer_view> message("input0") shape([%c4, %c4]) type(%element_type_f32) encoding(%dense_row_major)
    %0 = stream.tensor.import on(#hal.device.affinity<@__device_0>) %arg0 : !hal.buffer_view -> tensor<4x4xf32> in !stream.resource<external>{%c64}
    hal.buffer_view.assert<%arg1 : !hal.buffer_view> message("input1") shape([%c4, %c4]) type(%element_type_f32) encoding(%dense_row_major)
    %1 = stream.tensor.import on(#hal.device.affinity<@__device_0>) %arg1 : !hal.buffer_view -> tensor<4x4xf32> in !stream.resource<external>{%c64}
    %result, %result_timepoint = stream.resource.alloca uninitialized on(#hal.device.affinity<@__device_0>) : !stream.resource<external>{%c64} => !stream.timepoint
    %2 = stream.cmd.execute on(#hal.device.affinity<@__device_0>) await(%result_timepoint) => with(%0 as %arg2: !stream.resource<external>{%c64}, %1 as %arg3: !stream.resource<external>{%c64}, %result as %arg4: !stream.resource<external>{%c64}) {
      stream.cmd.dispatch @matmul_dispatch_0::@matmul_dispatch_0_matmul_4x4x4_f32 {
        ro %arg2[%c0 for %c64] : !stream.resource<external>{%c64},
        ro %arg3[%c0 for %c64] : !stream.resource<external>{%c64},
        wo %arg4[%c0 for %c64] : !stream.resource<external>{%c64}
      }
    } => !stream.timepoint
    %3 = stream.timepoint.await %2 => %result : !stream.resource<external>{%c64}
    %4 = stream.tensor.export on(#hal.device.affinity<@__device_0>) %3 : tensor<4x4xf32> in !stream.resource<external>{%c64} -> !hal.buffer_view
    util.return %4 : !hal.buffer_view
  }
}


// -----// IR Dump After SymbolDCE (symbol-dce) //----- //
#executable_target_embedded_elf_arm_64 = #hal.executable.target<"llvm-cpu", "embedded-elf-arm_64", {cpu = "", cpu_features = "+reserve-x18", data_layout = "e-m:e-p270:32:32-p271:32:32-p272:64:64-i8:8:32-i16:16:32-i64:64-i128:128-n32:64-S128-Fn32", iree.encoding.resolver = #iree_cpu.cpu_encoding_resolver<>, max_stack_allocation_size = 32768 : i64, native_vector_size = 16 : i64, target_triple = "arm64-unknown-unknown-eabi-elf"}>
#map = affine_map<(d0, d1) -> (d0, d1)>
#device_target_local = #hal.device.target<"local", [#executable_target_embedded_elf_arm_64]> : !hal.device
module attributes {stream.affinity.default = #hal.device.affinity<@__device_0>} {
  util.global private @__device_0 = #device_target_local
  stream.executable private @matmul_dispatch_0 {
    stream.executable.export public @matmul_dispatch_0_matmul_4x4x4_f32 workgroups() -> (index, index, index) {
      %x, %y, %z = iree_tensor_ext.dispatch.workgroup_count_from_slice()
      stream.return %x, %y, %z : index, index, index
    }
    builtin.module {
      func.func @matmul_dispatch_0_matmul_4x4x4_f32(%arg0: !stream.binding {stream.alignment = 64 : index}, %arg1: !stream.binding {stream.alignment = 64 : index}, %arg2: !stream.binding {stream.alignment = 64 : index}) {
        %cst = arith.constant 0.000000e+00 : f32
        %c0 = arith.constant 0 : index
        %0 = stream.binding.subspan %arg0[%c0] : !stream.binding -> !iree_tensor_ext.dispatch.tensor<readonly:tensor<4x4xf32>>
        %1 = stream.binding.subspan %arg1[%c0] : !stream.binding -> !iree_tensor_ext.dispatch.tensor<readonly:tensor<4x4xf32>>
        %2 = stream.binding.subspan %arg2[%c0] : !stream.binding -> !iree_tensor_ext.dispatch.tensor<writeonly:tensor<4x4xf32>>
        %3 = iree_tensor_ext.dispatch.tensor.load %0, offsets = [0, 0], sizes = [4, 4], strides = [1, 1] : !iree_tensor_ext.dispatch.tensor<readonly:tensor<4x4xf32>> -> tensor<4x4xf32>
        %4 = iree_tensor_ext.dispatch.tensor.load %1, offsets = [0, 0], sizes = [4, 4], strides = [1, 1] : !iree_tensor_ext.dispatch.tensor<readonly:tensor<4x4xf32>> -> tensor<4x4xf32>
        %5 = tensor.empty() : tensor<4x4xf32>
        %6 = linalg.matmul ins(%3, %4 : tensor<4x4xf32>, tensor<4x4xf32>) outs(%5 : tensor<4x4xf32>) -> tensor<4x4xf32>
        %7 = linalg.generic {indexing_maps = [#map, #map], iterator_types = ["parallel", "parallel"]} ins(%6 : tensor<4x4xf32>) outs(%5 : tensor<4x4xf32>) {
        ^bb0(%in: f32, %out: f32):
          %8 = arith.maximumf %in, %cst : f32
          linalg.yield %8 : f32
        } -> tensor<4x4xf32>
        iree_tensor_ext.dispatch.tensor.store %7, %2, offsets = [0, 0], sizes = [4, 4], strides = [1, 1] : tensor<4x4xf32> -> !iree_tensor_ext.dispatch.tensor<writeonly:tensor<4x4xf32>>
        return
      }
    }
  }
  util.func public @matmul(%arg0: !hal.buffer_view, %arg1: !hal.buffer_view) -> !hal.buffer_view attributes {iree.abi.stub, iree.reflection = {iree.abi.declaration = "sync func @matmul(%input0: tensor<4x4xf32>, %input1: tensor<4x4xf32>) -> (%output0: tensor<4x4xf32>)"}} {
    %c0 = arith.constant 0 : index
    %c64 = arith.constant 64 : index
    %c4 = arith.constant 4 : index
    %element_type_f32 = hal.element_type<f32> : i32
    %dense_row_major = hal.encoding_type<dense_row_major> : i32
    hal.buffer_view.assert<%arg0 : !hal.buffer_view> message("input0") shape([%c4, %c4]) type(%element_type_f32) encoding(%dense_row_major)
    %0 = stream.tensor.import on(#hal.device.affinity<@__device_0>) %arg0 : !hal.buffer_view -> tensor<4x4xf32> in !stream.resource<external>{%c64}
    hal.buffer_view.assert<%arg1 : !hal.buffer_view> message("input1") shape([%c4, %c4]) type(%element_type_f32) encoding(%dense_row_major)
    %1 = stream.tensor.import on(#hal.device.affinity<@__device_0>) %arg1 : !hal.buffer_view -> tensor<4x4xf32> in !stream.resource<external>{%c64}
    %result, %result_timepoint = stream.resource.alloca uninitialized on(#hal.device.affinity<@__device_0>) : !stream.resource<external>{%c64} => !stream.timepoint
    %2 = stream.cmd.execute on(#hal.device.affinity<@__device_0>) await(%result_timepoint) => with(%0 as %arg2: !stream.resource<external>{%c64}, %1 as %arg3: !stream.resource<external>{%c64}, %result as %arg4: !stream.resource<external>{%c64}) {
      stream.cmd.dispatch @matmul_dispatch_0::@matmul_dispatch_0_matmul_4x4x4_f32 {
        ro %arg2[%c0 for %c64] : !stream.resource<external>{%c64},
        ro %arg3[%c0 for %c64] : !stream.resource<external>{%c64},
        wo %arg4[%c0 for %c64] : !stream.resource<external>{%c64}
      }
    } => !stream.timepoint
    %3 = stream.timepoint.await %2 => %result : !stream.resource<external>{%c64}
    %4 = stream.tensor.export on(#hal.device.affinity<@__device_0>) %3 : tensor<4x4xf32> in !stream.resource<external>{%c64} -> !hal.buffer_view
    util.return %4 : !hal.buffer_view
  }
}


